<?xml version="1.0" ?>
<net name="tcn" version="10">
	<layers>
		<layer id="0" name="linear.bias1804064" type="Const" version="opset1">
			<data element_type="f32" offset="0" shape="1,1,40" size="160"/>
			<output>
				<port id="0" names="linear.bias" precision="FP32">
					<dim>1</dim>
					<dim>1</dim>
					<dim>40</dim>
				</port>
			</output>
		</layer>
		<layer id="1" name="110111054313" type="Const" version="opset1">
			<data element_type="f32" offset="160" shape="" size="4"/>
			<output>
				<port id="0" precision="FP32"/>
			</output>
		</layer>
		<layer id="2" name="110211064424" type="Const" version="opset1">
			<data element_type="f32" offset="164" shape="" size="4"/>
			<output>
				<port id="0" precision="FP32"/>
			</output>
		</layer>
		<layer id="3" name="110311074019" type="Const" version="opset1">
			<data element_type="f32" offset="160" shape="" size="4"/>
			<output>
				<port id="0" precision="FP32"/>
			</output>
		</layer>
		<layer id="4" name="110411084091" type="Const" version="opset1">
			<data element_type="f32" offset="164" shape="" size="4"/>
			<output>
				<port id="0" precision="FP32"/>
			</output>
		</layer>
		<layer id="5" name="8518554571" type="Const" version="opset1">
			<data element_type="f32" offset="168" shape="" size="4"/>
			<output>
				<port id="0" precision="FP32"/>
			</output>
		</layer>
		<layer id="6" name="8528564556" type="Const" version="opset1">
			<data element_type="f32" offset="172" shape="" size="4"/>
			<output>
				<port id="0" precision="FP32"/>
			</output>
		</layer>
		<layer id="7" name="8538574244" type="Const" version="opset1">
			<data element_type="f32" offset="168" shape="" size="4"/>
			<output>
				<port id="0" precision="FP32"/>
			</output>
		</layer>
		<layer id="8" name="8548584199" type="Const" version="opset1">
			<data element_type="f32" offset="172" shape="" size="4"/>
			<output>
				<port id="0" precision="FP32"/>
			</output>
		</layer>
		<layer id="9" name="8018054055" type="Const" version="opset1">
			<data element_type="f32" offset="160" shape="" size="4"/>
			<output>
				<port id="0" precision="FP32"/>
			</output>
		</layer>
		<layer id="10" name="8028064679" type="Const" version="opset1">
			<data element_type="f32" offset="176" shape="" size="4"/>
			<output>
				<port id="0" precision="FP32"/>
			</output>
		</layer>
		<layer id="11" name="8038074142" type="Const" version="opset1">
			<data element_type="f32" offset="160" shape="" size="4"/>
			<output>
				<port id="0" precision="FP32"/>
			</output>
		</layer>
		<layer id="12" name="8048084181" type="Const" version="opset1">
			<data element_type="f32" offset="176" shape="" size="4"/>
			<output>
				<port id="0" precision="FP32"/>
			</output>
		</layer>
		<layer id="13" name="9119153992" type="Const" version="opset1">
			<data element_type="f32" offset="160" shape="" size="4"/>
			<output>
				<port id="0" precision="FP32"/>
			</output>
		</layer>
		<layer id="14" name="9129164370" type="Const" version="opset1">
			<data element_type="f32" offset="180" shape="" size="4"/>
			<output>
				<port id="0" precision="FP32"/>
			</output>
		</layer>
		<layer id="15" name="9139174250" type="Const" version="opset1">
			<data element_type="f32" offset="160" shape="" size="4"/>
			<output>
				<port id="0" precision="FP32"/>
			</output>
		</layer>
		<layer id="16" name="9149184157" type="Const" version="opset1">
			<data element_type="f32" offset="180" shape="" size="4"/>
			<output>
				<port id="0" precision="FP32"/>
			</output>
		</layer>
		<layer id="17" name="8318354094" type="Const" version="opset1">
			<data element_type="f32" offset="160" shape="" size="4"/>
			<output>
				<port id="0" precision="FP32"/>
			</output>
		</layer>
		<layer id="18" name="8328364259" type="Const" version="opset1">
			<data element_type="f32" offset="184" shape="" size="4"/>
			<output>
				<port id="0" precision="FP32"/>
			</output>
		</layer>
		<layer id="19" name="8338374586" type="Const" version="opset1">
			<data element_type="f32" offset="160" shape="" size="4"/>
			<output>
				<port id="0" precision="FP32"/>
			</output>
		</layer>
		<layer id="20" name="8348384136" type="Const" version="opset1">
			<data element_type="f32" offset="184" shape="" size="4"/>
			<output>
				<port id="0" precision="FP32"/>
			</output>
		</layer>
		<layer id="21" name="7317354535" type="Const" version="opset1">
			<data element_type="f32" offset="160" shape="" size="4"/>
			<output>
				<port id="0" precision="FP32"/>
			</output>
		</layer>
		<layer id="22" name="7327364208" type="Const" version="opset1">
			<data element_type="f32" offset="188" shape="" size="4"/>
			<output>
				<port id="0" precision="FP32"/>
			</output>
		</layer>
		<layer id="23" name="7337374673" type="Const" version="opset1">
			<data element_type="f32" offset="160" shape="" size="4"/>
			<output>
				<port id="0" precision="FP32"/>
			</output>
		</layer>
		<layer id="24" name="7347384025" type="Const" version="opset1">
			<data element_type="f32" offset="188" shape="" size="4"/>
			<output>
				<port id="0" precision="FP32"/>
			</output>
		</layer>
		<layer id="25" name="115111554043" type="Const" version="opset1">
			<data element_type="f32" offset="160" shape="" size="4"/>
			<output>
				<port id="0" precision="FP32"/>
			</output>
		</layer>
		<layer id="26" name="115211564448" type="Const" version="opset1">
			<data element_type="f32" offset="192" shape="" size="4"/>
			<output>
				<port id="0" precision="FP32"/>
			</output>
		</layer>
		<layer id="27" name="115311574001" type="Const" version="opset1">
			<data element_type="f32" offset="160" shape="" size="4"/>
			<output>
				<port id="0" precision="FP32"/>
			</output>
		</layer>
		<layer id="28" name="115411584490" type="Const" version="opset1">
			<data element_type="f32" offset="192" shape="" size="4"/>
			<output>
				<port id="0" precision="FP32"/>
			</output>
		</layer>
		<layer id="29" name="6316354031" type="Const" version="opset1">
			<data element_type="f32" offset="160" shape="" size="4"/>
			<output>
				<port id="0" precision="FP32"/>
			</output>
		</layer>
		<layer id="30" name="6326364655" type="Const" version="opset1">
			<data element_type="f32" offset="196" shape="" size="4"/>
			<output>
				<port id="0" precision="FP32"/>
			</output>
		</layer>
		<layer id="31" name="6336373989" type="Const" version="opset1">
			<data element_type="f32" offset="160" shape="" size="4"/>
			<output>
				<port id="0" precision="FP32"/>
			</output>
		</layer>
		<layer id="32" name="6346384304" type="Const" version="opset1">
			<data element_type="f32" offset="196" shape="" size="4"/>
			<output>
				<port id="0" precision="FP32"/>
			</output>
		</layer>
		<layer id="33" name="109110954433" type="Const" version="opset1">
			<data element_type="f32" offset="160" shape="" size="4"/>
			<output>
				<port id="0" precision="FP32"/>
			</output>
		</layer>
		<layer id="34" name="109210964499" type="Const" version="opset1">
			<data element_type="f32" offset="200" shape="" size="4"/>
			<output>
				<port id="0" precision="FP32"/>
			</output>
		</layer>
		<layer id="35" name="109310974526" type="Const" version="opset1">
			<data element_type="f32" offset="160" shape="" size="4"/>
			<output>
				<port id="0" precision="FP32"/>
			</output>
		</layer>
		<layer id="36" name="109410984358" type="Const" version="opset1">
			<data element_type="f32" offset="200" shape="" size="4"/>
			<output>
				<port id="0" precision="FP32"/>
			</output>
		</layer>
		<layer id="37" name="6716754550" type="Const" version="opset1">
			<data element_type="f32" offset="204" shape="" size="4"/>
			<output>
				<port id="0" precision="FP32"/>
			</output>
		</layer>
		<layer id="38" name="6726764445" type="Const" version="opset1">
			<data element_type="f32" offset="208" shape="" size="4"/>
			<output>
				<port id="0" precision="FP32"/>
			</output>
		</layer>
		<layer id="39" name="6736774217" type="Const" version="opset1">
			<data element_type="f32" offset="204" shape="" size="4"/>
			<output>
				<port id="0" precision="FP32"/>
			</output>
		</layer>
		<layer id="40" name="6746784307" type="Const" version="opset1">
			<data element_type="f32" offset="208" shape="" size="4"/>
			<output>
				<port id="0" precision="FP32"/>
			</output>
		</layer>
		<layer id="41" name="154515494391" type="Const" version="opset1">
			<data element_type="f32" offset="160" shape="" size="4"/>
			<output>
				<port id="0" precision="FP32"/>
			</output>
		</layer>
		<layer id="42" name="154615504202" type="Const" version="opset1">
			<data element_type="f32" offset="212" shape="" size="4"/>
			<output>
				<port id="0" precision="FP32"/>
			</output>
		</layer>
		<layer id="43" name="154715514205" type="Const" version="opset1">
			<data element_type="f32" offset="160" shape="" size="4"/>
			<output>
				<port id="0" precision="FP32"/>
			</output>
		</layer>
		<layer id="44" name="154815524145" type="Const" version="opset1">
			<data element_type="f32" offset="212" shape="" size="4"/>
			<output>
				<port id="0" precision="FP32"/>
			</output>
		</layer>
		<layer id="45" name="input" type="Parameter" version="opset1">
			<data element_type="f32" shape="1,320,2"/>
			<output>
				<port id="0" names="input" precision="FP32">
					<dim>1</dim>
					<dim>320</dim>
					<dim>2</dim>
				</port>
			</output>
		</layer>
		<layer id="46" name="Transpose_0/fq_input_0" type="FakeQuantize" version="opset1">
			<data auto_broadcast="numpy" levels="256"/>
			<input>
				<port id="0">
					<dim>1</dim>
					<dim>320</dim>
					<dim>2</dim>
				</port>
				<port id="1"/>
				<port id="2"/>
				<port id="3"/>
				<port id="4"/>
			</input>
			<output>
				<port id="5" precision="FP32">
					<dim>1</dim>
					<dim>320</dim>
					<dim>2</dim>
				</port>
			</output>
		</layer>
		<layer id="47" name="176181" type="Const" version="opset1">
			<data element_type="i64" offset="216" shape="3" size="24"/>
			<output>
				<port id="0" precision="I64">
					<dim>3</dim>
				</port>
			</output>
		</layer>
		<layer id="48" name="Transpose_0" type="Transpose" version="opset1">
			<input>
				<port id="0">
					<dim>1</dim>
					<dim>320</dim>
					<dim>2</dim>
				</port>
				<port id="1">
					<dim>3</dim>
				</port>
			</input>
			<output>
				<port id="2" names="input.1" precision="FP32">
					<dim>1</dim>
					<dim>2</dim>
					<dim>320</dim>
				</port>
			</output>
		</layer>
		<layer id="49" name="tcn.0.downsample.weight2012228/quantized29034190" type="Const" version="opset1">
			<data element_type="i8" offset="240" shape="32,2,1" size="64"/>
			<output>
				<port id="0" precision="I8">
					<dim>32</dim>
					<dim>2</dim>
					<dim>1</dim>
				</port>
			</output>
		</layer>
		<layer id="50" name="tcn.0.downsample.weight2012228/quantized/to_f32" type="Convert" version="opset1">
			<data destination_type="f32"/>
			<input>
				<port id="0">
					<dim>32</dim>
					<dim>2</dim>
					<dim>1</dim>
				</port>
			</input>
			<output>
				<port id="1" precision="FP32">
					<dim>32</dim>
					<dim>2</dim>
					<dim>1</dim>
				</port>
			</output>
		</layer>
		<layer id="51" name="Conv_15/WithoutBiases/fq_weights_1/zero_point29164109" type="Const" version="opset1">
			<data element_type="f32" offset="304" shape="32,1,1" size="128"/>
			<output>
				<port id="0" precision="FP32">
					<dim>32</dim>
					<dim>1</dim>
					<dim>1</dim>
				</port>
			</output>
		</layer>
		<layer id="52" name="Conv_15/WithoutBiases/fq_weights_1/minus_zp" type="Subtract" version="opset1">
			<data auto_broadcast="numpy"/>
			<input>
				<port id="0">
					<dim>32</dim>
					<dim>2</dim>
					<dim>1</dim>
				</port>
				<port id="1">
					<dim>32</dim>
					<dim>1</dim>
					<dim>1</dim>
				</port>
			</input>
			<output>
				<port id="2" precision="FP32">
					<dim>32</dim>
					<dim>2</dim>
					<dim>1</dim>
				</port>
			</output>
		</layer>
		<layer id="53" name="Conv_15/WithoutBiases/fq_weights_1/scale29114286" type="Const" version="opset1">
			<data element_type="f32" offset="432" shape="32,1,1" size="128"/>
			<output>
				<port id="0" precision="FP32">
					<dim>32</dim>
					<dim>1</dim>
					<dim>1</dim>
				</port>
			</output>
		</layer>
		<layer id="54" name="Conv_15/WithoutBiases/fq_weights_1/mulpiply_by_scale" type="Multiply" version="opset1">
			<data auto_broadcast="numpy"/>
			<input>
				<port id="0">
					<dim>32</dim>
					<dim>2</dim>
					<dim>1</dim>
				</port>
				<port id="1">
					<dim>32</dim>
					<dim>1</dim>
					<dim>1</dim>
				</port>
			</input>
			<output>
				<port id="2" precision="FP32">
					<dim>32</dim>
					<dim>2</dim>
					<dim>1</dim>
				</port>
			</output>
		</layer>
		<layer id="55" name="Conv_15/WithoutBiases" type="Convolution" version="opset1">
			<data auto_pad="explicit" dilations="1" pads_begin="0" pads_end="0" strides="1"/>
			<input>
				<port id="0">
					<dim>1</dim>
					<dim>2</dim>
					<dim>320</dim>
				</port>
				<port id="1">
					<dim>32</dim>
					<dim>2</dim>
					<dim>1</dim>
				</port>
			</input>
			<output>
				<port id="2" precision="FP32">
					<dim>1</dim>
					<dim>32</dim>
					<dim>320</dim>
				</port>
			</output>
		</layer>
		<layer id="56" name="Conv_15/Dims18152034463" type="Const" version="opset1">
			<data element_type="f32" offset="560" shape="1,32,1" size="128"/>
			<output>
				<port id="0" precision="FP32">
					<dim>1</dim>
					<dim>32</dim>
					<dim>1</dim>
				</port>
			</output>
		</layer>
		<layer id="57" name="Conv_15" type="Add" version="opset1">
			<data auto_broadcast="numpy"/>
			<input>
				<port id="0">
					<dim>1</dim>
					<dim>32</dim>
					<dim>320</dim>
				</port>
				<port id="1">
					<dim>1</dim>
					<dim>32</dim>
					<dim>1</dim>
				</port>
			</input>
			<output>
				<port id="2" names="onnx::Add_136" precision="FP32">
					<dim>1</dim>
					<dim>32</dim>
					<dim>320</dim>
				</port>
			</output>
		</layer>
		<layer id="58" name="Add_16/fq_input_1" type="FakeQuantize" version="opset1">
			<data auto_broadcast="numpy" levels="256"/>
			<input>
				<port id="0">
					<dim>1</dim>
					<dim>32</dim>
					<dim>320</dim>
				</port>
				<port id="1"/>
				<port id="2"/>
				<port id="3"/>
				<port id="4"/>
			</input>
			<output>
				<port id="5" precision="FP32">
					<dim>1</dim>
					<dim>32</dim>
					<dim>320</dim>
				</port>
			</output>
		</layer>
		<layer id="59" name="148514894361" type="Const" version="opset1">
			<data element_type="f32" offset="160" shape="" size="4"/>
			<output>
				<port id="0" precision="FP32"/>
			</output>
		</layer>
		<layer id="60" name="148614903983" type="Const" version="opset1">
			<data element_type="f32" offset="688" shape="" size="4"/>
			<output>
				<port id="0" precision="FP32"/>
			</output>
		</layer>
		<layer id="61" name="148714914661" type="Const" version="opset1">
			<data element_type="f32" offset="160" shape="" size="4"/>
			<output>
				<port id="0" precision="FP32"/>
			</output>
		</layer>
		<layer id="62" name="148814924133" type="Const" version="opset1">
			<data element_type="f32" offset="688" shape="" size="4"/>
			<output>
				<port id="0" precision="FP32"/>
			</output>
		</layer>
		<layer id="63" name="162516294580" type="Const" version="opset1">
			<data element_type="f32" offset="160" shape="" size="4"/>
			<output>
				<port id="0" precision="FP32"/>
			</output>
		</layer>
		<layer id="64" name="162616304079" type="Const" version="opset1">
			<data element_type="f32" offset="692" shape="" size="4"/>
			<output>
				<port id="0" precision="FP32"/>
			</output>
		</layer>
		<layer id="65" name="162716314052" type="Const" version="opset1">
			<data element_type="f32" offset="160" shape="" size="4"/>
			<output>
				<port id="0" precision="FP32"/>
			</output>
		</layer>
		<layer id="66" name="162816324496" type="Const" version="opset1">
			<data element_type="f32" offset="692" shape="" size="4"/>
			<output>
				<port id="0" precision="FP32"/>
			</output>
		</layer>
		<layer id="67" name="onnx::Conv_2711832218/quantized28554466" type="Const" version="opset1">
			<data element_type="i8" offset="696" shape="32,2,3" size="192"/>
			<output>
				<port id="0" precision="I8">
					<dim>32</dim>
					<dim>2</dim>
					<dim>3</dim>
				</port>
			</output>
		</layer>
		<layer id="68" name="onnx::Conv_2711832218/quantized/to_f32" type="Convert" version="opset1">
			<data destination_type="f32"/>
			<input>
				<port id="0">
					<dim>32</dim>
					<dim>2</dim>
					<dim>3</dim>
				</port>
			</input>
			<output>
				<port id="1" precision="FP32">
					<dim>32</dim>
					<dim>2</dim>
					<dim>3</dim>
				</port>
			</output>
		</layer>
		<layer id="69" name="Conv_1/WithoutBiases/fq_weights_1/zero_point28684643" type="Const" version="opset1">
			<data element_type="f32" offset="888" shape="32,1,1" size="128"/>
			<output>
				<port id="0" precision="FP32">
					<dim>32</dim>
					<dim>1</dim>
					<dim>1</dim>
				</port>
			</output>
		</layer>
		<layer id="70" name="Conv_1/WithoutBiases/fq_weights_1/minus_zp" type="Subtract" version="opset1">
			<data auto_broadcast="numpy"/>
			<input>
				<port id="0">
					<dim>32</dim>
					<dim>2</dim>
					<dim>3</dim>
				</port>
				<port id="1">
					<dim>32</dim>
					<dim>1</dim>
					<dim>1</dim>
				</port>
			</input>
			<output>
				<port id="2" precision="FP32">
					<dim>32</dim>
					<dim>2</dim>
					<dim>3</dim>
				</port>
			</output>
		</layer>
		<layer id="71" name="Conv_1/WithoutBiases/fq_weights_1/scale28634475" type="Const" version="opset1">
			<data element_type="f32" offset="1016" shape="32,1,1" size="128"/>
			<output>
				<port id="0" precision="FP32">
					<dim>32</dim>
					<dim>1</dim>
					<dim>1</dim>
				</port>
			</output>
		</layer>
		<layer id="72" name="Conv_1/WithoutBiases/fq_weights_1/mulpiply_by_scale" type="Multiply" version="opset1">
			<data auto_broadcast="numpy"/>
			<input>
				<port id="0">
					<dim>32</dim>
					<dim>2</dim>
					<dim>3</dim>
				</port>
				<port id="1">
					<dim>32</dim>
					<dim>1</dim>
					<dim>1</dim>
				</port>
			</input>
			<output>
				<port id="2" precision="FP32">
					<dim>32</dim>
					<dim>2</dim>
					<dim>3</dim>
				</port>
			</output>
		</layer>
		<layer id="73" name="Conv_1/WithoutBiases" type="Convolution" version="opset1">
			<data auto_pad="explicit" dilations="1" pads_begin="2" pads_end="2" strides="1"/>
			<input>
				<port id="0">
					<dim>1</dim>
					<dim>2</dim>
					<dim>320</dim>
				</port>
				<port id="1">
					<dim>32</dim>
					<dim>2</dim>
					<dim>3</dim>
				</port>
			</input>
			<output>
				<port id="2" precision="FP32">
					<dim>1</dim>
					<dim>32</dim>
					<dim>322</dim>
				</port>
			</output>
		</layer>
		<layer id="74" name="Conv_1/Dims18991854589" type="Const" version="opset1">
			<data element_type="f32" offset="1144" shape="1,32,1" size="128"/>
			<output>
				<port id="0" precision="FP32">
					<dim>1</dim>
					<dim>32</dim>
					<dim>1</dim>
				</port>
			</output>
		</layer>
		<layer id="75" name="Conv_1" type="Add" version="opset1">
			<data auto_broadcast="numpy"/>
			<input>
				<port id="0">
					<dim>1</dim>
					<dim>32</dim>
					<dim>322</dim>
				</port>
				<port id="1">
					<dim>1</dim>
					<dim>32</dim>
					<dim>1</dim>
				</port>
			</input>
			<output>
				<port id="2" names="input.7" precision="FP32">
					<dim>1</dim>
					<dim>32</dim>
					<dim>322</dim>
				</port>
			</output>
		</layer>
		<layer id="76" name="Relu_2" type="ReLU" version="opset1">
			<input>
				<port id="0">
					<dim>1</dim>
					<dim>32</dim>
					<dim>322</dim>
				</port>
			</input>
			<output>
				<port id="1" names="input.11" precision="FP32">
					<dim>1</dim>
					<dim>32</dim>
					<dim>322</dim>
				</port>
			</output>
		</layer>
		<layer id="77" name="Slice_7/fq_input_0" type="FakeQuantize" version="opset1">
			<data auto_broadcast="numpy" levels="256"/>
			<input>
				<port id="0">
					<dim>1</dim>
					<dim>32</dim>
					<dim>322</dim>
				</port>
				<port id="1"/>
				<port id="2"/>
				<port id="3"/>
				<port id="4"/>
			</input>
			<output>
				<port id="5" precision="FP32">
					<dim>1</dim>
					<dim>32</dim>
					<dim>322</dim>
				</port>
			</output>
		</layer>
		<layer id="78" name="Slice_7/Concat20627475188" type="Const" version="opset1">
			<data element_type="i64" offset="1272" shape="3" size="24"/>
			<output>
				<port id="0" precision="I64">
					<dim>3</dim>
				</port>
			</output>
		</layer>
		<layer id="79" name="Slice_7/Concat204820637487189" type="Const" version="opset1">
			<data element_type="i64" offset="1296" shape="3" size="24"/>
			<output>
				<port id="0" precision="I64">
					<dim>3</dim>
				</port>
			</output>
		</layer>
		<layer id="80" name="Slice_7/Strides20647547190" type="Const" version="opset1">
			<data element_type="i64" offset="1320" shape="3" size="24"/>
			<output>
				<port id="0" precision="I64">
					<dim>3</dim>
				</port>
			</output>
		</layer>
		<layer id="81" name="Slice_7" type="StridedSlice" version="opset1">
			<data begin_mask="1,1,0" ellipsis_mask="0,0,0" end_mask="1,1,0" new_axis_mask="0,0,0" shrink_axis_mask="0,0,0"/>
			<input>
				<port id="0">
					<dim>1</dim>
					<dim>32</dim>
					<dim>322</dim>
				</port>
				<port id="1">
					<dim>3</dim>
				</port>
				<port id="2">
					<dim>3</dim>
				</port>
				<port id="3">
					<dim>3</dim>
				</port>
			</input>
			<output>
				<port id="4" names="onnx::Conv_127" precision="FP32">
					<dim>1</dim>
					<dim>32</dim>
					<dim>320</dim>
				</port>
			</output>
		</layer>
		<layer id="82" name="onnx::Conv_2741922223/quantized26634220" type="Const" version="opset1">
			<data element_type="i8" offset="1344" shape="32,32,3" size="3072"/>
			<output>
				<port id="0" precision="I8">
					<dim>32</dim>
					<dim>32</dim>
					<dim>3</dim>
				</port>
			</output>
		</layer>
		<layer id="83" name="onnx::Conv_2741922223/quantized/to_f32" type="Convert" version="opset1">
			<data destination_type="f32"/>
			<input>
				<port id="0">
					<dim>32</dim>
					<dim>32</dim>
					<dim>3</dim>
				</port>
			</input>
			<output>
				<port id="1" precision="FP32">
					<dim>32</dim>
					<dim>32</dim>
					<dim>3</dim>
				</port>
			</output>
		</layer>
		<layer id="84" name="Conv_8/WithoutBiases/fq_weights_1/zero_point26764493" type="Const" version="opset1">
			<data element_type="f32" offset="4416" shape="32,1,1" size="128"/>
			<output>
				<port id="0" precision="FP32">
					<dim>32</dim>
					<dim>1</dim>
					<dim>1</dim>
				</port>
			</output>
		</layer>
		<layer id="85" name="Conv_8/WithoutBiases/fq_weights_1/minus_zp" type="Subtract" version="opset1">
			<data auto_broadcast="numpy"/>
			<input>
				<port id="0">
					<dim>32</dim>
					<dim>32</dim>
					<dim>3</dim>
				</port>
				<port id="1">
					<dim>32</dim>
					<dim>1</dim>
					<dim>1</dim>
				</port>
			</input>
			<output>
				<port id="2" precision="FP32">
					<dim>32</dim>
					<dim>32</dim>
					<dim>3</dim>
				</port>
			</output>
		</layer>
		<layer id="86" name="Conv_8/WithoutBiases/fq_weights_1/scale26714553" type="Const" version="opset1">
			<data element_type="f32" offset="4544" shape="32,1,1" size="128"/>
			<output>
				<port id="0" precision="FP32">
					<dim>32</dim>
					<dim>1</dim>
					<dim>1</dim>
				</port>
			</output>
		</layer>
		<layer id="87" name="Conv_8/WithoutBiases/fq_weights_1/mulpiply_by_scale" type="Multiply" version="opset1">
			<data auto_broadcast="numpy"/>
			<input>
				<port id="0">
					<dim>32</dim>
					<dim>32</dim>
					<dim>3</dim>
				</port>
				<port id="1">
					<dim>32</dim>
					<dim>1</dim>
					<dim>1</dim>
				</port>
			</input>
			<output>
				<port id="2" precision="FP32">
					<dim>32</dim>
					<dim>32</dim>
					<dim>3</dim>
				</port>
			</output>
		</layer>
		<layer id="88" name="Conv_8/WithoutBiases" type="Convolution" version="opset1">
			<data auto_pad="explicit" dilations="1" pads_begin="2" pads_end="2" strides="1"/>
			<input>
				<port id="0">
					<dim>1</dim>
					<dim>32</dim>
					<dim>320</dim>
				</port>
				<port id="1">
					<dim>32</dim>
					<dim>32</dim>
					<dim>3</dim>
				</port>
			</input>
			<output>
				<port id="2" precision="FP32">
					<dim>1</dim>
					<dim>32</dim>
					<dim>322</dim>
				</port>
			</output>
		</layer>
		<layer id="89" name="Conv_8/Dims18691944154" type="Const" version="opset1">
			<data element_type="f32" offset="4672" shape="1,32,1" size="128"/>
			<output>
				<port id="0" precision="FP32">
					<dim>1</dim>
					<dim>32</dim>
					<dim>1</dim>
				</port>
			</output>
		</layer>
		<layer id="90" name="Conv_8" type="Add" version="opset1">
			<data auto_broadcast="numpy"/>
			<input>
				<port id="0">
					<dim>1</dim>
					<dim>32</dim>
					<dim>322</dim>
				</port>
				<port id="1">
					<dim>1</dim>
					<dim>32</dim>
					<dim>1</dim>
				</port>
			</input>
			<output>
				<port id="2" names="input.19" precision="FP32">
					<dim>1</dim>
					<dim>32</dim>
					<dim>322</dim>
				</port>
			</output>
		</layer>
		<layer id="91" name="Relu_9" type="ReLU" version="opset1">
			<input>
				<port id="0">
					<dim>1</dim>
					<dim>32</dim>
					<dim>322</dim>
				</port>
			</input>
			<output>
				<port id="1" names="input.23" precision="FP32">
					<dim>1</dim>
					<dim>32</dim>
					<dim>322</dim>
				</port>
			</output>
		</layer>
		<layer id="92" name="Slice_14/fq_input_0" type="FakeQuantize" version="opset1">
			<data auto_broadcast="numpy" levels="256"/>
			<input>
				<port id="0">
					<dim>1</dim>
					<dim>32</dim>
					<dim>322</dim>
				</port>
				<port id="1"/>
				<port id="2"/>
				<port id="3"/>
				<port id="4"/>
			</input>
			<output>
				<port id="5" precision="FP32">
					<dim>1</dim>
					<dim>32</dim>
					<dim>322</dim>
				</port>
			</output>
		</layer>
		<layer id="93" name="Slice_14/Concat21067535197" type="Const" version="opset1">
			<data element_type="i64" offset="1272" shape="3" size="24"/>
			<output>
				<port id="0" precision="I64">
					<dim>3</dim>
				</port>
			</output>
		</layer>
		<layer id="94" name="Slice_14/Concat209221077433198" type="Const" version="opset1">
			<data element_type="i64" offset="1296" shape="3" size="24"/>
			<output>
				<port id="0" precision="I64">
					<dim>3</dim>
				</port>
			</output>
		</layer>
		<layer id="95" name="Slice_14/Strides21087640199" type="Const" version="opset1">
			<data element_type="i64" offset="1320" shape="3" size="24"/>
			<output>
				<port id="0" precision="I64">
					<dim>3</dim>
				</port>
			</output>
		</layer>
		<layer id="96" name="Slice_14" type="StridedSlice" version="opset1">
			<data begin_mask="1,1,0" ellipsis_mask="0,0,0" end_mask="1,1,0" new_axis_mask="0,0,0" shrink_axis_mask="0,0,0"/>
			<input>
				<port id="0">
					<dim>1</dim>
					<dim>32</dim>
					<dim>322</dim>
				</port>
				<port id="1">
					<dim>3</dim>
				</port>
				<port id="2">
					<dim>3</dim>
				</port>
				<port id="3">
					<dim>3</dim>
				</port>
			</input>
			<output>
				<port id="4" names="onnx::Add_135" precision="FP32">
					<dim>1</dim>
					<dim>32</dim>
					<dim>320</dim>
				</port>
			</output>
		</layer>
		<layer id="97" name="Add_16" type="Add" version="opset1">
			<data auto_broadcast="numpy"/>
			<input>
				<port id="0">
					<dim>1</dim>
					<dim>32</dim>
					<dim>320</dim>
				</port>
				<port id="1">
					<dim>1</dim>
					<dim>32</dim>
					<dim>320</dim>
				</port>
			</input>
			<output>
				<port id="2" names="input.27" precision="FP32">
					<dim>1</dim>
					<dim>32</dim>
					<dim>320</dim>
				</port>
			</output>
		</layer>
		<layer id="98" name="Relu_17" type="ReLU" version="opset1">
			<input>
				<port id="0">
					<dim>1</dim>
					<dim>32</dim>
					<dim>320</dim>
				</port>
			</input>
			<output>
				<port id="1" names="input.31" precision="FP32">
					<dim>1</dim>
					<dim>32</dim>
					<dim>320</dim>
				</port>
			</output>
		</layer>
		<layer id="99" name="Add_32/fq_input_1" type="FakeQuantize" version="opset1">
			<data auto_broadcast="numpy" levels="256"/>
			<input>
				<port id="0">
					<dim>1</dim>
					<dim>32</dim>
					<dim>320</dim>
				</port>
				<port id="1"/>
				<port id="2"/>
				<port id="3"/>
				<port id="4"/>
			</input>
			<output>
				<port id="5" precision="FP32">
					<dim>1</dim>
					<dim>32</dim>
					<dim>320</dim>
				</port>
			</output>
		</layer>
		<layer id="100" name="149514994577" type="Const" version="opset1">
			<data element_type="f32" offset="160" shape="" size="4"/>
			<output>
				<port id="0" precision="FP32"/>
			</output>
		</layer>
		<layer id="101" name="149615004280" type="Const" version="opset1">
			<data element_type="f32" offset="4800" shape="" size="4"/>
			<output>
				<port id="0" precision="FP32"/>
			</output>
		</layer>
		<layer id="102" name="149715014010" type="Const" version="opset1">
			<data element_type="f32" offset="160" shape="" size="4"/>
			<output>
				<port id="0" precision="FP32"/>
			</output>
		</layer>
		<layer id="103" name="149815024415" type="Const" version="opset1">
			<data element_type="f32" offset="4800" shape="" size="4"/>
			<output>
				<port id="0" precision="FP32"/>
			</output>
		</layer>
		<layer id="104" name="158515894295" type="Const" version="opset1">
			<data element_type="f32" offset="160" shape="" size="4"/>
			<output>
				<port id="0" precision="FP32"/>
			</output>
		</layer>
		<layer id="105" name="158615904115" type="Const" version="opset1">
			<data element_type="f32" offset="4804" shape="" size="4"/>
			<output>
				<port id="0" precision="FP32"/>
			</output>
		</layer>
		<layer id="106" name="158715914454" type="Const" version="opset1">
			<data element_type="f32" offset="160" shape="" size="4"/>
			<output>
				<port id="0" precision="FP32"/>
			</output>
		</layer>
		<layer id="107" name="158815924262" type="Const" version="opset1">
			<data element_type="f32" offset="4804" shape="" size="4"/>
			<output>
				<port id="0" precision="FP32"/>
			</output>
		</layer>
		<layer id="108" name="onnx::Conv_2772072230/quantized26874340" type="Const" version="opset1">
			<data element_type="i8" offset="4808" shape="32,32,3" size="3072"/>
			<output>
				<port id="0" precision="I8">
					<dim>32</dim>
					<dim>32</dim>
					<dim>3</dim>
				</port>
			</output>
		</layer>
		<layer id="109" name="onnx::Conv_2772072230/quantized/to_f32" type="Convert" version="opset1">
			<data destination_type="f32"/>
			<input>
				<port id="0">
					<dim>32</dim>
					<dim>32</dim>
					<dim>3</dim>
				</port>
			</input>
			<output>
				<port id="1" precision="FP32">
					<dim>32</dim>
					<dim>32</dim>
					<dim>3</dim>
				</port>
			</output>
		</layer>
		<layer id="110" name="Conv_18/WithoutBiases/fq_weights_1/zero_point27004046" type="Const" version="opset1">
			<data element_type="f32" offset="7880" shape="32,1,1" size="128"/>
			<output>
				<port id="0" precision="FP32">
					<dim>32</dim>
					<dim>1</dim>
					<dim>1</dim>
				</port>
			</output>
		</layer>
		<layer id="111" name="Conv_18/WithoutBiases/fq_weights_1/minus_zp" type="Subtract" version="opset1">
			<data auto_broadcast="numpy"/>
			<input>
				<port id="0">
					<dim>32</dim>
					<dim>32</dim>
					<dim>3</dim>
				</port>
				<port id="1">
					<dim>32</dim>
					<dim>1</dim>
					<dim>1</dim>
				</port>
			</input>
			<output>
				<port id="2" precision="FP32">
					<dim>32</dim>
					<dim>32</dim>
					<dim>3</dim>
				</port>
			</output>
		</layer>
		<layer id="112" name="Conv_18/WithoutBiases/fq_weights_1/scale26954076" type="Const" version="opset1">
			<data element_type="f32" offset="8008" shape="32,1,1" size="128"/>
			<output>
				<port id="0" precision="FP32">
					<dim>32</dim>
					<dim>1</dim>
					<dim>1</dim>
				</port>
			</output>
		</layer>
		<layer id="113" name="Conv_18/WithoutBiases/fq_weights_1/mulpiply_by_scale" type="Multiply" version="opset1">
			<data auto_broadcast="numpy"/>
			<input>
				<port id="0">
					<dim>32</dim>
					<dim>32</dim>
					<dim>3</dim>
				</port>
				<port id="1">
					<dim>32</dim>
					<dim>1</dim>
					<dim>1</dim>
				</port>
			</input>
			<output>
				<port id="2" precision="FP32">
					<dim>32</dim>
					<dim>32</dim>
					<dim>3</dim>
				</port>
			</output>
		</layer>
		<layer id="114" name="Conv_18/WithoutBiases" type="Convolution" version="opset1">
			<data auto_pad="explicit" dilations="2" pads_begin="4" pads_end="4" strides="1"/>
			<input>
				<port id="0">
					<dim>1</dim>
					<dim>32</dim>
					<dim>320</dim>
				</port>
				<port id="1">
					<dim>32</dim>
					<dim>32</dim>
					<dim>3</dim>
				</port>
			</input>
			<output>
				<port id="2" precision="FP32">
					<dim>1</dim>
					<dim>32</dim>
					<dim>324</dim>
				</port>
			</output>
		</layer>
		<layer id="115" name="Conv_18/Dims18512094196" type="Const" version="opset1">
			<data element_type="f32" offset="8136" shape="1,32,1" size="128"/>
			<output>
				<port id="0" precision="FP32">
					<dim>1</dim>
					<dim>32</dim>
					<dim>1</dim>
				</port>
			</output>
		</layer>
		<layer id="116" name="Conv_18" type="Add" version="opset1">
			<data auto_broadcast="numpy"/>
			<input>
				<port id="0">
					<dim>1</dim>
					<dim>32</dim>
					<dim>324</dim>
				</port>
				<port id="1">
					<dim>1</dim>
					<dim>32</dim>
					<dim>1</dim>
				</port>
			</input>
			<output>
				<port id="2" names="input.39" precision="FP32">
					<dim>1</dim>
					<dim>32</dim>
					<dim>324</dim>
				</port>
			</output>
		</layer>
		<layer id="117" name="Relu_19" type="ReLU" version="opset1">
			<input>
				<port id="0">
					<dim>1</dim>
					<dim>32</dim>
					<dim>324</dim>
				</port>
			</input>
			<output>
				<port id="1" names="input.43" precision="FP32">
					<dim>1</dim>
					<dim>32</dim>
					<dim>324</dim>
				</port>
			</output>
		</layer>
		<layer id="118" name="Slice_24/fq_input_0" type="FakeQuantize" version="opset1">
			<data auto_broadcast="numpy" levels="256"/>
			<input>
				<port id="0">
					<dim>1</dim>
					<dim>32</dim>
					<dim>324</dim>
				</port>
				<port id="1"/>
				<port id="2"/>
				<port id="3"/>
				<port id="4"/>
			</input>
			<output>
				<port id="5" precision="FP32">
					<dim>1</dim>
					<dim>32</dim>
					<dim>324</dim>
				</port>
			</output>
		</layer>
		<layer id="119" name="Slice_24/Concat21507463212" type="Const" version="opset1">
			<data element_type="i64" offset="1272" shape="3" size="24"/>
			<output>
				<port id="0" precision="I64">
					<dim>3</dim>
				</port>
			</output>
		</layer>
		<layer id="120" name="Slice_24/Concat213621517583213" type="Const" version="opset1">
			<data element_type="i64" offset="8264" shape="3" size="24"/>
			<output>
				<port id="0" precision="I64">
					<dim>3</dim>
				</port>
			</output>
		</layer>
		<layer id="121" name="Slice_24/Strides21527544214" type="Const" version="opset1">
			<data element_type="i64" offset="1320" shape="3" size="24"/>
			<output>
				<port id="0" precision="I64">
					<dim>3</dim>
				</port>
			</output>
		</layer>
		<layer id="122" name="Slice_24" type="StridedSlice" version="opset1">
			<data begin_mask="1,1,0" ellipsis_mask="0,0,0" end_mask="1,1,0" new_axis_mask="0,0,0" shrink_axis_mask="0,0,0"/>
			<input>
				<port id="0">
					<dim>1</dim>
					<dim>32</dim>
					<dim>324</dim>
				</port>
				<port id="1">
					<dim>3</dim>
				</port>
				<port id="2">
					<dim>3</dim>
				</port>
				<port id="3">
					<dim>3</dim>
				</port>
			</input>
			<output>
				<port id="4" names="onnx::Conv_146" precision="FP32">
					<dim>1</dim>
					<dim>32</dim>
					<dim>320</dim>
				</port>
			</output>
		</layer>
		<layer id="123" name="onnx::Conv_2802162235/quantized25674235" type="Const" version="opset1">
			<data element_type="i8" offset="8288" shape="32,32,3" size="3072"/>
			<output>
				<port id="0" precision="I8">
					<dim>32</dim>
					<dim>32</dim>
					<dim>3</dim>
				</port>
			</output>
		</layer>
		<layer id="124" name="onnx::Conv_2802162235/quantized/to_f32" type="Convert" version="opset1">
			<data destination_type="f32"/>
			<input>
				<port id="0">
					<dim>32</dim>
					<dim>32</dim>
					<dim>3</dim>
				</port>
			</input>
			<output>
				<port id="1" precision="FP32">
					<dim>32</dim>
					<dim>32</dim>
					<dim>3</dim>
				</port>
			</output>
		</layer>
		<layer id="125" name="Conv_25/WithoutBiases/fq_weights_1/zero_point25804451" type="Const" version="opset1">
			<data element_type="f32" offset="11360" shape="32,1,1" size="128"/>
			<output>
				<port id="0" precision="FP32">
					<dim>32</dim>
					<dim>1</dim>
					<dim>1</dim>
				</port>
			</output>
		</layer>
		<layer id="126" name="Conv_25/WithoutBiases/fq_weights_1/minus_zp" type="Subtract" version="opset1">
			<data auto_broadcast="numpy"/>
			<input>
				<port id="0">
					<dim>32</dim>
					<dim>32</dim>
					<dim>3</dim>
				</port>
				<port id="1">
					<dim>32</dim>
					<dim>1</dim>
					<dim>1</dim>
				</port>
			</input>
			<output>
				<port id="2" precision="FP32">
					<dim>32</dim>
					<dim>32</dim>
					<dim>3</dim>
				</port>
			</output>
		</layer>
		<layer id="127" name="Conv_25/WithoutBiases/fq_weights_1/scale25754247" type="Const" version="opset1">
			<data element_type="f32" offset="11488" shape="32,1,1" size="128"/>
			<output>
				<port id="0" precision="FP32">
					<dim>32</dim>
					<dim>1</dim>
					<dim>1</dim>
				</port>
			</output>
		</layer>
		<layer id="128" name="Conv_25/WithoutBiases/fq_weights_1/mulpiply_by_scale" type="Multiply" version="opset1">
			<data auto_broadcast="numpy"/>
			<input>
				<port id="0">
					<dim>32</dim>
					<dim>32</dim>
					<dim>3</dim>
				</port>
				<port id="1">
					<dim>32</dim>
					<dim>1</dim>
					<dim>1</dim>
				</port>
			</input>
			<output>
				<port id="2" precision="FP32">
					<dim>32</dim>
					<dim>32</dim>
					<dim>3</dim>
				</port>
			</output>
		</layer>
		<layer id="129" name="Conv_25/WithoutBiases" type="Convolution" version="opset1">
			<data auto_pad="explicit" dilations="2" pads_begin="4" pads_end="4" strides="1"/>
			<input>
				<port id="0">
					<dim>1</dim>
					<dim>32</dim>
					<dim>320</dim>
				</port>
				<port id="1">
					<dim>32</dim>
					<dim>32</dim>
					<dim>3</dim>
				</port>
			</input>
			<output>
				<port id="2" precision="FP32">
					<dim>1</dim>
					<dim>32</dim>
					<dim>324</dim>
				</port>
			</output>
		</layer>
		<layer id="130" name="Conv_25/Dims19052184367" type="Const" version="opset1">
			<data element_type="f32" offset="11616" shape="1,32,1" size="128"/>
			<output>
				<port id="0" precision="FP32">
					<dim>1</dim>
					<dim>32</dim>
					<dim>1</dim>
				</port>
			</output>
		</layer>
		<layer id="131" name="Conv_25" type="Add" version="opset1">
			<data auto_broadcast="numpy"/>
			<input>
				<port id="0">
					<dim>1</dim>
					<dim>32</dim>
					<dim>324</dim>
				</port>
				<port id="1">
					<dim>1</dim>
					<dim>32</dim>
					<dim>1</dim>
				</port>
			</input>
			<output>
				<port id="2" names="input.51" precision="FP32">
					<dim>1</dim>
					<dim>32</dim>
					<dim>324</dim>
				</port>
			</output>
		</layer>
		<layer id="132" name="Relu_26" type="ReLU" version="opset1">
			<input>
				<port id="0">
					<dim>1</dim>
					<dim>32</dim>
					<dim>324</dim>
				</port>
			</input>
			<output>
				<port id="1" names="input.55" precision="FP32">
					<dim>1</dim>
					<dim>32</dim>
					<dim>324</dim>
				</port>
			</output>
		</layer>
		<layer id="133" name="Slice_31/fq_input_0" type="FakeQuantize" version="opset1">
			<data auto_broadcast="numpy" levels="256"/>
			<input>
				<port id="0">
					<dim>1</dim>
					<dim>32</dim>
					<dim>324</dim>
				</port>
				<port id="1"/>
				<port id="2"/>
				<port id="3"/>
				<port id="4"/>
			</input>
			<output>
				<port id="5" precision="FP32">
					<dim>1</dim>
					<dim>32</dim>
					<dim>324</dim>
				</port>
			</output>
		</layer>
		<layer id="134" name="Slice_31/Concat21947577221" type="Const" version="opset1">
			<data element_type="i64" offset="1272" shape="3" size="24"/>
			<output>
				<port id="0" precision="I64">
					<dim>3</dim>
				</port>
			</output>
		</layer>
		<layer id="135" name="Slice_31/Concat218021957427222" type="Const" version="opset1">
			<data element_type="i64" offset="8264" shape="3" size="24"/>
			<output>
				<port id="0" precision="I64">
					<dim>3</dim>
				</port>
			</output>
		</layer>
		<layer id="136" name="Slice_31/Strides21967460223" type="Const" version="opset1">
			<data element_type="i64" offset="1320" shape="3" size="24"/>
			<output>
				<port id="0" precision="I64">
					<dim>3</dim>
				</port>
			</output>
		</layer>
		<layer id="137" name="Slice_31" type="StridedSlice" version="opset1">
			<data begin_mask="1,1,0" ellipsis_mask="0,0,0" end_mask="1,1,0" new_axis_mask="0,0,0" shrink_axis_mask="0,0,0"/>
			<input>
				<port id="0">
					<dim>1</dim>
					<dim>32</dim>
					<dim>324</dim>
				</port>
				<port id="1">
					<dim>3</dim>
				</port>
				<port id="2">
					<dim>3</dim>
				</port>
				<port id="3">
					<dim>3</dim>
				</port>
			</input>
			<output>
				<port id="4" names="onnx::Add_154" precision="FP32">
					<dim>1</dim>
					<dim>32</dim>
					<dim>320</dim>
				</port>
			</output>
		</layer>
		<layer id="138" name="Add_32" type="Add" version="opset1">
			<data auto_broadcast="numpy"/>
			<input>
				<port id="0">
					<dim>1</dim>
					<dim>32</dim>
					<dim>320</dim>
				</port>
				<port id="1">
					<dim>1</dim>
					<dim>32</dim>
					<dim>320</dim>
				</port>
			</input>
			<output>
				<port id="2" names="input.59" precision="FP32">
					<dim>1</dim>
					<dim>32</dim>
					<dim>320</dim>
				</port>
			</output>
		</layer>
		<layer id="139" name="Relu_33" type="ReLU" version="opset1">
			<input>
				<port id="0">
					<dim>1</dim>
					<dim>32</dim>
					<dim>320</dim>
				</port>
			</input>
			<output>
				<port id="1" names="input.63" precision="FP32">
					<dim>1</dim>
					<dim>32</dim>
					<dim>320</dim>
				</port>
			</output>
		</layer>
		<layer id="140" name="Add_48/fq_input_1" type="FakeQuantize" version="opset1">
			<data auto_broadcast="numpy" levels="256"/>
			<input>
				<port id="0">
					<dim>1</dim>
					<dim>32</dim>
					<dim>320</dim>
				</port>
				<port id="1"/>
				<port id="2"/>
				<port id="3"/>
				<port id="4"/>
			</input>
			<output>
				<port id="5" precision="FP32">
					<dim>1</dim>
					<dim>32</dim>
					<dim>320</dim>
				</port>
			</output>
		</layer>
		<layer id="141" name="150515094334" type="Const" version="opset1">
			<data element_type="f32" offset="160" shape="" size="4"/>
			<output>
				<port id="0" precision="FP32"/>
			</output>
		</layer>
		<layer id="142" name="150615104634" type="Const" version="opset1">
			<data element_type="f32" offset="11744" shape="" size="4"/>
			<output>
				<port id="0" precision="FP32"/>
			</output>
		</layer>
		<layer id="143" name="150715114670" type="Const" version="opset1">
			<data element_type="f32" offset="160" shape="" size="4"/>
			<output>
				<port id="0" precision="FP32"/>
			</output>
		</layer>
		<layer id="144" name="150815124379" type="Const" version="opset1">
			<data element_type="f32" offset="11744" shape="" size="4"/>
			<output>
				<port id="0" precision="FP32"/>
			</output>
		</layer>
		<layer id="145" name="159515994439" type="Const" version="opset1">
			<data element_type="f32" offset="160" shape="" size="4"/>
			<output>
				<port id="0" precision="FP32"/>
			</output>
		</layer>
		<layer id="146" name="159616004172" type="Const" version="opset1">
			<data element_type="f32" offset="11748" shape="" size="4"/>
			<output>
				<port id="0" precision="FP32"/>
			</output>
		</layer>
		<layer id="147" name="159716014004" type="Const" version="opset1">
			<data element_type="f32" offset="160" shape="" size="4"/>
			<output>
				<port id="0" precision="FP32"/>
			</output>
		</layer>
		<layer id="148" name="159816024034" type="Const" version="opset1">
			<data element_type="f32" offset="11748" shape="" size="4"/>
			<output>
				<port id="0" precision="FP32"/>
			</output>
		</layer>
		<layer id="149" name="onnx::Conv_2832272240/quantized29274121" type="Const" version="opset1">
			<data element_type="i8" offset="11752" shape="32,32,3" size="3072"/>
			<output>
				<port id="0" precision="I8">
					<dim>32</dim>
					<dim>32</dim>
					<dim>3</dim>
				</port>
			</output>
		</layer>
		<layer id="150" name="onnx::Conv_2832272240/quantized/to_f32" type="Convert" version="opset1">
			<data destination_type="f32"/>
			<input>
				<port id="0">
					<dim>32</dim>
					<dim>32</dim>
					<dim>3</dim>
				</port>
			</input>
			<output>
				<port id="1" precision="FP32">
					<dim>32</dim>
					<dim>32</dim>
					<dim>3</dim>
				</port>
			</output>
		</layer>
		<layer id="151" name="Conv_34/WithoutBiases/fq_weights_1/zero_point29404640" type="Const" version="opset1">
			<data element_type="f32" offset="14824" shape="32,1,1" size="128"/>
			<output>
				<port id="0" precision="FP32">
					<dim>32</dim>
					<dim>1</dim>
					<dim>1</dim>
				</port>
			</output>
		</layer>
		<layer id="152" name="Conv_34/WithoutBiases/fq_weights_1/minus_zp" type="Subtract" version="opset1">
			<data auto_broadcast="numpy"/>
			<input>
				<port id="0">
					<dim>32</dim>
					<dim>32</dim>
					<dim>3</dim>
				</port>
				<port id="1">
					<dim>32</dim>
					<dim>1</dim>
					<dim>1</dim>
				</port>
			</input>
			<output>
				<port id="2" precision="FP32">
					<dim>32</dim>
					<dim>32</dim>
					<dim>3</dim>
				</port>
			</output>
		</layer>
		<layer id="153" name="Conv_34/WithoutBiases/fq_weights_1/scale29354169" type="Const" version="opset1">
			<data element_type="f32" offset="14952" shape="32,1,1" size="128"/>
			<output>
				<port id="0" precision="FP32">
					<dim>32</dim>
					<dim>1</dim>
					<dim>1</dim>
				</port>
			</output>
		</layer>
		<layer id="154" name="Conv_34/WithoutBiases/fq_weights_1/mulpiply_by_scale" type="Multiply" version="opset1">
			<data auto_broadcast="numpy"/>
			<input>
				<port id="0">
					<dim>32</dim>
					<dim>32</dim>
					<dim>3</dim>
				</port>
				<port id="1">
					<dim>32</dim>
					<dim>1</dim>
					<dim>1</dim>
				</port>
			</input>
			<output>
				<port id="2" precision="FP32">
					<dim>32</dim>
					<dim>32</dim>
					<dim>3</dim>
				</port>
			</output>
		</layer>
		<layer id="155" name="Conv_34/WithoutBiases" type="Convolution" version="opset1">
			<data auto_pad="explicit" dilations="4" pads_begin="8" pads_end="8" strides="1"/>
			<input>
				<port id="0">
					<dim>1</dim>
					<dim>32</dim>
					<dim>320</dim>
				</port>
				<port id="1">
					<dim>32</dim>
					<dim>32</dim>
					<dim>3</dim>
				</port>
			</input>
			<output>
				<port id="2" precision="FP32">
					<dim>1</dim>
					<dim>32</dim>
					<dim>328</dim>
				</port>
			</output>
		</layer>
		<layer id="156" name="Conv_34/Dims18392294073" type="Const" version="opset1">
			<data element_type="f32" offset="15080" shape="1,32,1" size="128"/>
			<output>
				<port id="0" precision="FP32">
					<dim>1</dim>
					<dim>32</dim>
					<dim>1</dim>
				</port>
			</output>
		</layer>
		<layer id="157" name="Conv_34" type="Add" version="opset1">
			<data auto_broadcast="numpy"/>
			<input>
				<port id="0">
					<dim>1</dim>
					<dim>32</dim>
					<dim>328</dim>
				</port>
				<port id="1">
					<dim>1</dim>
					<dim>32</dim>
					<dim>1</dim>
				</port>
			</input>
			<output>
				<port id="2" names="input.71" precision="FP32">
					<dim>1</dim>
					<dim>32</dim>
					<dim>328</dim>
				</port>
			</output>
		</layer>
		<layer id="158" name="Relu_35" type="ReLU" version="opset1">
			<input>
				<port id="0">
					<dim>1</dim>
					<dim>32</dim>
					<dim>328</dim>
				</port>
			</input>
			<output>
				<port id="1" names="input.75" precision="FP32">
					<dim>1</dim>
					<dim>32</dim>
					<dim>328</dim>
				</port>
			</output>
		</layer>
		<layer id="159" name="Slice_40/fq_input_0" type="FakeQuantize" version="opset1">
			<data auto_broadcast="numpy" levels="256"/>
			<input>
				<port id="0">
					<dim>1</dim>
					<dim>32</dim>
					<dim>328</dim>
				</port>
				<port id="1"/>
				<port id="2"/>
				<port id="3"/>
				<port id="4"/>
			</input>
			<output>
				<port id="5" precision="FP32">
					<dim>1</dim>
					<dim>32</dim>
					<dim>328</dim>
				</port>
			</output>
		</layer>
		<layer id="160" name="Slice_40/Concat22387472232" type="Const" version="opset1">
			<data element_type="i64" offset="1272" shape="3" size="24"/>
			<output>
				<port id="0" precision="I64">
					<dim>3</dim>
				</port>
			</output>
		</layer>
		<layer id="161" name="Slice_40/Concat222422397478233" type="Const" version="opset1">
			<data element_type="i64" offset="15208" shape="3" size="24"/>
			<output>
				<port id="0" precision="I64">
					<dim>3</dim>
				</port>
			</output>
		</layer>
		<layer id="162" name="Slice_40/Strides22407529234" type="Const" version="opset1">
			<data element_type="i64" offset="1320" shape="3" size="24"/>
			<output>
				<port id="0" precision="I64">
					<dim>3</dim>
				</port>
			</output>
		</layer>
		<layer id="163" name="Slice_40" type="StridedSlice" version="opset1">
			<data begin_mask="1,1,0" ellipsis_mask="0,0,0" end_mask="1,1,0" new_axis_mask="0,0,0" shrink_axis_mask="0,0,0"/>
			<input>
				<port id="0">
					<dim>1</dim>
					<dim>32</dim>
					<dim>328</dim>
				</port>
				<port id="1">
					<dim>3</dim>
				</port>
				<port id="2">
					<dim>3</dim>
				</port>
				<port id="3">
					<dim>3</dim>
				</port>
			</input>
			<output>
				<port id="4" names="onnx::Conv_164" precision="FP32">
					<dim>1</dim>
					<dim>32</dim>
					<dim>320</dim>
				</port>
			</output>
		</layer>
		<layer id="164" name="onnx::Conv_2862362245/quantized27834481" type="Const" version="opset1">
			<data element_type="i8" offset="15232" shape="32,32,3" size="3072"/>
			<output>
				<port id="0" precision="I8">
					<dim>32</dim>
					<dim>32</dim>
					<dim>3</dim>
				</port>
			</output>
		</layer>
		<layer id="165" name="onnx::Conv_2862362245/quantized/to_f32" type="Convert" version="opset1">
			<data destination_type="f32"/>
			<input>
				<port id="0">
					<dim>32</dim>
					<dim>32</dim>
					<dim>3</dim>
				</port>
			</input>
			<output>
				<port id="1" precision="FP32">
					<dim>32</dim>
					<dim>32</dim>
					<dim>3</dim>
				</port>
			</output>
		</layer>
		<layer id="166" name="Conv_41/WithoutBiases/fq_weights_1/zero_point27964139" type="Const" version="opset1">
			<data element_type="f32" offset="18304" shape="32,1,1" size="128"/>
			<output>
				<port id="0" precision="FP32">
					<dim>32</dim>
					<dim>1</dim>
					<dim>1</dim>
				</port>
			</output>
		</layer>
		<layer id="167" name="Conv_41/WithoutBiases/fq_weights_1/minus_zp" type="Subtract" version="opset1">
			<data auto_broadcast="numpy"/>
			<input>
				<port id="0">
					<dim>32</dim>
					<dim>32</dim>
					<dim>3</dim>
				</port>
				<port id="1">
					<dim>32</dim>
					<dim>1</dim>
					<dim>1</dim>
				</port>
			</input>
			<output>
				<port id="2" precision="FP32">
					<dim>32</dim>
					<dim>32</dim>
					<dim>3</dim>
				</port>
			</output>
		</layer>
		<layer id="168" name="Conv_41/WithoutBiases/fq_weights_1/scale27914616" type="Const" version="opset1">
			<data element_type="f32" offset="18432" shape="32,1,1" size="128"/>
			<output>
				<port id="0" precision="FP32">
					<dim>32</dim>
					<dim>1</dim>
					<dim>1</dim>
				</port>
			</output>
		</layer>
		<layer id="169" name="Conv_41/WithoutBiases/fq_weights_1/mulpiply_by_scale" type="Multiply" version="opset1">
			<data auto_broadcast="numpy"/>
			<input>
				<port id="0">
					<dim>32</dim>
					<dim>32</dim>
					<dim>3</dim>
				</port>
				<port id="1">
					<dim>32</dim>
					<dim>1</dim>
					<dim>1</dim>
				</port>
			</input>
			<output>
				<port id="2" precision="FP32">
					<dim>32</dim>
					<dim>32</dim>
					<dim>3</dim>
				</port>
			</output>
		</layer>
		<layer id="170" name="Conv_41/WithoutBiases" type="Convolution" version="opset1">
			<data auto_pad="explicit" dilations="4" pads_begin="8" pads_end="8" strides="1"/>
			<input>
				<port id="0">
					<dim>1</dim>
					<dim>32</dim>
					<dim>320</dim>
				</port>
				<port id="1">
					<dim>32</dim>
					<dim>32</dim>
					<dim>3</dim>
				</port>
			</input>
			<output>
				<port id="2" precision="FP32">
					<dim>1</dim>
					<dim>32</dim>
					<dim>328</dim>
				</port>
			</output>
		</layer>
		<layer id="171" name="Conv_41/Dims18752383980" type="Const" version="opset1">
			<data element_type="f32" offset="18560" shape="1,32,1" size="128"/>
			<output>
				<port id="0" precision="FP32">
					<dim>1</dim>
					<dim>32</dim>
					<dim>1</dim>
				</port>
			</output>
		</layer>
		<layer id="172" name="Conv_41" type="Add" version="opset1">
			<data auto_broadcast="numpy"/>
			<input>
				<port id="0">
					<dim>1</dim>
					<dim>32</dim>
					<dim>328</dim>
				</port>
				<port id="1">
					<dim>1</dim>
					<dim>32</dim>
					<dim>1</dim>
				</port>
			</input>
			<output>
				<port id="2" names="input.83" precision="FP32">
					<dim>1</dim>
					<dim>32</dim>
					<dim>328</dim>
				</port>
			</output>
		</layer>
		<layer id="173" name="Relu_42" type="ReLU" version="opset1">
			<input>
				<port id="0">
					<dim>1</dim>
					<dim>32</dim>
					<dim>328</dim>
				</port>
			</input>
			<output>
				<port id="1" names="input.87" precision="FP32">
					<dim>1</dim>
					<dim>32</dim>
					<dim>328</dim>
				</port>
			</output>
		</layer>
		<layer id="174" name="Slice_47/fq_input_0" type="FakeQuantize" version="opset1">
			<data auto_broadcast="numpy" levels="256"/>
			<input>
				<port id="0">
					<dim>1</dim>
					<dim>32</dim>
					<dim>328</dim>
				</port>
				<port id="1"/>
				<port id="2"/>
				<port id="3"/>
				<port id="4"/>
			</input>
			<output>
				<port id="5" precision="FP32">
					<dim>1</dim>
					<dim>32</dim>
					<dim>328</dim>
				</port>
			</output>
		</layer>
		<layer id="175" name="Slice_47/Concat22827403241" type="Const" version="opset1">
			<data element_type="i64" offset="1272" shape="3" size="24"/>
			<output>
				<port id="0" precision="I64">
					<dim>3</dim>
				</port>
			</output>
		</layer>
		<layer id="176" name="Slice_47/Concat226822837466242" type="Const" version="opset1">
			<data element_type="i64" offset="15208" shape="3" size="24"/>
			<output>
				<port id="0" precision="I64">
					<dim>3</dim>
				</port>
			</output>
		</layer>
		<layer id="177" name="Slice_47/Strides22847619243" type="Const" version="opset1">
			<data element_type="i64" offset="1320" shape="3" size="24"/>
			<output>
				<port id="0" precision="I64">
					<dim>3</dim>
				</port>
			</output>
		</layer>
		<layer id="178" name="Slice_47" type="StridedSlice" version="opset1">
			<data begin_mask="1,1,0" ellipsis_mask="0,0,0" end_mask="1,1,0" new_axis_mask="0,0,0" shrink_axis_mask="0,0,0"/>
			<input>
				<port id="0">
					<dim>1</dim>
					<dim>32</dim>
					<dim>328</dim>
				</port>
				<port id="1">
					<dim>3</dim>
				</port>
				<port id="2">
					<dim>3</dim>
				</port>
				<port id="3">
					<dim>3</dim>
				</port>
			</input>
			<output>
				<port id="4" names="onnx::Add_172" precision="FP32">
					<dim>1</dim>
					<dim>32</dim>
					<dim>320</dim>
				</port>
			</output>
		</layer>
		<layer id="179" name="Add_48" type="Add" version="opset1">
			<data auto_broadcast="numpy"/>
			<input>
				<port id="0">
					<dim>1</dim>
					<dim>32</dim>
					<dim>320</dim>
				</port>
				<port id="1">
					<dim>1</dim>
					<dim>32</dim>
					<dim>320</dim>
				</port>
			</input>
			<output>
				<port id="2" names="input.91" precision="FP32">
					<dim>1</dim>
					<dim>32</dim>
					<dim>320</dim>
				</port>
			</output>
		</layer>
		<layer id="180" name="Relu_49" type="ReLU" version="opset1">
			<input>
				<port id="0">
					<dim>1</dim>
					<dim>32</dim>
					<dim>320</dim>
				</port>
			</input>
			<output>
				<port id="1" names="input.95" precision="FP32">
					<dim>1</dim>
					<dim>32</dim>
					<dim>320</dim>
				</port>
			</output>
		</layer>
		<layer id="181" name="Add_64/fq_input_1" type="FakeQuantize" version="opset1">
			<data auto_broadcast="numpy" levels="256"/>
			<input>
				<port id="0">
					<dim>1</dim>
					<dim>32</dim>
					<dim>320</dim>
				</port>
				<port id="1"/>
				<port id="2"/>
				<port id="3"/>
				<port id="4"/>
			</input>
			<output>
				<port id="5" precision="FP32">
					<dim>1</dim>
					<dim>32</dim>
					<dim>320</dim>
				</port>
			</output>
		</layer>
		<layer id="182" name="151515194067" type="Const" version="opset1">
			<data element_type="f32" offset="160" shape="" size="4"/>
			<output>
				<port id="0" precision="FP32"/>
			</output>
		</layer>
		<layer id="183" name="151615204637" type="Const" version="opset1">
			<data element_type="f32" offset="18688" shape="" size="4"/>
			<output>
				<port id="0" precision="FP32"/>
			</output>
		</layer>
		<layer id="184" name="151715214418" type="Const" version="opset1">
			<data element_type="f32" offset="160" shape="" size="4"/>
			<output>
				<port id="0" precision="FP32"/>
			</output>
		</layer>
		<layer id="185" name="151815224175" type="Const" version="opset1">
			<data element_type="f32" offset="18688" shape="" size="4"/>
			<output>
				<port id="0" precision="FP32"/>
			</output>
		</layer>
		<layer id="186" name="160516094226" type="Const" version="opset1">
			<data element_type="f32" offset="160" shape="" size="4"/>
			<output>
				<port id="0" precision="FP32"/>
			</output>
		</layer>
		<layer id="187" name="160616104364" type="Const" version="opset1">
			<data element_type="f32" offset="18692" shape="" size="4"/>
			<output>
				<port id="0" precision="FP32"/>
			</output>
		</layer>
		<layer id="188" name="160716114604" type="Const" version="opset1">
			<data element_type="f32" offset="160" shape="" size="4"/>
			<output>
				<port id="0" precision="FP32"/>
			</output>
		</layer>
		<layer id="189" name="160816124241" type="Const" version="opset1">
			<data element_type="f32" offset="18692" shape="" size="4"/>
			<output>
				<port id="0" precision="FP32"/>
			</output>
		</layer>
		<layer id="190" name="onnx::Conv_2892472250/quantized25434385" type="Const" version="opset1">
			<data element_type="i8" offset="18696" shape="32,32,3" size="3072"/>
			<output>
				<port id="0" precision="I8">
					<dim>32</dim>
					<dim>32</dim>
					<dim>3</dim>
				</port>
			</output>
		</layer>
		<layer id="191" name="onnx::Conv_2892472250/quantized/to_f32" type="Convert" version="opset1">
			<data destination_type="f32"/>
			<input>
				<port id="0">
					<dim>32</dim>
					<dim>32</dim>
					<dim>3</dim>
				</port>
			</input>
			<output>
				<port id="1" precision="FP32">
					<dim>32</dim>
					<dim>32</dim>
					<dim>3</dim>
				</port>
			</output>
		</layer>
		<layer id="192" name="Conv_50/WithoutBiases/fq_weights_1/zero_point25564529" type="Const" version="opset1">
			<data element_type="f32" offset="21768" shape="32,1,1" size="128"/>
			<output>
				<port id="0" precision="FP32">
					<dim>32</dim>
					<dim>1</dim>
					<dim>1</dim>
				</port>
			</output>
		</layer>
		<layer id="193" name="Conv_50/WithoutBiases/fq_weights_1/minus_zp" type="Subtract" version="opset1">
			<data auto_broadcast="numpy"/>
			<input>
				<port id="0">
					<dim>32</dim>
					<dim>32</dim>
					<dim>3</dim>
				</port>
				<port id="1">
					<dim>32</dim>
					<dim>1</dim>
					<dim>1</dim>
				</port>
			</input>
			<output>
				<port id="2" precision="FP32">
					<dim>32</dim>
					<dim>32</dim>
					<dim>3</dim>
				</port>
			</output>
		</layer>
		<layer id="194" name="Conv_50/WithoutBiases/fq_weights_1/scale25514322" type="Const" version="opset1">
			<data element_type="f32" offset="21896" shape="32,1,1" size="128"/>
			<output>
				<port id="0" precision="FP32">
					<dim>32</dim>
					<dim>1</dim>
					<dim>1</dim>
				</port>
			</output>
		</layer>
		<layer id="195" name="Conv_50/WithoutBiases/fq_weights_1/mulpiply_by_scale" type="Multiply" version="opset1">
			<data auto_broadcast="numpy"/>
			<input>
				<port id="0">
					<dim>32</dim>
					<dim>32</dim>
					<dim>3</dim>
				</port>
				<port id="1">
					<dim>32</dim>
					<dim>1</dim>
					<dim>1</dim>
				</port>
			</input>
			<output>
				<port id="2" precision="FP32">
					<dim>32</dim>
					<dim>32</dim>
					<dim>3</dim>
				</port>
			</output>
		</layer>
		<layer id="196" name="Conv_50/WithoutBiases" type="Convolution" version="opset1">
			<data auto_pad="explicit" dilations="8" pads_begin="16" pads_end="16" strides="1"/>
			<input>
				<port id="0">
					<dim>1</dim>
					<dim>32</dim>
					<dim>320</dim>
				</port>
				<port id="1">
					<dim>32</dim>
					<dim>32</dim>
					<dim>3</dim>
				</port>
			</input>
			<output>
				<port id="2" precision="FP32">
					<dim>1</dim>
					<dim>32</dim>
					<dim>336</dim>
				</port>
			</output>
		</layer>
		<layer id="197" name="Conv_50/Dims18932494628" type="Const" version="opset1">
			<data element_type="f32" offset="22024" shape="1,32,1" size="128"/>
			<output>
				<port id="0" precision="FP32">
					<dim>1</dim>
					<dim>32</dim>
					<dim>1</dim>
				</port>
			</output>
		</layer>
		<layer id="198" name="Conv_50" type="Add" version="opset1">
			<data auto_broadcast="numpy"/>
			<input>
				<port id="0">
					<dim>1</dim>
					<dim>32</dim>
					<dim>336</dim>
				</port>
				<port id="1">
					<dim>1</dim>
					<dim>32</dim>
					<dim>1</dim>
				</port>
			</input>
			<output>
				<port id="2" names="input.103" precision="FP32">
					<dim>1</dim>
					<dim>32</dim>
					<dim>336</dim>
				</port>
			</output>
		</layer>
		<layer id="199" name="Relu_51" type="ReLU" version="opset1">
			<input>
				<port id="0">
					<dim>1</dim>
					<dim>32</dim>
					<dim>336</dim>
				</port>
			</input>
			<output>
				<port id="1" names="input.107" precision="FP32">
					<dim>1</dim>
					<dim>32</dim>
					<dim>336</dim>
				</port>
			</output>
		</layer>
		<layer id="200" name="Slice_56/fq_input_0" type="FakeQuantize" version="opset1">
			<data auto_broadcast="numpy" levels="256"/>
			<input>
				<port id="0">
					<dim>1</dim>
					<dim>32</dim>
					<dim>336</dim>
				</port>
				<port id="1"/>
				<port id="2"/>
				<port id="3"/>
				<port id="4"/>
			</input>
			<output>
				<port id="5" precision="FP32">
					<dim>1</dim>
					<dim>32</dim>
					<dim>336</dim>
				</port>
			</output>
		</layer>
		<layer id="201" name="Slice_56/Concat23267490252" type="Const" version="opset1">
			<data element_type="i64" offset="1272" shape="3" size="24"/>
			<output>
				<port id="0" precision="I64">
					<dim>3</dim>
				</port>
			</output>
		</layer>
		<layer id="202" name="Slice_56/Concat231223277514253" type="Const" version="opset1">
			<data element_type="i64" offset="22152" shape="3" size="24"/>
			<output>
				<port id="0" precision="I64">
					<dim>3</dim>
				</port>
			</output>
		</layer>
		<layer id="203" name="Slice_56/Strides23287424254" type="Const" version="opset1">
			<data element_type="i64" offset="1320" shape="3" size="24"/>
			<output>
				<port id="0" precision="I64">
					<dim>3</dim>
				</port>
			</output>
		</layer>
		<layer id="204" name="Slice_56" type="StridedSlice" version="opset1">
			<data begin_mask="1,1,0" ellipsis_mask="0,0,0" end_mask="1,1,0" new_axis_mask="0,0,0" shrink_axis_mask="0,0,0"/>
			<input>
				<port id="0">
					<dim>1</dim>
					<dim>32</dim>
					<dim>336</dim>
				</port>
				<port id="1">
					<dim>3</dim>
				</port>
				<port id="2">
					<dim>3</dim>
				</port>
				<port id="3">
					<dim>3</dim>
				</port>
			</input>
			<output>
				<port id="4" names="onnx::Conv_182" precision="FP32">
					<dim>1</dim>
					<dim>32</dim>
					<dim>320</dim>
				</port>
			</output>
		</layer>
		<layer id="205" name="onnx::Conv_2922562255/quantized28794148" type="Const" version="opset1">
			<data element_type="i8" offset="22176" shape="32,32,3" size="3072"/>
			<output>
				<port id="0" precision="I8">
					<dim>32</dim>
					<dim>32</dim>
					<dim>3</dim>
				</port>
			</output>
		</layer>
		<layer id="206" name="onnx::Conv_2922562255/quantized/to_f32" type="Convert" version="opset1">
			<data destination_type="f32"/>
			<input>
				<port id="0">
					<dim>32</dim>
					<dim>32</dim>
					<dim>3</dim>
				</port>
			</input>
			<output>
				<port id="1" precision="FP32">
					<dim>32</dim>
					<dim>32</dim>
					<dim>3</dim>
				</port>
			</output>
		</layer>
		<layer id="207" name="Conv_57/WithoutBiases/fq_weights_1/zero_point28924289" type="Const" version="opset1">
			<data element_type="f32" offset="25248" shape="32,1,1" size="128"/>
			<output>
				<port id="0" precision="FP32">
					<dim>32</dim>
					<dim>1</dim>
					<dim>1</dim>
				</port>
			</output>
		</layer>
		<layer id="208" name="Conv_57/WithoutBiases/fq_weights_1/minus_zp" type="Subtract" version="opset1">
			<data auto_broadcast="numpy"/>
			<input>
				<port id="0">
					<dim>32</dim>
					<dim>32</dim>
					<dim>3</dim>
				</port>
				<port id="1">
					<dim>32</dim>
					<dim>1</dim>
					<dim>1</dim>
				</port>
			</input>
			<output>
				<port id="2" precision="FP32">
					<dim>32</dim>
					<dim>32</dim>
					<dim>3</dim>
				</port>
			</output>
		</layer>
		<layer id="209" name="Conv_57/WithoutBiases/fq_weights_1/scale28874346" type="Const" version="opset1">
			<data element_type="f32" offset="25376" shape="32,1,1" size="128"/>
			<output>
				<port id="0" precision="FP32">
					<dim>32</dim>
					<dim>1</dim>
					<dim>1</dim>
				</port>
			</output>
		</layer>
		<layer id="210" name="Conv_57/WithoutBiases/fq_weights_1/mulpiply_by_scale" type="Multiply" version="opset1">
			<data auto_broadcast="numpy"/>
			<input>
				<port id="0">
					<dim>32</dim>
					<dim>32</dim>
					<dim>3</dim>
				</port>
				<port id="1">
					<dim>32</dim>
					<dim>1</dim>
					<dim>1</dim>
				</port>
			</input>
			<output>
				<port id="2" precision="FP32">
					<dim>32</dim>
					<dim>32</dim>
					<dim>3</dim>
				</port>
			</output>
		</layer>
		<layer id="211" name="Conv_57/WithoutBiases" type="Convolution" version="opset1">
			<data auto_pad="explicit" dilations="8" pads_begin="16" pads_end="16" strides="1"/>
			<input>
				<port id="0">
					<dim>1</dim>
					<dim>32</dim>
					<dim>320</dim>
				</port>
				<port id="1">
					<dim>32</dim>
					<dim>32</dim>
					<dim>3</dim>
				</port>
			</input>
			<output>
				<port id="2" precision="FP32">
					<dim>1</dim>
					<dim>32</dim>
					<dim>336</dim>
				</port>
			</output>
		</layer>
		<layer id="212" name="Conv_57/Dims19112584547" type="Const" version="opset1">
			<data element_type="f32" offset="25504" shape="1,32,1" size="128"/>
			<output>
				<port id="0" precision="FP32">
					<dim>1</dim>
					<dim>32</dim>
					<dim>1</dim>
				</port>
			</output>
		</layer>
		<layer id="213" name="Conv_57" type="Add" version="opset1">
			<data auto_broadcast="numpy"/>
			<input>
				<port id="0">
					<dim>1</dim>
					<dim>32</dim>
					<dim>336</dim>
				</port>
				<port id="1">
					<dim>1</dim>
					<dim>32</dim>
					<dim>1</dim>
				</port>
			</input>
			<output>
				<port id="2" names="input.115" precision="FP32">
					<dim>1</dim>
					<dim>32</dim>
					<dim>336</dim>
				</port>
			</output>
		</layer>
		<layer id="214" name="Relu_58" type="ReLU" version="opset1">
			<input>
				<port id="0">
					<dim>1</dim>
					<dim>32</dim>
					<dim>336</dim>
				</port>
			</input>
			<output>
				<port id="1" names="input.119" precision="FP32">
					<dim>1</dim>
					<dim>32</dim>
					<dim>336</dim>
				</port>
			</output>
		</layer>
		<layer id="215" name="Slice_63/fq_input_0" type="FakeQuantize" version="opset1">
			<data auto_broadcast="numpy" levels="256"/>
			<input>
				<port id="0">
					<dim>1</dim>
					<dim>32</dim>
					<dim>336</dim>
				</port>
				<port id="1"/>
				<port id="2"/>
				<port id="3"/>
				<port id="4"/>
			</input>
			<output>
				<port id="5" precision="FP32">
					<dim>1</dim>
					<dim>32</dim>
					<dim>336</dim>
				</port>
			</output>
		</layer>
		<layer id="216" name="Slice_63/Concat23707409261" type="Const" version="opset1">
			<data element_type="i64" offset="1272" shape="3" size="24"/>
			<output>
				<port id="0" precision="I64">
					<dim>3</dim>
				</port>
			</output>
		</layer>
		<layer id="217" name="Slice_63/Concat235623717622262" type="Const" version="opset1">
			<data element_type="i64" offset="22152" shape="3" size="24"/>
			<output>
				<port id="0" precision="I64">
					<dim>3</dim>
				</port>
			</output>
		</layer>
		<layer id="218" name="Slice_63/Strides23727436263" type="Const" version="opset1">
			<data element_type="i64" offset="1320" shape="3" size="24"/>
			<output>
				<port id="0" precision="I64">
					<dim>3</dim>
				</port>
			</output>
		</layer>
		<layer id="219" name="Slice_63" type="StridedSlice" version="opset1">
			<data begin_mask="1,1,0" ellipsis_mask="0,0,0" end_mask="1,1,0" new_axis_mask="0,0,0" shrink_axis_mask="0,0,0"/>
			<input>
				<port id="0">
					<dim>1</dim>
					<dim>32</dim>
					<dim>336</dim>
				</port>
				<port id="1">
					<dim>3</dim>
				</port>
				<port id="2">
					<dim>3</dim>
				</port>
				<port id="3">
					<dim>3</dim>
				</port>
			</input>
			<output>
				<port id="4" names="onnx::Add_190" precision="FP32">
					<dim>1</dim>
					<dim>32</dim>
					<dim>320</dim>
				</port>
			</output>
		</layer>
		<layer id="220" name="Add_64" type="Add" version="opset1">
			<data auto_broadcast="numpy"/>
			<input>
				<port id="0">
					<dim>1</dim>
					<dim>32</dim>
					<dim>320</dim>
				</port>
				<port id="1">
					<dim>1</dim>
					<dim>32</dim>
					<dim>320</dim>
				</port>
			</input>
			<output>
				<port id="2" names="input.123" precision="FP32">
					<dim>1</dim>
					<dim>32</dim>
					<dim>320</dim>
				</port>
			</output>
		</layer>
		<layer id="221" name="Relu_65" type="ReLU" version="opset1">
			<input>
				<port id="0">
					<dim>1</dim>
					<dim>32</dim>
					<dim>320</dim>
				</port>
			</input>
			<output>
				<port id="1" names="input.127" precision="FP32">
					<dim>1</dim>
					<dim>32</dim>
					<dim>320</dim>
				</port>
			</output>
		</layer>
		<layer id="222" name="Add_80/fq_input_1" type="FakeQuantize" version="opset1">
			<data auto_broadcast="numpy" levels="256"/>
			<input>
				<port id="0">
					<dim>1</dim>
					<dim>32</dim>
					<dim>320</dim>
				</port>
				<port id="1"/>
				<port id="2"/>
				<port id="3"/>
				<port id="4"/>
			</input>
			<output>
				<port id="5" precision="FP32">
					<dim>1</dim>
					<dim>32</dim>
					<dim>320</dim>
				</port>
			</output>
		</layer>
		<layer id="223" name="152515294517" type="Const" version="opset1">
			<data element_type="f32" offset="160" shape="" size="4"/>
			<output>
				<port id="0" precision="FP32"/>
			</output>
		</layer>
		<layer id="224" name="152615304646" type="Const" version="opset1">
			<data element_type="f32" offset="25632" shape="" size="4"/>
			<output>
				<port id="0" precision="FP32"/>
			</output>
		</layer>
		<layer id="225" name="152715314397" type="Const" version="opset1">
			<data element_type="f32" offset="160" shape="" size="4"/>
			<output>
				<port id="0" precision="FP32"/>
			</output>
		</layer>
		<layer id="226" name="152815324316" type="Const" version="opset1">
			<data element_type="f32" offset="25632" shape="" size="4"/>
			<output>
				<port id="0" precision="FP32"/>
			</output>
		</layer>
		<layer id="227" name="161516194631" type="Const" version="opset1">
			<data element_type="f32" offset="160" shape="" size="4"/>
			<output>
				<port id="0" precision="FP32"/>
			</output>
		</layer>
		<layer id="228" name="161616204160" type="Const" version="opset1">
			<data element_type="f32" offset="25636" shape="" size="4"/>
			<output>
				<port id="0" precision="FP32"/>
			</output>
		</layer>
		<layer id="229" name="161716214166" type="Const" version="opset1">
			<data element_type="f32" offset="160" shape="" size="4"/>
			<output>
				<port id="0" precision="FP32"/>
			</output>
		</layer>
		<layer id="230" name="161816224649" type="Const" version="opset1">
			<data element_type="f32" offset="25636" shape="" size="4"/>
			<output>
				<port id="0" precision="FP32"/>
			</output>
		</layer>
		<layer id="231" name="onnx::Conv_2952672260/quantized24954229" type="Const" version="opset1">
			<data element_type="i8" offset="25640" shape="32,32,3" size="3072"/>
			<output>
				<port id="0" precision="I8">
					<dim>32</dim>
					<dim>32</dim>
					<dim>3</dim>
				</port>
			</output>
		</layer>
		<layer id="232" name="onnx::Conv_2952672260/quantized/to_f32" type="Convert" version="opset1">
			<data destination_type="f32"/>
			<input>
				<port id="0">
					<dim>32</dim>
					<dim>32</dim>
					<dim>3</dim>
				</port>
			</input>
			<output>
				<port id="1" precision="FP32">
					<dim>32</dim>
					<dim>32</dim>
					<dim>3</dim>
				</port>
			</output>
		</layer>
		<layer id="233" name="Conv_66/WithoutBiases/fq_weights_1/zero_point25084388" type="Const" version="opset1">
			<data element_type="f32" offset="28712" shape="32,1,1" size="128"/>
			<output>
				<port id="0" precision="FP32">
					<dim>32</dim>
					<dim>1</dim>
					<dim>1</dim>
				</port>
			</output>
		</layer>
		<layer id="234" name="Conv_66/WithoutBiases/fq_weights_1/minus_zp" type="Subtract" version="opset1">
			<data auto_broadcast="numpy"/>
			<input>
				<port id="0">
					<dim>32</dim>
					<dim>32</dim>
					<dim>3</dim>
				</port>
				<port id="1">
					<dim>32</dim>
					<dim>1</dim>
					<dim>1</dim>
				</port>
			</input>
			<output>
				<port id="2" precision="FP32">
					<dim>32</dim>
					<dim>32</dim>
					<dim>3</dim>
				</port>
			</output>
		</layer>
		<layer id="235" name="Conv_66/WithoutBiases/fq_weights_1/scale25034292" type="Const" version="opset1">
			<data element_type="f32" offset="28840" shape="32,1,1" size="128"/>
			<output>
				<port id="0" precision="FP32">
					<dim>32</dim>
					<dim>1</dim>
					<dim>1</dim>
				</port>
			</output>
		</layer>
		<layer id="236" name="Conv_66/WithoutBiases/fq_weights_1/mulpiply_by_scale" type="Multiply" version="opset1">
			<data auto_broadcast="numpy"/>
			<input>
				<port id="0">
					<dim>32</dim>
					<dim>32</dim>
					<dim>3</dim>
				</port>
				<port id="1">
					<dim>32</dim>
					<dim>1</dim>
					<dim>1</dim>
				</port>
			</input>
			<output>
				<port id="2" precision="FP32">
					<dim>32</dim>
					<dim>32</dim>
					<dim>3</dim>
				</port>
			</output>
		</layer>
		<layer id="237" name="Conv_66/WithoutBiases" type="Convolution" version="opset1">
			<data auto_pad="explicit" dilations="16" pads_begin="32" pads_end="32" strides="1"/>
			<input>
				<port id="0">
					<dim>1</dim>
					<dim>32</dim>
					<dim>320</dim>
				</port>
				<port id="1">
					<dim>32</dim>
					<dim>32</dim>
					<dim>3</dim>
				</port>
			</input>
			<output>
				<port id="2" precision="FP32">
					<dim>1</dim>
					<dim>32</dim>
					<dim>352</dim>
				</port>
			</output>
		</layer>
		<layer id="238" name="Conv_66/Dims18812694349" type="Const" version="opset1">
			<data element_type="f32" offset="28968" shape="1,32,1" size="128"/>
			<output>
				<port id="0" precision="FP32">
					<dim>1</dim>
					<dim>32</dim>
					<dim>1</dim>
				</port>
			</output>
		</layer>
		<layer id="239" name="Conv_66" type="Add" version="opset1">
			<data auto_broadcast="numpy"/>
			<input>
				<port id="0">
					<dim>1</dim>
					<dim>32</dim>
					<dim>352</dim>
				</port>
				<port id="1">
					<dim>1</dim>
					<dim>32</dim>
					<dim>1</dim>
				</port>
			</input>
			<output>
				<port id="2" names="input.135" precision="FP32">
					<dim>1</dim>
					<dim>32</dim>
					<dim>352</dim>
				</port>
			</output>
		</layer>
		<layer id="240" name="Relu_67" type="ReLU" version="opset1">
			<input>
				<port id="0">
					<dim>1</dim>
					<dim>32</dim>
					<dim>352</dim>
				</port>
			</input>
			<output>
				<port id="1" names="input.139" precision="FP32">
					<dim>1</dim>
					<dim>32</dim>
					<dim>352</dim>
				</port>
			</output>
		</layer>
		<layer id="241" name="Slice_72/fq_input_0" type="FakeQuantize" version="opset1">
			<data auto_broadcast="numpy" levels="256"/>
			<input>
				<port id="0">
					<dim>1</dim>
					<dim>32</dim>
					<dim>352</dim>
				</port>
				<port id="1"/>
				<port id="2"/>
				<port id="3"/>
				<port id="4"/>
			</input>
			<output>
				<port id="5" precision="FP32">
					<dim>1</dim>
					<dim>32</dim>
					<dim>352</dim>
				</port>
			</output>
		</layer>
		<layer id="242" name="Slice_72/Concat24147430272" type="Const" version="opset1">
			<data element_type="i64" offset="1272" shape="3" size="24"/>
			<output>
				<port id="0" precision="I64">
					<dim>3</dim>
				</port>
			</output>
		</layer>
		<layer id="243" name="Slice_72/Concat240024157484273" type="Const" version="opset1">
			<data element_type="i64" offset="29096" shape="3" size="24"/>
			<output>
				<port id="0" precision="I64">
					<dim>3</dim>
				</port>
			</output>
		</layer>
		<layer id="244" name="Slice_72/Strides24167553274" type="Const" version="opset1">
			<data element_type="i64" offset="1320" shape="3" size="24"/>
			<output>
				<port id="0" precision="I64">
					<dim>3</dim>
				</port>
			</output>
		</layer>
		<layer id="245" name="Slice_72" type="StridedSlice" version="opset1">
			<data begin_mask="1,1,0" ellipsis_mask="0,0,0" end_mask="1,1,0" new_axis_mask="0,0,0" shrink_axis_mask="0,0,0"/>
			<input>
				<port id="0">
					<dim>1</dim>
					<dim>32</dim>
					<dim>352</dim>
				</port>
				<port id="1">
					<dim>3</dim>
				</port>
				<port id="2">
					<dim>3</dim>
				</port>
				<port id="3">
					<dim>3</dim>
				</port>
			</input>
			<output>
				<port id="4" names="onnx::Conv_200" precision="FP32">
					<dim>1</dim>
					<dim>32</dim>
					<dim>320</dim>
				</port>
			</output>
		</layer>
		<layer id="246" name="onnx::Conv_2982762265/quantized27594184" type="Const" version="opset1">
			<data element_type="i8" offset="29120" shape="32,32,3" size="3072"/>
			<output>
				<port id="0" precision="I8">
					<dim>32</dim>
					<dim>32</dim>
					<dim>3</dim>
				</port>
			</output>
		</layer>
		<layer id="247" name="onnx::Conv_2982762265/quantized/to_f32" type="Convert" version="opset1">
			<data destination_type="f32"/>
			<input>
				<port id="0">
					<dim>32</dim>
					<dim>32</dim>
					<dim>3</dim>
				</port>
			</input>
			<output>
				<port id="1" precision="FP32">
					<dim>32</dim>
					<dim>32</dim>
					<dim>3</dim>
				</port>
			</output>
		</layer>
		<layer id="248" name="Conv_73/WithoutBiases/fq_weights_1/zero_point27724100" type="Const" version="opset1">
			<data element_type="f32" offset="32192" shape="32,1,1" size="128"/>
			<output>
				<port id="0" precision="FP32">
					<dim>32</dim>
					<dim>1</dim>
					<dim>1</dim>
				</port>
			</output>
		</layer>
		<layer id="249" name="Conv_73/WithoutBiases/fq_weights_1/minus_zp" type="Subtract" version="opset1">
			<data auto_broadcast="numpy"/>
			<input>
				<port id="0">
					<dim>32</dim>
					<dim>32</dim>
					<dim>3</dim>
				</port>
				<port id="1">
					<dim>32</dim>
					<dim>1</dim>
					<dim>1</dim>
				</port>
			</input>
			<output>
				<port id="2" precision="FP32">
					<dim>32</dim>
					<dim>32</dim>
					<dim>3</dim>
				</port>
			</output>
		</layer>
		<layer id="250" name="Conv_73/WithoutBiases/fq_weights_1/scale27674211" type="Const" version="opset1">
			<data element_type="f32" offset="32320" shape="32,1,1" size="128"/>
			<output>
				<port id="0" precision="FP32">
					<dim>32</dim>
					<dim>1</dim>
					<dim>1</dim>
				</port>
			</output>
		</layer>
		<layer id="251" name="Conv_73/WithoutBiases/fq_weights_1/mulpiply_by_scale" type="Multiply" version="opset1">
			<data auto_broadcast="numpy"/>
			<input>
				<port id="0">
					<dim>32</dim>
					<dim>32</dim>
					<dim>3</dim>
				</port>
				<port id="1">
					<dim>32</dim>
					<dim>1</dim>
					<dim>1</dim>
				</port>
			</input>
			<output>
				<port id="2" precision="FP32">
					<dim>32</dim>
					<dim>32</dim>
					<dim>3</dim>
				</port>
			</output>
		</layer>
		<layer id="252" name="Conv_73/WithoutBiases" type="Convolution" version="opset1">
			<data auto_pad="explicit" dilations="16" pads_begin="32" pads_end="32" strides="1"/>
			<input>
				<port id="0">
					<dim>1</dim>
					<dim>32</dim>
					<dim>320</dim>
				</port>
				<port id="1">
					<dim>32</dim>
					<dim>32</dim>
					<dim>3</dim>
				</port>
			</input>
			<output>
				<port id="2" precision="FP32">
					<dim>1</dim>
					<dim>32</dim>
					<dim>352</dim>
				</port>
			</output>
		</layer>
		<layer id="253" name="Conv_73/Dims18632784514" type="Const" version="opset1">
			<data element_type="f32" offset="32448" shape="1,32,1" size="128"/>
			<output>
				<port id="0" precision="FP32">
					<dim>1</dim>
					<dim>32</dim>
					<dim>1</dim>
				</port>
			</output>
		</layer>
		<layer id="254" name="Conv_73" type="Add" version="opset1">
			<data auto_broadcast="numpy"/>
			<input>
				<port id="0">
					<dim>1</dim>
					<dim>32</dim>
					<dim>352</dim>
				</port>
				<port id="1">
					<dim>1</dim>
					<dim>32</dim>
					<dim>1</dim>
				</port>
			</input>
			<output>
				<port id="2" names="input.147" precision="FP32">
					<dim>1</dim>
					<dim>32</dim>
					<dim>352</dim>
				</port>
			</output>
		</layer>
		<layer id="255" name="Relu_74" type="ReLU" version="opset1">
			<input>
				<port id="0">
					<dim>1</dim>
					<dim>32</dim>
					<dim>352</dim>
				</port>
			</input>
			<output>
				<port id="1" names="input.151" precision="FP32">
					<dim>1</dim>
					<dim>32</dim>
					<dim>352</dim>
				</port>
			</output>
		</layer>
		<layer id="256" name="Slice_79/fq_input_0" type="FakeQuantize" version="opset1">
			<data auto_broadcast="numpy" levels="256"/>
			<input>
				<port id="0">
					<dim>1</dim>
					<dim>32</dim>
					<dim>352</dim>
				</port>
				<port id="1"/>
				<port id="2"/>
				<port id="3"/>
				<port id="4"/>
			</input>
			<output>
				<port id="5" precision="FP32">
					<dim>1</dim>
					<dim>32</dim>
					<dim>352</dim>
				</port>
			</output>
		</layer>
		<layer id="257" name="Slice_79/Concat24587616281" type="Const" version="opset1">
			<data element_type="i64" offset="1272" shape="3" size="24"/>
			<output>
				<port id="0" precision="I64">
					<dim>3</dim>
				</port>
			</output>
		</layer>
		<layer id="258" name="Slice_79/Concat244424597613282" type="Const" version="opset1">
			<data element_type="i64" offset="29096" shape="3" size="24"/>
			<output>
				<port id="0" precision="I64">
					<dim>3</dim>
				</port>
			</output>
		</layer>
		<layer id="259" name="Slice_79/Strides24607445283" type="Const" version="opset1">
			<data element_type="i64" offset="1320" shape="3" size="24"/>
			<output>
				<port id="0" precision="I64">
					<dim>3</dim>
				</port>
			</output>
		</layer>
		<layer id="260" name="Slice_79" type="StridedSlice" version="opset1">
			<data begin_mask="1,1,0" ellipsis_mask="0,0,0" end_mask="1,1,0" new_axis_mask="0,0,0" shrink_axis_mask="0,0,0"/>
			<input>
				<port id="0">
					<dim>1</dim>
					<dim>32</dim>
					<dim>352</dim>
				</port>
				<port id="1">
					<dim>3</dim>
				</port>
				<port id="2">
					<dim>3</dim>
				</port>
				<port id="3">
					<dim>3</dim>
				</port>
			</input>
			<output>
				<port id="4" names="onnx::Add_208" precision="FP32">
					<dim>1</dim>
					<dim>32</dim>
					<dim>320</dim>
				</port>
			</output>
		</layer>
		<layer id="261" name="Add_80" type="Add" version="opset1">
			<data auto_broadcast="numpy"/>
			<input>
				<port id="0">
					<dim>1</dim>
					<dim>32</dim>
					<dim>320</dim>
				</port>
				<port id="1">
					<dim>1</dim>
					<dim>32</dim>
					<dim>320</dim>
				</port>
			</input>
			<output>
				<port id="2" names="input.155" precision="FP32">
					<dim>1</dim>
					<dim>32</dim>
					<dim>320</dim>
				</port>
			</output>
		</layer>
		<layer id="262" name="Relu_81" type="ReLU" version="opset1">
			<input>
				<port id="0">
					<dim>1</dim>
					<dim>32</dim>
					<dim>320</dim>
				</port>
			</input>
			<output>
				<port id="1" names="input.159" precision="FP32">
					<dim>1</dim>
					<dim>32</dim>
					<dim>320</dim>
				</port>
			</output>
		</layer>
		<layer id="263" name="Add_96/fq_input_1" type="FakeQuantize" version="opset1">
			<data auto_broadcast="numpy" levels="256"/>
			<input>
				<port id="0">
					<dim>1</dim>
					<dim>32</dim>
					<dim>320</dim>
				</port>
				<port id="1"/>
				<port id="2"/>
				<port id="3"/>
				<port id="4"/>
			</input>
			<output>
				<port id="5" precision="FP32">
					<dim>1</dim>
					<dim>32</dim>
					<dim>320</dim>
				</port>
			</output>
		</layer>
		<layer id="264" name="153515394163" type="Const" version="opset1">
			<data element_type="f32" offset="160" shape="" size="4"/>
			<output>
				<port id="0" precision="FP32"/>
			</output>
		</layer>
		<layer id="265" name="153615404532" type="Const" version="opset1">
			<data element_type="f32" offset="32576" shape="" size="4"/>
			<output>
				<port id="0" precision="FP32"/>
			</output>
		</layer>
		<layer id="266" name="153715414625" type="Const" version="opset1">
			<data element_type="f32" offset="160" shape="" size="4"/>
			<output>
				<port id="0" precision="FP32"/>
			</output>
		</layer>
		<layer id="267" name="153815424328" type="Const" version="opset1">
			<data element_type="f32" offset="32576" shape="" size="4"/>
			<output>
				<port id="0" precision="FP32"/>
			</output>
		</layer>
		<layer id="268" name="163516394127" type="Const" version="opset1">
			<data element_type="f32" offset="160" shape="" size="4"/>
			<output>
				<port id="0" precision="FP32"/>
			</output>
		</layer>
		<layer id="269" name="163616404469" type="Const" version="opset1">
			<data element_type="f32" offset="32580" shape="" size="4"/>
			<output>
				<port id="0" precision="FP32"/>
			</output>
		</layer>
		<layer id="270" name="163716414595" type="Const" version="opset1">
			<data element_type="f32" offset="160" shape="" size="4"/>
			<output>
				<port id="0" precision="FP32"/>
			</output>
		</layer>
		<layer id="271" name="163816424658" type="Const" version="opset1">
			<data element_type="f32" offset="32580" shape="" size="4"/>
			<output>
				<port id="0" precision="FP32"/>
			</output>
		</layer>
		<layer id="272" name="onnx::Conv_3012872270/quantized27354565" type="Const" version="opset1">
			<data element_type="i8" offset="32584" shape="32,32,3" size="3072"/>
			<output>
				<port id="0" precision="I8">
					<dim>32</dim>
					<dim>32</dim>
					<dim>3</dim>
				</port>
			</output>
		</layer>
		<layer id="273" name="onnx::Conv_3012872270/quantized/to_f32" type="Convert" version="opset1">
			<data destination_type="f32"/>
			<input>
				<port id="0">
					<dim>32</dim>
					<dim>32</dim>
					<dim>3</dim>
				</port>
			</input>
			<output>
				<port id="1" precision="FP32">
					<dim>32</dim>
					<dim>32</dim>
					<dim>3</dim>
				</port>
			</output>
		</layer>
		<layer id="274" name="Conv_82/WithoutBiases/fq_weights_1/zero_point27484013" type="Const" version="opset1">
			<data element_type="f32" offset="35656" shape="32,1,1" size="128"/>
			<output>
				<port id="0" precision="FP32">
					<dim>32</dim>
					<dim>1</dim>
					<dim>1</dim>
				</port>
			</output>
		</layer>
		<layer id="275" name="Conv_82/WithoutBiases/fq_weights_1/minus_zp" type="Subtract" version="opset1">
			<data auto_broadcast="numpy"/>
			<input>
				<port id="0">
					<dim>32</dim>
					<dim>32</dim>
					<dim>3</dim>
				</port>
				<port id="1">
					<dim>32</dim>
					<dim>1</dim>
					<dim>1</dim>
				</port>
			</input>
			<output>
				<port id="2" precision="FP32">
					<dim>32</dim>
					<dim>32</dim>
					<dim>3</dim>
				</port>
			</output>
		</layer>
		<layer id="276" name="Conv_82/WithoutBiases/fq_weights_1/scale27434406" type="Const" version="opset1">
			<data element_type="f32" offset="35784" shape="32,1,1" size="128"/>
			<output>
				<port id="0" precision="FP32">
					<dim>32</dim>
					<dim>1</dim>
					<dim>1</dim>
				</port>
			</output>
		</layer>
		<layer id="277" name="Conv_82/WithoutBiases/fq_weights_1/mulpiply_by_scale" type="Multiply" version="opset1">
			<data auto_broadcast="numpy"/>
			<input>
				<port id="0">
					<dim>32</dim>
					<dim>32</dim>
					<dim>3</dim>
				</port>
				<port id="1">
					<dim>32</dim>
					<dim>1</dim>
					<dim>1</dim>
				</port>
			</input>
			<output>
				<port id="2" precision="FP32">
					<dim>32</dim>
					<dim>32</dim>
					<dim>3</dim>
				</port>
			</output>
		</layer>
		<layer id="278" name="Conv_82/WithoutBiases" type="Convolution" version="opset1">
			<data auto_pad="explicit" dilations="32" pads_begin="64" pads_end="64" strides="1"/>
			<input>
				<port id="0">
					<dim>1</dim>
					<dim>32</dim>
					<dim>320</dim>
				</port>
				<port id="1">
					<dim>32</dim>
					<dim>32</dim>
					<dim>3</dim>
				</port>
			</input>
			<output>
				<port id="2" precision="FP32">
					<dim>1</dim>
					<dim>32</dim>
					<dim>384</dim>
				</port>
			</output>
		</layer>
		<layer id="279" name="Conv_82/Dims18212894253" type="Const" version="opset1">
			<data element_type="f32" offset="35912" shape="1,32,1" size="128"/>
			<output>
				<port id="0" precision="FP32">
					<dim>1</dim>
					<dim>32</dim>
					<dim>1</dim>
				</port>
			</output>
		</layer>
		<layer id="280" name="Conv_82" type="Add" version="opset1">
			<data auto_broadcast="numpy"/>
			<input>
				<port id="0">
					<dim>1</dim>
					<dim>32</dim>
					<dim>384</dim>
				</port>
				<port id="1">
					<dim>1</dim>
					<dim>32</dim>
					<dim>1</dim>
				</port>
			</input>
			<output>
				<port id="2" names="input.167" precision="FP32">
					<dim>1</dim>
					<dim>32</dim>
					<dim>384</dim>
				</port>
			</output>
		</layer>
		<layer id="281" name="Relu_83" type="ReLU" version="opset1">
			<input>
				<port id="0">
					<dim>1</dim>
					<dim>32</dim>
					<dim>384</dim>
				</port>
			</input>
			<output>
				<port id="1" names="input.171" precision="FP32">
					<dim>1</dim>
					<dim>32</dim>
					<dim>384</dim>
				</port>
			</output>
		</layer>
		<layer id="282" name="Slice_88/fq_input_0" type="FakeQuantize" version="opset1">
			<data auto_broadcast="numpy" levels="256"/>
			<input>
				<port id="0">
					<dim>1</dim>
					<dim>32</dim>
					<dim>384</dim>
				</port>
				<port id="1"/>
				<port id="2"/>
				<port id="3"/>
				<port id="4"/>
			</input>
			<output>
				<port id="5" precision="FP32">
					<dim>1</dim>
					<dim>32</dim>
					<dim>384</dim>
				</port>
			</output>
		</layer>
		<layer id="283" name="Slice_88/Concat25027511292" type="Const" version="opset1">
			<data element_type="i64" offset="1272" shape="3" size="24"/>
			<output>
				<port id="0" precision="I64">
					<dim>3</dim>
				</port>
			</output>
		</layer>
		<layer id="284" name="Slice_88/Concat248825037496293" type="Const" version="opset1">
			<data element_type="i64" offset="36040" shape="3" size="24"/>
			<output>
				<port id="0" precision="I64">
					<dim>3</dim>
				</port>
			</output>
		</layer>
		<layer id="285" name="Slice_88/Strides25047493294" type="Const" version="opset1">
			<data element_type="i64" offset="1320" shape="3" size="24"/>
			<output>
				<port id="0" precision="I64">
					<dim>3</dim>
				</port>
			</output>
		</layer>
		<layer id="286" name="Slice_88" type="StridedSlice" version="opset1">
			<data begin_mask="1,1,0" ellipsis_mask="0,0,0" end_mask="1,1,0" new_axis_mask="0,0,0" shrink_axis_mask="0,0,0"/>
			<input>
				<port id="0">
					<dim>1</dim>
					<dim>32</dim>
					<dim>384</dim>
				</port>
				<port id="1">
					<dim>3</dim>
				</port>
				<port id="2">
					<dim>3</dim>
				</port>
				<port id="3">
					<dim>3</dim>
				</port>
			</input>
			<output>
				<port id="4" names="onnx::Conv_218" precision="FP32">
					<dim>1</dim>
					<dim>32</dim>
					<dim>320</dim>
				</port>
			</output>
		</layer>
		<layer id="287" name="onnx::Conv_3042962275/quantized25914676" type="Const" version="opset1">
			<data element_type="i8" offset="36064" shape="32,32,3" size="3072"/>
			<output>
				<port id="0" precision="I8">
					<dim>32</dim>
					<dim>32</dim>
					<dim>3</dim>
				</port>
			</output>
		</layer>
		<layer id="288" name="onnx::Conv_3042962275/quantized/to_f32" type="Convert" version="opset1">
			<data destination_type="f32"/>
			<input>
				<port id="0">
					<dim>32</dim>
					<dim>32</dim>
					<dim>3</dim>
				</port>
			</input>
			<output>
				<port id="1" precision="FP32">
					<dim>32</dim>
					<dim>32</dim>
					<dim>3</dim>
				</port>
			</output>
		</layer>
		<layer id="289" name="Conv_89/WithoutBiases/fq_weights_1/zero_point26044343" type="Const" version="opset1">
			<data element_type="f32" offset="39136" shape="32,1,1" size="128"/>
			<output>
				<port id="0" precision="FP32">
					<dim>32</dim>
					<dim>1</dim>
					<dim>1</dim>
				</port>
			</output>
		</layer>
		<layer id="290" name="Conv_89/WithoutBiases/fq_weights_1/minus_zp" type="Subtract" version="opset1">
			<data auto_broadcast="numpy"/>
			<input>
				<port id="0">
					<dim>32</dim>
					<dim>32</dim>
					<dim>3</dim>
				</port>
				<port id="1">
					<dim>32</dim>
					<dim>1</dim>
					<dim>1</dim>
				</port>
			</input>
			<output>
				<port id="2" precision="FP32">
					<dim>32</dim>
					<dim>32</dim>
					<dim>3</dim>
				</port>
			</output>
		</layer>
		<layer id="291" name="Conv_89/WithoutBiases/fq_weights_1/scale25994583" type="Const" version="opset1">
			<data element_type="f32" offset="39264" shape="32,1,1" size="128"/>
			<output>
				<port id="0" precision="FP32">
					<dim>32</dim>
					<dim>1</dim>
					<dim>1</dim>
				</port>
			</output>
		</layer>
		<layer id="292" name="Conv_89/WithoutBiases/fq_weights_1/mulpiply_by_scale" type="Multiply" version="opset1">
			<data auto_broadcast="numpy"/>
			<input>
				<port id="0">
					<dim>32</dim>
					<dim>32</dim>
					<dim>3</dim>
				</port>
				<port id="1">
					<dim>32</dim>
					<dim>1</dim>
					<dim>1</dim>
				</port>
			</input>
			<output>
				<port id="2" precision="FP32">
					<dim>32</dim>
					<dim>32</dim>
					<dim>3</dim>
				</port>
			</output>
		</layer>
		<layer id="293" name="Conv_89/WithoutBiases" type="Convolution" version="opset1">
			<data auto_pad="explicit" dilations="32" pads_begin="64" pads_end="64" strides="1"/>
			<input>
				<port id="0">
					<dim>1</dim>
					<dim>32</dim>
					<dim>320</dim>
				</port>
				<port id="1">
					<dim>32</dim>
					<dim>32</dim>
					<dim>3</dim>
				</port>
			</input>
			<output>
				<port id="2" precision="FP32">
					<dim>1</dim>
					<dim>32</dim>
					<dim>384</dim>
				</port>
			</output>
		</layer>
		<layer id="294" name="Conv_89/Dims18872984487" type="Const" version="opset1">
			<data element_type="f32" offset="39392" shape="1,32,1" size="128"/>
			<output>
				<port id="0" precision="FP32">
					<dim>1</dim>
					<dim>32</dim>
					<dim>1</dim>
				</port>
			</output>
		</layer>
		<layer id="295" name="Conv_89" type="Add" version="opset1">
			<data auto_broadcast="numpy"/>
			<input>
				<port id="0">
					<dim>1</dim>
					<dim>32</dim>
					<dim>384</dim>
				</port>
				<port id="1">
					<dim>1</dim>
					<dim>32</dim>
					<dim>1</dim>
				</port>
			</input>
			<output>
				<port id="2" names="input.179" precision="FP32">
					<dim>1</dim>
					<dim>32</dim>
					<dim>384</dim>
				</port>
			</output>
		</layer>
		<layer id="296" name="Relu_90" type="ReLU" version="opset1">
			<input>
				<port id="0">
					<dim>1</dim>
					<dim>32</dim>
					<dim>384</dim>
				</port>
			</input>
			<output>
				<port id="1" names="input.183" precision="FP32">
					<dim>1</dim>
					<dim>32</dim>
					<dim>384</dim>
				</port>
			</output>
		</layer>
		<layer id="297" name="Slice_95/fq_input_0" type="FakeQuantize" version="opset1">
			<data auto_broadcast="numpy" levels="256"/>
			<input>
				<port id="0">
					<dim>1</dim>
					<dim>32</dim>
					<dim>384</dim>
				</port>
				<port id="1"/>
				<port id="2"/>
				<port id="3"/>
				<port id="4"/>
			</input>
			<output>
				<port id="5" precision="FP32">
					<dim>1</dim>
					<dim>32</dim>
					<dim>384</dim>
				</port>
			</output>
		</layer>
		<layer id="298" name="Slice_95/Concat25467631301" type="Const" version="opset1">
			<data element_type="i64" offset="1272" shape="3" size="24"/>
			<output>
				<port id="0" precision="I64">
					<dim>3</dim>
				</port>
			</output>
		</layer>
		<layer id="299" name="Slice_95/Concat253225477607302" type="Const" version="opset1">
			<data element_type="i64" offset="36040" shape="3" size="24"/>
			<output>
				<port id="0" precision="I64">
					<dim>3</dim>
				</port>
			</output>
		</layer>
		<layer id="300" name="Slice_95/Strides25487571303" type="Const" version="opset1">
			<data element_type="i64" offset="1320" shape="3" size="24"/>
			<output>
				<port id="0" precision="I64">
					<dim>3</dim>
				</port>
			</output>
		</layer>
		<layer id="301" name="Slice_95" type="StridedSlice" version="opset1">
			<data begin_mask="1,1,0" ellipsis_mask="0,0,0" end_mask="1,1,0" new_axis_mask="0,0,0" shrink_axis_mask="0,0,0"/>
			<input>
				<port id="0">
					<dim>1</dim>
					<dim>32</dim>
					<dim>384</dim>
				</port>
				<port id="1">
					<dim>3</dim>
				</port>
				<port id="2">
					<dim>3</dim>
				</port>
				<port id="3">
					<dim>3</dim>
				</port>
			</input>
			<output>
				<port id="4" names="onnx::Add_226" precision="FP32">
					<dim>1</dim>
					<dim>32</dim>
					<dim>320</dim>
				</port>
			</output>
		</layer>
		<layer id="302" name="Add_96" type="Add" version="opset1">
			<data auto_broadcast="numpy"/>
			<input>
				<port id="0">
					<dim>1</dim>
					<dim>32</dim>
					<dim>320</dim>
				</port>
				<port id="1">
					<dim>1</dim>
					<dim>32</dim>
					<dim>320</dim>
				</port>
			</input>
			<output>
				<port id="2" names="input.187" precision="FP32">
					<dim>1</dim>
					<dim>32</dim>
					<dim>320</dim>
				</port>
			</output>
		</layer>
		<layer id="303" name="Relu_97" type="ReLU" version="opset1">
			<input>
				<port id="0">
					<dim>1</dim>
					<dim>32</dim>
					<dim>320</dim>
				</port>
			</input>
			<output>
				<port id="1" names="input.191" precision="FP32">
					<dim>1</dim>
					<dim>32</dim>
					<dim>320</dim>
				</port>
			</output>
		</layer>
		<layer id="304" name="Add_112/fq_input_1" type="FakeQuantize" version="opset1">
			<data auto_broadcast="numpy" levels="256"/>
			<input>
				<port id="0">
					<dim>1</dim>
					<dim>32</dim>
					<dim>320</dim>
				</port>
				<port id="1"/>
				<port id="2"/>
				<port id="3"/>
				<port id="4"/>
			</input>
			<output>
				<port id="5" precision="FP32">
					<dim>1</dim>
					<dim>32</dim>
					<dim>320</dim>
				</port>
			</output>
		</layer>
		<layer id="305" name="146514694238" type="Const" version="opset1">
			<data element_type="f32" offset="160" shape="" size="4"/>
			<output>
				<port id="0" precision="FP32"/>
			</output>
		</layer>
		<layer id="306" name="146614704538" type="Const" version="opset1">
			<data element_type="f32" offset="39520" shape="" size="4"/>
			<output>
				<port id="0" precision="FP32"/>
			</output>
		</layer>
		<layer id="307" name="146714714352" type="Const" version="opset1">
			<data element_type="f32" offset="160" shape="" size="4"/>
			<output>
				<port id="0" precision="FP32"/>
			</output>
		</layer>
		<layer id="308" name="146814724502" type="Const" version="opset1">
			<data element_type="f32" offset="39520" shape="" size="4"/>
			<output>
				<port id="0" precision="FP32"/>
			</output>
		</layer>
		<layer id="309" name="155515594442" type="Const" version="opset1">
			<data element_type="f32" offset="160" shape="" size="4"/>
			<output>
				<port id="0" precision="FP32"/>
			</output>
		</layer>
		<layer id="310" name="155615604256" type="Const" version="opset1">
			<data element_type="f32" offset="39524" shape="" size="4"/>
			<output>
				<port id="0" precision="FP32"/>
			</output>
		</layer>
		<layer id="311" name="155715614574" type="Const" version="opset1">
			<data element_type="f32" offset="160" shape="" size="4"/>
			<output>
				<port id="0" precision="FP32"/>
			</output>
		</layer>
		<layer id="312" name="155815624007" type="Const" version="opset1">
			<data element_type="f32" offset="39524" shape="" size="4"/>
			<output>
				<port id="0" precision="FP32"/>
			</output>
		</layer>
		<layer id="313" name="onnx::Conv_3073072280/quantized28314049" type="Const" version="opset1">
			<data element_type="i8" offset="39528" shape="32,32,3" size="3072"/>
			<output>
				<port id="0" precision="I8">
					<dim>32</dim>
					<dim>32</dim>
					<dim>3</dim>
				</port>
			</output>
		</layer>
		<layer id="314" name="onnx::Conv_3073072280/quantized/to_f32" type="Convert" version="opset1">
			<data destination_type="f32"/>
			<input>
				<port id="0">
					<dim>32</dim>
					<dim>32</dim>
					<dim>3</dim>
				</port>
			</input>
			<output>
				<port id="1" precision="FP32">
					<dim>32</dim>
					<dim>32</dim>
					<dim>3</dim>
				</port>
			</output>
		</layer>
		<layer id="315" name="Conv_98/WithoutBiases/fq_weights_1/zero_point28444373" type="Const" version="opset1">
			<data element_type="f32" offset="42600" shape="32,1,1" size="128"/>
			<output>
				<port id="0" precision="FP32">
					<dim>32</dim>
					<dim>1</dim>
					<dim>1</dim>
				</port>
			</output>
		</layer>
		<layer id="316" name="Conv_98/WithoutBiases/fq_weights_1/minus_zp" type="Subtract" version="opset1">
			<data auto_broadcast="numpy"/>
			<input>
				<port id="0">
					<dim>32</dim>
					<dim>32</dim>
					<dim>3</dim>
				</port>
				<port id="1">
					<dim>32</dim>
					<dim>1</dim>
					<dim>1</dim>
				</port>
			</input>
			<output>
				<port id="2" precision="FP32">
					<dim>32</dim>
					<dim>32</dim>
					<dim>3</dim>
				</port>
			</output>
		</layer>
		<layer id="317" name="Conv_98/WithoutBiases/fq_weights_1/scale28394040" type="Const" version="opset1">
			<data element_type="f32" offset="42728" shape="32,1,1" size="128"/>
			<output>
				<port id="0" precision="FP32">
					<dim>32</dim>
					<dim>1</dim>
					<dim>1</dim>
				</port>
			</output>
		</layer>
		<layer id="318" name="Conv_98/WithoutBiases/fq_weights_1/mulpiply_by_scale" type="Multiply" version="opset1">
			<data auto_broadcast="numpy"/>
			<input>
				<port id="0">
					<dim>32</dim>
					<dim>32</dim>
					<dim>3</dim>
				</port>
				<port id="1">
					<dim>32</dim>
					<dim>1</dim>
					<dim>1</dim>
				</port>
			</input>
			<output>
				<port id="2" precision="FP32">
					<dim>32</dim>
					<dim>32</dim>
					<dim>3</dim>
				</port>
			</output>
		</layer>
		<layer id="319" name="Conv_98/WithoutBiases" type="Convolution" version="opset1">
			<data auto_pad="explicit" dilations="64" pads_begin="128" pads_end="128" strides="1"/>
			<input>
				<port id="0">
					<dim>1</dim>
					<dim>32</dim>
					<dim>320</dim>
				</port>
				<port id="1">
					<dim>32</dim>
					<dim>32</dim>
					<dim>3</dim>
				</port>
			</input>
			<output>
				<port id="2" precision="FP32">
					<dim>1</dim>
					<dim>32</dim>
					<dim>448</dim>
				</port>
			</output>
		</layer>
		<layer id="320" name="Conv_98/Dims18273094310" type="Const" version="opset1">
			<data element_type="f32" offset="42856" shape="1,32,1" size="128"/>
			<output>
				<port id="0" precision="FP32">
					<dim>1</dim>
					<dim>32</dim>
					<dim>1</dim>
				</port>
			</output>
		</layer>
		<layer id="321" name="Conv_98" type="Add" version="opset1">
			<data auto_broadcast="numpy"/>
			<input>
				<port id="0">
					<dim>1</dim>
					<dim>32</dim>
					<dim>448</dim>
				</port>
				<port id="1">
					<dim>1</dim>
					<dim>32</dim>
					<dim>1</dim>
				</port>
			</input>
			<output>
				<port id="2" names="input.199" precision="FP32">
					<dim>1</dim>
					<dim>32</dim>
					<dim>448</dim>
				</port>
			</output>
		</layer>
		<layer id="322" name="Relu_99" type="ReLU" version="opset1">
			<input>
				<port id="0">
					<dim>1</dim>
					<dim>32</dim>
					<dim>448</dim>
				</port>
			</input>
			<output>
				<port id="1" names="input.203" precision="FP32">
					<dim>1</dim>
					<dim>32</dim>
					<dim>448</dim>
				</port>
			</output>
		</layer>
		<layer id="323" name="Slice_104/fq_input_0" type="FakeQuantize" version="opset1">
			<data auto_broadcast="numpy" levels="256"/>
			<input>
				<port id="0">
					<dim>1</dim>
					<dim>32</dim>
					<dim>448</dim>
				</port>
				<port id="1"/>
				<port id="2"/>
				<port id="3"/>
				<port id="4"/>
			</input>
			<output>
				<port id="5" precision="FP32">
					<dim>1</dim>
					<dim>32</dim>
					<dim>448</dim>
				</port>
			</output>
		</layer>
		<layer id="324" name="Slice_104/Concat25907580312" type="Const" version="opset1">
			<data element_type="i64" offset="1272" shape="3" size="24"/>
			<output>
				<port id="0" precision="I64">
					<dim>3</dim>
				</port>
			</output>
		</layer>
		<layer id="325" name="Slice_104/Concat257625917592313" type="Const" version="opset1">
			<data element_type="i64" offset="42984" shape="3" size="24"/>
			<output>
				<port id="0" precision="I64">
					<dim>3</dim>
				</port>
			</output>
		</layer>
		<layer id="326" name="Slice_104/Strides25927646314" type="Const" version="opset1">
			<data element_type="i64" offset="1320" shape="3" size="24"/>
			<output>
				<port id="0" precision="I64">
					<dim>3</dim>
				</port>
			</output>
		</layer>
		<layer id="327" name="Slice_104" type="StridedSlice" version="opset1">
			<data begin_mask="1,1,0" ellipsis_mask="0,0,0" end_mask="1,1,0" new_axis_mask="0,0,0" shrink_axis_mask="0,0,0"/>
			<input>
				<port id="0">
					<dim>1</dim>
					<dim>32</dim>
					<dim>448</dim>
				</port>
				<port id="1">
					<dim>3</dim>
				</port>
				<port id="2">
					<dim>3</dim>
				</port>
				<port id="3">
					<dim>3</dim>
				</port>
			</input>
			<output>
				<port id="4" names="onnx::Conv_236" precision="FP32">
					<dim>1</dim>
					<dim>32</dim>
					<dim>320</dim>
				</port>
			</output>
		</layer>
		<layer id="328" name="onnx::Conv_3103162285/quantized28074118" type="Const" version="opset1">
			<data element_type="i8" offset="43008" shape="32,32,3" size="3072"/>
			<output>
				<port id="0" precision="I8">
					<dim>32</dim>
					<dim>32</dim>
					<dim>3</dim>
				</port>
			</output>
		</layer>
		<layer id="329" name="onnx::Conv_3103162285/quantized/to_f32" type="Convert" version="opset1">
			<data destination_type="f32"/>
			<input>
				<port id="0">
					<dim>32</dim>
					<dim>32</dim>
					<dim>3</dim>
				</port>
			</input>
			<output>
				<port id="1" precision="FP32">
					<dim>32</dim>
					<dim>32</dim>
					<dim>3</dim>
				</port>
			</output>
		</layer>
		<layer id="330" name="Conv_105/WithoutBiases/fq_weights_1/zero_point28204151" type="Const" version="opset1">
			<data element_type="f32" offset="46080" shape="32,1,1" size="128"/>
			<output>
				<port id="0" precision="FP32">
					<dim>32</dim>
					<dim>1</dim>
					<dim>1</dim>
				</port>
			</output>
		</layer>
		<layer id="331" name="Conv_105/WithoutBiases/fq_weights_1/minus_zp" type="Subtract" version="opset1">
			<data auto_broadcast="numpy"/>
			<input>
				<port id="0">
					<dim>32</dim>
					<dim>32</dim>
					<dim>3</dim>
				</port>
				<port id="1">
					<dim>32</dim>
					<dim>1</dim>
					<dim>1</dim>
				</port>
			</input>
			<output>
				<port id="2" precision="FP32">
					<dim>32</dim>
					<dim>32</dim>
					<dim>3</dim>
				</port>
			</output>
		</layer>
		<layer id="332" name="Conv_105/WithoutBiases/fq_weights_1/scale28154028" type="Const" version="opset1">
			<data element_type="f32" offset="46208" shape="32,1,1" size="128"/>
			<output>
				<port id="0" precision="FP32">
					<dim>32</dim>
					<dim>1</dim>
					<dim>1</dim>
				</port>
			</output>
		</layer>
		<layer id="333" name="Conv_105/WithoutBiases/fq_weights_1/mulpiply_by_scale" type="Multiply" version="opset1">
			<data auto_broadcast="numpy"/>
			<input>
				<port id="0">
					<dim>32</dim>
					<dim>32</dim>
					<dim>3</dim>
				</port>
				<port id="1">
					<dim>32</dim>
					<dim>1</dim>
					<dim>1</dim>
				</port>
			</input>
			<output>
				<port id="2" precision="FP32">
					<dim>32</dim>
					<dim>32</dim>
					<dim>3</dim>
				</port>
			</output>
		</layer>
		<layer id="334" name="Conv_105/WithoutBiases" type="Convolution" version="opset1">
			<data auto_pad="explicit" dilations="64" pads_begin="128" pads_end="128" strides="1"/>
			<input>
				<port id="0">
					<dim>1</dim>
					<dim>32</dim>
					<dim>320</dim>
				</port>
				<port id="1">
					<dim>32</dim>
					<dim>32</dim>
					<dim>3</dim>
				</port>
			</input>
			<output>
				<port id="2" precision="FP32">
					<dim>1</dim>
					<dim>32</dim>
					<dim>448</dim>
				</port>
			</output>
		</layer>
		<layer id="335" name="Conv_105/Dims19173184355" type="Const" version="opset1">
			<data element_type="f32" offset="46336" shape="1,32,1" size="128"/>
			<output>
				<port id="0" precision="FP32">
					<dim>1</dim>
					<dim>32</dim>
					<dim>1</dim>
				</port>
			</output>
		</layer>
		<layer id="336" name="Conv_105" type="Add" version="opset1">
			<data auto_broadcast="numpy"/>
			<input>
				<port id="0">
					<dim>1</dim>
					<dim>32</dim>
					<dim>448</dim>
				</port>
				<port id="1">
					<dim>1</dim>
					<dim>32</dim>
					<dim>1</dim>
				</port>
			</input>
			<output>
				<port id="2" names="input.211" precision="FP32">
					<dim>1</dim>
					<dim>32</dim>
					<dim>448</dim>
				</port>
			</output>
		</layer>
		<layer id="337" name="Relu_106" type="ReLU" version="opset1">
			<input>
				<port id="0">
					<dim>1</dim>
					<dim>32</dim>
					<dim>448</dim>
				</port>
			</input>
			<output>
				<port id="1" names="input.215" precision="FP32">
					<dim>1</dim>
					<dim>32</dim>
					<dim>448</dim>
				</port>
			</output>
		</layer>
		<layer id="338" name="Slice_111/fq_input_0" type="FakeQuantize" version="opset1">
			<data auto_broadcast="numpy" levels="256"/>
			<input>
				<port id="0">
					<dim>1</dim>
					<dim>32</dim>
					<dim>448</dim>
				</port>
				<port id="1"/>
				<port id="2"/>
				<port id="3"/>
				<port id="4"/>
			</input>
			<output>
				<port id="5" precision="FP32">
					<dim>1</dim>
					<dim>32</dim>
					<dim>448</dim>
				</port>
			</output>
		</layer>
		<layer id="339" name="Slice_111/Concat26347604321" type="Const" version="opset1">
			<data element_type="i64" offset="1272" shape="3" size="24"/>
			<output>
				<port id="0" precision="I64">
					<dim>3</dim>
				</port>
			</output>
		</layer>
		<layer id="340" name="Slice_111/Concat262026357523322" type="Const" version="opset1">
			<data element_type="i64" offset="42984" shape="3" size="24"/>
			<output>
				<port id="0" precision="I64">
					<dim>3</dim>
				</port>
			</output>
		</layer>
		<layer id="341" name="Slice_111/Strides26367574323" type="Const" version="opset1">
			<data element_type="i64" offset="1320" shape="3" size="24"/>
			<output>
				<port id="0" precision="I64">
					<dim>3</dim>
				</port>
			</output>
		</layer>
		<layer id="342" name="Slice_111" type="StridedSlice" version="opset1">
			<data begin_mask="1,1,0" ellipsis_mask="0,0,0" end_mask="1,1,0" new_axis_mask="0,0,0" shrink_axis_mask="0,0,0"/>
			<input>
				<port id="0">
					<dim>1</dim>
					<dim>32</dim>
					<dim>448</dim>
				</port>
				<port id="1">
					<dim>3</dim>
				</port>
				<port id="2">
					<dim>3</dim>
				</port>
				<port id="3">
					<dim>3</dim>
				</port>
			</input>
			<output>
				<port id="4" names="onnx::Add_244" precision="FP32">
					<dim>1</dim>
					<dim>32</dim>
					<dim>320</dim>
				</port>
			</output>
		</layer>
		<layer id="343" name="Add_112" type="Add" version="opset1">
			<data auto_broadcast="numpy"/>
			<input>
				<port id="0">
					<dim>1</dim>
					<dim>32</dim>
					<dim>320</dim>
				</port>
				<port id="1">
					<dim>1</dim>
					<dim>32</dim>
					<dim>320</dim>
				</port>
			</input>
			<output>
				<port id="2" names="input.219" precision="FP32">
					<dim>1</dim>
					<dim>32</dim>
					<dim>320</dim>
				</port>
			</output>
		</layer>
		<layer id="344" name="Relu_113" type="ReLU" version="opset1">
			<input>
				<port id="0">
					<dim>1</dim>
					<dim>32</dim>
					<dim>320</dim>
				</port>
			</input>
			<output>
				<port id="1" names="input.223" precision="FP32">
					<dim>1</dim>
					<dim>32</dim>
					<dim>320</dim>
				</port>
			</output>
		</layer>
		<layer id="345" name="Conv_114/WithoutBiases/fq_input_0" type="FakeQuantize" version="opset1">
			<data auto_broadcast="numpy" levels="256"/>
			<input>
				<port id="0">
					<dim>1</dim>
					<dim>32</dim>
					<dim>320</dim>
				</port>
				<port id="1"/>
				<port id="2"/>
				<port id="3"/>
				<port id="4"/>
			</input>
			<output>
				<port id="5" precision="FP32">
					<dim>1</dim>
					<dim>32</dim>
					<dim>320</dim>
				</port>
			</output>
		</layer>
		<layer id="346" name="tcn.7.downsample.weight3452300/quantized26394559" type="Const" version="opset1">
			<data element_type="i8" offset="46464" shape="2,32,1" size="64"/>
			<output>
				<port id="0" precision="I8">
					<dim>2</dim>
					<dim>32</dim>
					<dim>1</dim>
				</port>
			</output>
		</layer>
		<layer id="347" name="tcn.7.downsample.weight3452300/quantized/to_f32" type="Convert" version="opset1">
			<data destination_type="f32"/>
			<input>
				<port id="0">
					<dim>2</dim>
					<dim>32</dim>
					<dim>1</dim>
				</port>
			</input>
			<output>
				<port id="1" precision="FP32">
					<dim>2</dim>
					<dim>32</dim>
					<dim>1</dim>
				</port>
			</output>
		</layer>
		<layer id="348" name="Conv_128/WithoutBiases/fq_weights_1/zero_point26524265" type="Const" version="opset1">
			<data element_type="f32" offset="46528" shape="2,1,1" size="8"/>
			<output>
				<port id="0" precision="FP32">
					<dim>2</dim>
					<dim>1</dim>
					<dim>1</dim>
				</port>
			</output>
		</layer>
		<layer id="349" name="Conv_128/WithoutBiases/fq_weights_1/minus_zp" type="Subtract" version="opset1">
			<data auto_broadcast="numpy"/>
			<input>
				<port id="0">
					<dim>2</dim>
					<dim>32</dim>
					<dim>1</dim>
				</port>
				<port id="1">
					<dim>2</dim>
					<dim>1</dim>
					<dim>1</dim>
				</port>
			</input>
			<output>
				<port id="2" precision="FP32">
					<dim>2</dim>
					<dim>32</dim>
					<dim>1</dim>
				</port>
			</output>
		</layer>
		<layer id="350" name="Conv_128/WithoutBiases/fq_weights_1/scale26474508" type="Const" version="opset1">
			<data element_type="f32" offset="46536" shape="2,1,1" size="8"/>
			<output>
				<port id="0" precision="FP32">
					<dim>2</dim>
					<dim>1</dim>
					<dim>1</dim>
				</port>
			</output>
		</layer>
		<layer id="351" name="Conv_128/WithoutBiases/fq_weights_1/mulpiply_by_scale" type="Multiply" version="opset1">
			<data auto_broadcast="numpy"/>
			<input>
				<port id="0">
					<dim>2</dim>
					<dim>32</dim>
					<dim>1</dim>
				</port>
				<port id="1">
					<dim>2</dim>
					<dim>1</dim>
					<dim>1</dim>
				</port>
			</input>
			<output>
				<port id="2" precision="FP32">
					<dim>2</dim>
					<dim>32</dim>
					<dim>1</dim>
				</port>
			</output>
		</layer>
		<layer id="352" name="Conv_128/WithoutBiases" type="Convolution" version="opset1">
			<data auto_pad="explicit" dilations="1" pads_begin="0" pads_end="0" strides="1"/>
			<input>
				<port id="0">
					<dim>1</dim>
					<dim>32</dim>
					<dim>320</dim>
				</port>
				<port id="1">
					<dim>2</dim>
					<dim>32</dim>
					<dim>1</dim>
				</port>
			</input>
			<output>
				<port id="2" precision="FP32">
					<dim>1</dim>
					<dim>2</dim>
					<dim>320</dim>
				</port>
			</output>
		</layer>
		<layer id="353" name="Conv_128/Dims18573474592" type="Const" version="opset1">
			<data element_type="f32" offset="46544" shape="1,2,1" size="8"/>
			<output>
				<port id="0" precision="FP32">
					<dim>1</dim>
					<dim>2</dim>
					<dim>1</dim>
				</port>
			</output>
		</layer>
		<layer id="354" name="Conv_128" type="Add" version="opset1">
			<data auto_broadcast="numpy"/>
			<input>
				<port id="0">
					<dim>1</dim>
					<dim>2</dim>
					<dim>320</dim>
				</port>
				<port id="1">
					<dim>1</dim>
					<dim>2</dim>
					<dim>1</dim>
				</port>
			</input>
			<output>
				<port id="2" names="onnx::Add_263" precision="FP32">
					<dim>1</dim>
					<dim>2</dim>
					<dim>320</dim>
				</port>
			</output>
		</layer>
		<layer id="355" name="Add_129/fq_input_1" type="FakeQuantize" version="opset1">
			<data auto_broadcast="numpy" levels="256"/>
			<input>
				<port id="0">
					<dim>1</dim>
					<dim>2</dim>
					<dim>320</dim>
				</port>
				<port id="1"/>
				<port id="2"/>
				<port id="3"/>
				<port id="4"/>
			</input>
			<output>
				<port id="5" precision="FP32">
					<dim>1</dim>
					<dim>2</dim>
					<dim>320</dim>
				</port>
			</output>
		</layer>
		<layer id="356" name="147514793995" type="Const" version="opset1">
			<data element_type="f32" offset="160" shape="" size="4"/>
			<output>
				<port id="0" precision="FP32"/>
			</output>
		</layer>
		<layer id="357" name="147614804061" type="Const" version="opset1">
			<data element_type="f32" offset="46552" shape="" size="4"/>
			<output>
				<port id="0" precision="FP32"/>
			</output>
		</layer>
		<layer id="358" name="147714814112" type="Const" version="opset1">
			<data element_type="f32" offset="160" shape="" size="4"/>
			<output>
				<port id="0" precision="FP32"/>
			</output>
		</layer>
		<layer id="359" name="147814824664" type="Const" version="opset1">
			<data element_type="f32" offset="46552" shape="" size="4"/>
			<output>
				<port id="0" precision="FP32"/>
			</output>
		</layer>
		<layer id="360" name="156515694667" type="Const" version="opset1">
			<data element_type="f32" offset="160" shape="" size="4"/>
			<output>
				<port id="0" precision="FP32"/>
			</output>
		</layer>
		<layer id="361" name="156615704187" type="Const" version="opset1">
			<data element_type="f32" offset="46556" shape="" size="4"/>
			<output>
				<port id="0" precision="FP32"/>
			</output>
		</layer>
		<layer id="362" name="156715714382" type="Const" version="opset1">
			<data element_type="f32" offset="160" shape="" size="4"/>
			<output>
				<port id="0" precision="FP32"/>
			</output>
		</layer>
		<layer id="363" name="156815724478" type="Const" version="opset1">
			<data element_type="f32" offset="46556" shape="" size="4"/>
			<output>
				<port id="0" precision="FP32"/>
			</output>
		</layer>
		<layer id="364" name="onnx::Conv_3133272290/quantized26154541" type="Const" version="opset1">
			<data element_type="i8" offset="46560" shape="2,32,3" size="192"/>
			<output>
				<port id="0" precision="I8">
					<dim>2</dim>
					<dim>32</dim>
					<dim>3</dim>
				</port>
			</output>
		</layer>
		<layer id="365" name="onnx::Conv_3133272290/quantized/to_f32" type="Convert" version="opset1">
			<data destination_type="f32"/>
			<input>
				<port id="0">
					<dim>2</dim>
					<dim>32</dim>
					<dim>3</dim>
				</port>
			</input>
			<output>
				<port id="1" precision="FP32">
					<dim>2</dim>
					<dim>32</dim>
					<dim>3</dim>
				</port>
			</output>
		</layer>
		<layer id="366" name="Conv_114/WithoutBiases/fq_weights_1/zero_point26284562" type="Const" version="opset1">
			<data element_type="f32" offset="46752" shape="2,1,1" size="8"/>
			<output>
				<port id="0" precision="FP32">
					<dim>2</dim>
					<dim>1</dim>
					<dim>1</dim>
				</port>
			</output>
		</layer>
		<layer id="367" name="Conv_114/WithoutBiases/fq_weights_1/minus_zp" type="Subtract" version="opset1">
			<data auto_broadcast="numpy"/>
			<input>
				<port id="0">
					<dim>2</dim>
					<dim>32</dim>
					<dim>3</dim>
				</port>
				<port id="1">
					<dim>2</dim>
					<dim>1</dim>
					<dim>1</dim>
				</port>
			</input>
			<output>
				<port id="2" precision="FP32">
					<dim>2</dim>
					<dim>32</dim>
					<dim>3</dim>
				</port>
			</output>
		</layer>
		<layer id="368" name="Conv_114/WithoutBiases/fq_weights_1/scale26234223" type="Const" version="opset1">
			<data element_type="f32" offset="46760" shape="2,1,1" size="8"/>
			<output>
				<port id="0" precision="FP32">
					<dim>2</dim>
					<dim>1</dim>
					<dim>1</dim>
				</port>
			</output>
		</layer>
		<layer id="369" name="Conv_114/WithoutBiases/fq_weights_1/mulpiply_by_scale" type="Multiply" version="opset1">
			<data auto_broadcast="numpy"/>
			<input>
				<port id="0">
					<dim>2</dim>
					<dim>32</dim>
					<dim>3</dim>
				</port>
				<port id="1">
					<dim>2</dim>
					<dim>1</dim>
					<dim>1</dim>
				</port>
			</input>
			<output>
				<port id="2" precision="FP32">
					<dim>2</dim>
					<dim>32</dim>
					<dim>3</dim>
				</port>
			</output>
		</layer>
		<layer id="370" name="Conv_114/WithoutBiases" type="Convolution" version="opset1">
			<data auto_pad="explicit" dilations="128" pads_begin="256" pads_end="256" strides="1"/>
			<input>
				<port id="0">
					<dim>1</dim>
					<dim>32</dim>
					<dim>320</dim>
				</port>
				<port id="1">
					<dim>2</dim>
					<dim>32</dim>
					<dim>3</dim>
				</port>
			</input>
			<output>
				<port id="2" precision="FP32">
					<dim>1</dim>
					<dim>2</dim>
					<dim>576</dim>
				</port>
			</output>
		</layer>
		<layer id="371" name="Conv_114/Dims18333294520" type="Const" version="opset1">
			<data element_type="f32" offset="46768" shape="1,2,1" size="8"/>
			<output>
				<port id="0" precision="FP32">
					<dim>1</dim>
					<dim>2</dim>
					<dim>1</dim>
				</port>
			</output>
		</layer>
		<layer id="372" name="Conv_114" type="Add" version="opset1">
			<data auto_broadcast="numpy"/>
			<input>
				<port id="0">
					<dim>1</dim>
					<dim>2</dim>
					<dim>576</dim>
				</port>
				<port id="1">
					<dim>1</dim>
					<dim>2</dim>
					<dim>1</dim>
				</port>
			</input>
			<output>
				<port id="2" names="input.231" precision="FP32">
					<dim>1</dim>
					<dim>2</dim>
					<dim>576</dim>
				</port>
			</output>
		</layer>
		<layer id="373" name="Relu_115" type="ReLU" version="opset1">
			<input>
				<port id="0">
					<dim>1</dim>
					<dim>2</dim>
					<dim>576</dim>
				</port>
			</input>
			<output>
				<port id="1" names="input.235" precision="FP32">
					<dim>1</dim>
					<dim>2</dim>
					<dim>576</dim>
				</port>
			</output>
		</layer>
		<layer id="374" name="Slice_120/fq_input_0" type="FakeQuantize" version="opset1">
			<data auto_broadcast="numpy" levels="256"/>
			<input>
				<port id="0">
					<dim>1</dim>
					<dim>2</dim>
					<dim>576</dim>
				</port>
				<port id="1"/>
				<port id="2"/>
				<port id="3"/>
				<port id="4"/>
			</input>
			<output>
				<port id="5" precision="FP32">
					<dim>1</dim>
					<dim>2</dim>
					<dim>576</dim>
				</port>
			</output>
		</layer>
		<layer id="375" name="Slice_120/Concat26787415332" type="Const" version="opset1">
			<data element_type="i64" offset="1272" shape="3" size="24"/>
			<output>
				<port id="0" precision="I64">
					<dim>3</dim>
				</port>
			</output>
		</layer>
		<layer id="376" name="Slice_120/Concat266426797625333" type="Const" version="opset1">
			<data element_type="i64" offset="46776" shape="3" size="24"/>
			<output>
				<port id="0" precision="I64">
					<dim>3</dim>
				</port>
			</output>
		</layer>
		<layer id="377" name="Slice_120/Strides26807598334" type="Const" version="opset1">
			<data element_type="i64" offset="1320" shape="3" size="24"/>
			<output>
				<port id="0" precision="I64">
					<dim>3</dim>
				</port>
			</output>
		</layer>
		<layer id="378" name="Slice_120" type="StridedSlice" version="opset1">
			<data begin_mask="1,1,0" ellipsis_mask="0,0,0" end_mask="1,1,0" new_axis_mask="0,0,0" shrink_axis_mask="0,0,0"/>
			<input>
				<port id="0">
					<dim>1</dim>
					<dim>2</dim>
					<dim>576</dim>
				</port>
				<port id="1">
					<dim>3</dim>
				</port>
				<port id="2">
					<dim>3</dim>
				</port>
				<port id="3">
					<dim>3</dim>
				</port>
			</input>
			<output>
				<port id="4" names="onnx::Conv_254" precision="FP32">
					<dim>1</dim>
					<dim>2</dim>
					<dim>320</dim>
				</port>
			</output>
		</layer>
		<layer id="379" name="onnx::Conv_3163362295/quantized25194301" type="Const" version="opset1">
			<data element_type="i8" offset="46800" shape="2,2,3" size="12"/>
			<output>
				<port id="0" precision="I8">
					<dim>2</dim>
					<dim>2</dim>
					<dim>3</dim>
				</port>
			</output>
		</layer>
		<layer id="380" name="onnx::Conv_3163362295/quantized/to_f32" type="Convert" version="opset1">
			<data destination_type="f32"/>
			<input>
				<port id="0">
					<dim>2</dim>
					<dim>2</dim>
					<dim>3</dim>
				</port>
			</input>
			<output>
				<port id="1" precision="FP32">
					<dim>2</dim>
					<dim>2</dim>
					<dim>3</dim>
				</port>
			</output>
		</layer>
		<layer id="381" name="Conv_121/WithoutBiases/fq_weights_1/zero_point25323986" type="Const" version="opset1">
			<data element_type="f32" offset="46752" shape="2,1,1" size="8"/>
			<output>
				<port id="0" precision="FP32">
					<dim>2</dim>
					<dim>1</dim>
					<dim>1</dim>
				</port>
			</output>
		</layer>
		<layer id="382" name="Conv_121/WithoutBiases/fq_weights_1/minus_zp" type="Subtract" version="opset1">
			<data auto_broadcast="numpy"/>
			<input>
				<port id="0">
					<dim>2</dim>
					<dim>2</dim>
					<dim>3</dim>
				</port>
				<port id="1">
					<dim>2</dim>
					<dim>1</dim>
					<dim>1</dim>
				</port>
			</input>
			<output>
				<port id="2" precision="FP32">
					<dim>2</dim>
					<dim>2</dim>
					<dim>3</dim>
				</port>
			</output>
		</layer>
		<layer id="383" name="Conv_121/WithoutBiases/fq_weights_1/scale25274274" type="Const" version="opset1">
			<data element_type="f32" offset="46812" shape="2,1,1" size="8"/>
			<output>
				<port id="0" precision="FP32">
					<dim>2</dim>
					<dim>1</dim>
					<dim>1</dim>
				</port>
			</output>
		</layer>
		<layer id="384" name="Conv_121/WithoutBiases/fq_weights_1/mulpiply_by_scale" type="Multiply" version="opset1">
			<data auto_broadcast="numpy"/>
			<input>
				<port id="0">
					<dim>2</dim>
					<dim>2</dim>
					<dim>3</dim>
				</port>
				<port id="1">
					<dim>2</dim>
					<dim>1</dim>
					<dim>1</dim>
				</port>
			</input>
			<output>
				<port id="2" precision="FP32">
					<dim>2</dim>
					<dim>2</dim>
					<dim>3</dim>
				</port>
			</output>
		</layer>
		<layer id="385" name="Conv_121/WithoutBiases" type="Convolution" version="opset1">
			<data auto_pad="explicit" dilations="128" pads_begin="256" pads_end="256" strides="1"/>
			<input>
				<port id="0">
					<dim>1</dim>
					<dim>2</dim>
					<dim>320</dim>
				</port>
				<port id="1">
					<dim>2</dim>
					<dim>2</dim>
					<dim>3</dim>
				</port>
			</input>
			<output>
				<port id="2" precision="FP32">
					<dim>1</dim>
					<dim>2</dim>
					<dim>576</dim>
				</port>
			</output>
		</layer>
		<layer id="386" name="Conv_121/Dims18453384376" type="Const" version="opset1">
			<data element_type="f32" offset="46820" shape="1,2,1" size="8"/>
			<output>
				<port id="0" precision="FP32">
					<dim>1</dim>
					<dim>2</dim>
					<dim>1</dim>
				</port>
			</output>
		</layer>
		<layer id="387" name="Conv_121" type="Add" version="opset1">
			<data auto_broadcast="numpy"/>
			<input>
				<port id="0">
					<dim>1</dim>
					<dim>2</dim>
					<dim>576</dim>
				</port>
				<port id="1">
					<dim>1</dim>
					<dim>2</dim>
					<dim>1</dim>
				</port>
			</input>
			<output>
				<port id="2" names="input.243" precision="FP32">
					<dim>1</dim>
					<dim>2</dim>
					<dim>576</dim>
				</port>
			</output>
		</layer>
		<layer id="388" name="Relu_122" type="ReLU" version="opset1">
			<input>
				<port id="0">
					<dim>1</dim>
					<dim>2</dim>
					<dim>576</dim>
				</port>
			</input>
			<output>
				<port id="1" names="input.247" precision="FP32">
					<dim>1</dim>
					<dim>2</dim>
					<dim>576</dim>
				</port>
			</output>
		</layer>
		<layer id="389" name="Slice_127/fq_input_0" type="FakeQuantize" version="opset1">
			<data auto_broadcast="numpy" levels="256"/>
			<input>
				<port id="0">
					<dim>1</dim>
					<dim>2</dim>
					<dim>576</dim>
				</port>
				<port id="1"/>
				<port id="2"/>
				<port id="3"/>
				<port id="4"/>
			</input>
			<output>
				<port id="5" precision="FP32">
					<dim>1</dim>
					<dim>2</dim>
					<dim>576</dim>
				</port>
			</output>
		</layer>
		<layer id="390" name="Slice_127/Concat27227508341" type="Const" version="opset1">
			<data element_type="i64" offset="1272" shape="3" size="24"/>
			<output>
				<port id="0" precision="I64">
					<dim>3</dim>
				</port>
			</output>
		</layer>
		<layer id="391" name="Slice_127/Concat270827237454342" type="Const" version="opset1">
			<data element_type="i64" offset="46776" shape="3" size="24"/>
			<output>
				<port id="0" precision="I64">
					<dim>3</dim>
				</port>
			</output>
		</layer>
		<layer id="392" name="Slice_127/Strides27247397343" type="Const" version="opset1">
			<data element_type="i64" offset="1320" shape="3" size="24"/>
			<output>
				<port id="0" precision="I64">
					<dim>3</dim>
				</port>
			</output>
		</layer>
		<layer id="393" name="Slice_127" type="StridedSlice" version="opset1">
			<data begin_mask="1,1,0" ellipsis_mask="0,0,0" end_mask="1,1,0" new_axis_mask="0,0,0" shrink_axis_mask="0,0,0"/>
			<input>
				<port id="0">
					<dim>1</dim>
					<dim>2</dim>
					<dim>576</dim>
				</port>
				<port id="1">
					<dim>3</dim>
				</port>
				<port id="2">
					<dim>3</dim>
				</port>
				<port id="3">
					<dim>3</dim>
				</port>
			</input>
			<output>
				<port id="4" names="onnx::Add_262" precision="FP32">
					<dim>1</dim>
					<dim>2</dim>
					<dim>320</dim>
				</port>
			</output>
		</layer>
		<layer id="394" name="Add_129" type="Add" version="opset1">
			<data auto_broadcast="numpy"/>
			<input>
				<port id="0">
					<dim>1</dim>
					<dim>2</dim>
					<dim>320</dim>
				</port>
				<port id="1">
					<dim>1</dim>
					<dim>2</dim>
					<dim>320</dim>
				</port>
			</input>
			<output>
				<port id="2" names="input.251" precision="FP32">
					<dim>1</dim>
					<dim>2</dim>
					<dim>320</dim>
				</port>
			</output>
		</layer>
		<layer id="395" name="Relu_130" type="ReLU" version="opset1">
			<input>
				<port id="0">
					<dim>1</dim>
					<dim>2</dim>
					<dim>320</dim>
				</port>
			</input>
			<output>
				<port id="1" names="onnx::MatMul_265" precision="FP32">
					<dim>1</dim>
					<dim>2</dim>
					<dim>320</dim>
				</port>
			</output>
		</layer>
		<layer id="396" name="MatMul_131/fq_input_0" type="FakeQuantize" version="opset1">
			<data auto_broadcast="numpy" levels="256"/>
			<input>
				<port id="0">
					<dim>1</dim>
					<dim>2</dim>
					<dim>320</dim>
				</port>
				<port id="1"/>
				<port id="2"/>
				<port id="3"/>
				<port id="4"/>
			</input>
			<output>
				<port id="5" precision="FP32">
					<dim>1</dim>
					<dim>2</dim>
					<dim>320</dim>
				</port>
			</output>
		</layer>
		<layer id="397" name="onnx::MatMul_3183512302/quantized27114268" type="Const" version="opset1">
			<data element_type="i8" offset="46828" shape="40,320" size="12800"/>
			<output>
				<port id="0" precision="I8">
					<dim>40</dim>
					<dim>320</dim>
				</port>
			</output>
		</layer>
		<layer id="398" name="onnx::MatMul_3183512302/quantized/to_f32" type="Convert" version="opset1">
			<data destination_type="f32"/>
			<input>
				<port id="0">
					<dim>40</dim>
					<dim>320</dim>
				</port>
			</input>
			<output>
				<port id="1" precision="FP32">
					<dim>40</dim>
					<dim>320</dim>
				</port>
			</output>
		</layer>
		<layer id="399" name="MatMul_131/fq_weights_1/zero_point27244484" type="Const" version="opset1">
			<data element_type="f32" offset="59628" shape="40,1" size="160"/>
			<output>
				<port id="0" precision="FP32">
					<dim>40</dim>
					<dim>1</dim>
				</port>
			</output>
		</layer>
		<layer id="400" name="MatMul_131/fq_weights_1/minus_zp" type="Subtract" version="opset1">
			<data auto_broadcast="numpy"/>
			<input>
				<port id="0">
					<dim>40</dim>
					<dim>320</dim>
				</port>
				<port id="1">
					<dim>40</dim>
					<dim>1</dim>
				</port>
			</input>
			<output>
				<port id="2" precision="FP32">
					<dim>40</dim>
					<dim>320</dim>
				</port>
			</output>
		</layer>
		<layer id="401" name="MatMul_131/fq_weights_1/scale27194427" type="Const" version="opset1">
			<data element_type="f32" offset="59788" shape="40,1" size="160"/>
			<output>
				<port id="0" precision="FP32">
					<dim>40</dim>
					<dim>1</dim>
				</port>
			</output>
		</layer>
		<layer id="402" name="MatMul_131/fq_weights_1/mulpiply_by_scale" type="Multiply" version="opset1">
			<data auto_broadcast="numpy"/>
			<input>
				<port id="0">
					<dim>40</dim>
					<dim>320</dim>
				</port>
				<port id="1">
					<dim>40</dim>
					<dim>1</dim>
				</port>
			</input>
			<output>
				<port id="2" precision="FP32">
					<dim>40</dim>
					<dim>320</dim>
				</port>
			</output>
		</layer>
		<layer id="403" name="MatMul_131" type="MatMul" version="opset1">
			<data transpose_a="false" transpose_b="true"/>
			<input>
				<port id="0">
					<dim>1</dim>
					<dim>2</dim>
					<dim>320</dim>
				</port>
				<port id="1">
					<dim>40</dim>
					<dim>320</dim>
				</port>
			</input>
			<output>
				<port id="2" names="onnx::Add_267" precision="FP32">
					<dim>1</dim>
					<dim>2</dim>
					<dim>40</dim>
				</port>
			</output>
		</layer>
		<layer id="404" name="Add_132" type="Add" version="opset1">
			<data auto_broadcast="numpy"/>
			<input>
				<port id="0">
					<dim>1</dim>
					<dim>1</dim>
					<dim>40</dim>
				</port>
				<port id="1">
					<dim>1</dim>
					<dim>2</dim>
					<dim>40</dim>
				</port>
			</input>
			<output>
				<port id="2" names="onnx::Transpose_268" precision="FP32">
					<dim>1</dim>
					<dim>2</dim>
					<dim>40</dim>
				</port>
			</output>
		</layer>
		<layer id="405" name="177354" type="Const" version="opset1">
			<data element_type="i64" offset="216" shape="3" size="24"/>
			<output>
				<port id="0" precision="I64">
					<dim>3</dim>
				</port>
			</output>
		</layer>
		<layer id="406" name="output" type="Transpose" version="opset1">
			<input>
				<port id="0">
					<dim>1</dim>
					<dim>2</dim>
					<dim>40</dim>
				</port>
				<port id="1">
					<dim>3</dim>
				</port>
			</input>
			<output>
				<port id="2" names="output" precision="FP32">
					<dim>1</dim>
					<dim>40</dim>
					<dim>2</dim>
				</port>
			</output>
		</layer>
		<layer id="407" name="output/sink_port_0" type="Result" version="opset1">
			<input>
				<port id="0">
					<dim>1</dim>
					<dim>40</dim>
					<dim>2</dim>
				</port>
			</input>
		</layer>
	</layers>
	<edges>
		<edge from-layer="45" from-port="0" to-layer="46" to-port="0"/>
		<edge from-layer="41" from-port="0" to-layer="46" to-port="1"/>
		<edge from-layer="42" from-port="0" to-layer="46" to-port="2"/>
		<edge from-layer="43" from-port="0" to-layer="46" to-port="3"/>
		<edge from-layer="44" from-port="0" to-layer="46" to-port="4"/>
		<edge from-layer="46" from-port="5" to-layer="48" to-port="0"/>
		<edge from-layer="47" from-port="0" to-layer="48" to-port="1"/>
		<edge from-layer="49" from-port="0" to-layer="50" to-port="0"/>
		<edge from-layer="50" from-port="1" to-layer="52" to-port="0"/>
		<edge from-layer="51" from-port="0" to-layer="52" to-port="1"/>
		<edge from-layer="52" from-port="2" to-layer="54" to-port="0"/>
		<edge from-layer="53" from-port="0" to-layer="54" to-port="1"/>
		<edge from-layer="48" from-port="2" to-layer="55" to-port="0"/>
		<edge from-layer="54" from-port="2" to-layer="55" to-port="1"/>
		<edge from-layer="55" from-port="2" to-layer="57" to-port="0"/>
		<edge from-layer="56" from-port="0" to-layer="57" to-port="1"/>
		<edge from-layer="57" from-port="2" to-layer="58" to-port="0"/>
		<edge from-layer="37" from-port="0" to-layer="58" to-port="1"/>
		<edge from-layer="38" from-port="0" to-layer="58" to-port="2"/>
		<edge from-layer="39" from-port="0" to-layer="58" to-port="3"/>
		<edge from-layer="40" from-port="0" to-layer="58" to-port="4"/>
		<edge from-layer="67" from-port="0" to-layer="68" to-port="0"/>
		<edge from-layer="68" from-port="1" to-layer="70" to-port="0"/>
		<edge from-layer="69" from-port="0" to-layer="70" to-port="1"/>
		<edge from-layer="70" from-port="2" to-layer="72" to-port="0"/>
		<edge from-layer="71" from-port="0" to-layer="72" to-port="1"/>
		<edge from-layer="48" from-port="2" to-layer="73" to-port="0"/>
		<edge from-layer="72" from-port="2" to-layer="73" to-port="1"/>
		<edge from-layer="73" from-port="2" to-layer="75" to-port="0"/>
		<edge from-layer="74" from-port="0" to-layer="75" to-port="1"/>
		<edge from-layer="75" from-port="2" to-layer="76" to-port="0"/>
		<edge from-layer="76" from-port="1" to-layer="77" to-port="0"/>
		<edge from-layer="63" from-port="0" to-layer="77" to-port="1"/>
		<edge from-layer="64" from-port="0" to-layer="77" to-port="2"/>
		<edge from-layer="65" from-port="0" to-layer="77" to-port="3"/>
		<edge from-layer="66" from-port="0" to-layer="77" to-port="4"/>
		<edge from-layer="77" from-port="5" to-layer="81" to-port="0"/>
		<edge from-layer="78" from-port="0" to-layer="81" to-port="1"/>
		<edge from-layer="79" from-port="0" to-layer="81" to-port="2"/>
		<edge from-layer="80" from-port="0" to-layer="81" to-port="3"/>
		<edge from-layer="82" from-port="0" to-layer="83" to-port="0"/>
		<edge from-layer="83" from-port="1" to-layer="85" to-port="0"/>
		<edge from-layer="84" from-port="0" to-layer="85" to-port="1"/>
		<edge from-layer="85" from-port="2" to-layer="87" to-port="0"/>
		<edge from-layer="86" from-port="0" to-layer="87" to-port="1"/>
		<edge from-layer="81" from-port="4" to-layer="88" to-port="0"/>
		<edge from-layer="87" from-port="2" to-layer="88" to-port="1"/>
		<edge from-layer="88" from-port="2" to-layer="90" to-port="0"/>
		<edge from-layer="89" from-port="0" to-layer="90" to-port="1"/>
		<edge from-layer="90" from-port="2" to-layer="91" to-port="0"/>
		<edge from-layer="91" from-port="1" to-layer="92" to-port="0"/>
		<edge from-layer="59" from-port="0" to-layer="92" to-port="1"/>
		<edge from-layer="60" from-port="0" to-layer="92" to-port="2"/>
		<edge from-layer="61" from-port="0" to-layer="92" to-port="3"/>
		<edge from-layer="62" from-port="0" to-layer="92" to-port="4"/>
		<edge from-layer="92" from-port="5" to-layer="96" to-port="0"/>
		<edge from-layer="93" from-port="0" to-layer="96" to-port="1"/>
		<edge from-layer="94" from-port="0" to-layer="96" to-port="2"/>
		<edge from-layer="95" from-port="0" to-layer="96" to-port="3"/>
		<edge from-layer="96" from-port="4" to-layer="97" to-port="0"/>
		<edge from-layer="58" from-port="5" to-layer="97" to-port="1"/>
		<edge from-layer="97" from-port="2" to-layer="98" to-port="0"/>
		<edge from-layer="98" from-port="1" to-layer="99" to-port="0"/>
		<edge from-layer="33" from-port="0" to-layer="99" to-port="1"/>
		<edge from-layer="34" from-port="0" to-layer="99" to-port="2"/>
		<edge from-layer="35" from-port="0" to-layer="99" to-port="3"/>
		<edge from-layer="36" from-port="0" to-layer="99" to-port="4"/>
		<edge from-layer="108" from-port="0" to-layer="109" to-port="0"/>
		<edge from-layer="109" from-port="1" to-layer="111" to-port="0"/>
		<edge from-layer="110" from-port="0" to-layer="111" to-port="1"/>
		<edge from-layer="111" from-port="2" to-layer="113" to-port="0"/>
		<edge from-layer="112" from-port="0" to-layer="113" to-port="1"/>
		<edge from-layer="99" from-port="5" to-layer="114" to-port="0"/>
		<edge from-layer="113" from-port="2" to-layer="114" to-port="1"/>
		<edge from-layer="114" from-port="2" to-layer="116" to-port="0"/>
		<edge from-layer="115" from-port="0" to-layer="116" to-port="1"/>
		<edge from-layer="116" from-port="2" to-layer="117" to-port="0"/>
		<edge from-layer="117" from-port="1" to-layer="118" to-port="0"/>
		<edge from-layer="104" from-port="0" to-layer="118" to-port="1"/>
		<edge from-layer="105" from-port="0" to-layer="118" to-port="2"/>
		<edge from-layer="106" from-port="0" to-layer="118" to-port="3"/>
		<edge from-layer="107" from-port="0" to-layer="118" to-port="4"/>
		<edge from-layer="118" from-port="5" to-layer="122" to-port="0"/>
		<edge from-layer="119" from-port="0" to-layer="122" to-port="1"/>
		<edge from-layer="120" from-port="0" to-layer="122" to-port="2"/>
		<edge from-layer="121" from-port="0" to-layer="122" to-port="3"/>
		<edge from-layer="123" from-port="0" to-layer="124" to-port="0"/>
		<edge from-layer="124" from-port="1" to-layer="126" to-port="0"/>
		<edge from-layer="125" from-port="0" to-layer="126" to-port="1"/>
		<edge from-layer="126" from-port="2" to-layer="128" to-port="0"/>
		<edge from-layer="127" from-port="0" to-layer="128" to-port="1"/>
		<edge from-layer="122" from-port="4" to-layer="129" to-port="0"/>
		<edge from-layer="128" from-port="2" to-layer="129" to-port="1"/>
		<edge from-layer="129" from-port="2" to-layer="131" to-port="0"/>
		<edge from-layer="130" from-port="0" to-layer="131" to-port="1"/>
		<edge from-layer="131" from-port="2" to-layer="132" to-port="0"/>
		<edge from-layer="132" from-port="1" to-layer="133" to-port="0"/>
		<edge from-layer="100" from-port="0" to-layer="133" to-port="1"/>
		<edge from-layer="101" from-port="0" to-layer="133" to-port="2"/>
		<edge from-layer="102" from-port="0" to-layer="133" to-port="3"/>
		<edge from-layer="103" from-port="0" to-layer="133" to-port="4"/>
		<edge from-layer="133" from-port="5" to-layer="137" to-port="0"/>
		<edge from-layer="134" from-port="0" to-layer="137" to-port="1"/>
		<edge from-layer="135" from-port="0" to-layer="137" to-port="2"/>
		<edge from-layer="136" from-port="0" to-layer="137" to-port="3"/>
		<edge from-layer="137" from-port="4" to-layer="138" to-port="0"/>
		<edge from-layer="99" from-port="5" to-layer="138" to-port="1"/>
		<edge from-layer="138" from-port="2" to-layer="139" to-port="0"/>
		<edge from-layer="139" from-port="1" to-layer="140" to-port="0"/>
		<edge from-layer="29" from-port="0" to-layer="140" to-port="1"/>
		<edge from-layer="30" from-port="0" to-layer="140" to-port="2"/>
		<edge from-layer="31" from-port="0" to-layer="140" to-port="3"/>
		<edge from-layer="32" from-port="0" to-layer="140" to-port="4"/>
		<edge from-layer="149" from-port="0" to-layer="150" to-port="0"/>
		<edge from-layer="150" from-port="1" to-layer="152" to-port="0"/>
		<edge from-layer="151" from-port="0" to-layer="152" to-port="1"/>
		<edge from-layer="152" from-port="2" to-layer="154" to-port="0"/>
		<edge from-layer="153" from-port="0" to-layer="154" to-port="1"/>
		<edge from-layer="140" from-port="5" to-layer="155" to-port="0"/>
		<edge from-layer="154" from-port="2" to-layer="155" to-port="1"/>
		<edge from-layer="155" from-port="2" to-layer="157" to-port="0"/>
		<edge from-layer="156" from-port="0" to-layer="157" to-port="1"/>
		<edge from-layer="157" from-port="2" to-layer="158" to-port="0"/>
		<edge from-layer="158" from-port="1" to-layer="159" to-port="0"/>
		<edge from-layer="145" from-port="0" to-layer="159" to-port="1"/>
		<edge from-layer="146" from-port="0" to-layer="159" to-port="2"/>
		<edge from-layer="147" from-port="0" to-layer="159" to-port="3"/>
		<edge from-layer="148" from-port="0" to-layer="159" to-port="4"/>
		<edge from-layer="159" from-port="5" to-layer="163" to-port="0"/>
		<edge from-layer="160" from-port="0" to-layer="163" to-port="1"/>
		<edge from-layer="161" from-port="0" to-layer="163" to-port="2"/>
		<edge from-layer="162" from-port="0" to-layer="163" to-port="3"/>
		<edge from-layer="164" from-port="0" to-layer="165" to-port="0"/>
		<edge from-layer="165" from-port="1" to-layer="167" to-port="0"/>
		<edge from-layer="166" from-port="0" to-layer="167" to-port="1"/>
		<edge from-layer="167" from-port="2" to-layer="169" to-port="0"/>
		<edge from-layer="168" from-port="0" to-layer="169" to-port="1"/>
		<edge from-layer="163" from-port="4" to-layer="170" to-port="0"/>
		<edge from-layer="169" from-port="2" to-layer="170" to-port="1"/>
		<edge from-layer="170" from-port="2" to-layer="172" to-port="0"/>
		<edge from-layer="171" from-port="0" to-layer="172" to-port="1"/>
		<edge from-layer="172" from-port="2" to-layer="173" to-port="0"/>
		<edge from-layer="173" from-port="1" to-layer="174" to-port="0"/>
		<edge from-layer="141" from-port="0" to-layer="174" to-port="1"/>
		<edge from-layer="142" from-port="0" to-layer="174" to-port="2"/>
		<edge from-layer="143" from-port="0" to-layer="174" to-port="3"/>
		<edge from-layer="144" from-port="0" to-layer="174" to-port="4"/>
		<edge from-layer="174" from-port="5" to-layer="178" to-port="0"/>
		<edge from-layer="175" from-port="0" to-layer="178" to-port="1"/>
		<edge from-layer="176" from-port="0" to-layer="178" to-port="2"/>
		<edge from-layer="177" from-port="0" to-layer="178" to-port="3"/>
		<edge from-layer="178" from-port="4" to-layer="179" to-port="0"/>
		<edge from-layer="140" from-port="5" to-layer="179" to-port="1"/>
		<edge from-layer="179" from-port="2" to-layer="180" to-port="0"/>
		<edge from-layer="180" from-port="1" to-layer="181" to-port="0"/>
		<edge from-layer="25" from-port="0" to-layer="181" to-port="1"/>
		<edge from-layer="26" from-port="0" to-layer="181" to-port="2"/>
		<edge from-layer="27" from-port="0" to-layer="181" to-port="3"/>
		<edge from-layer="28" from-port="0" to-layer="181" to-port="4"/>
		<edge from-layer="190" from-port="0" to-layer="191" to-port="0"/>
		<edge from-layer="191" from-port="1" to-layer="193" to-port="0"/>
		<edge from-layer="192" from-port="0" to-layer="193" to-port="1"/>
		<edge from-layer="193" from-port="2" to-layer="195" to-port="0"/>
		<edge from-layer="194" from-port="0" to-layer="195" to-port="1"/>
		<edge from-layer="181" from-port="5" to-layer="196" to-port="0"/>
		<edge from-layer="195" from-port="2" to-layer="196" to-port="1"/>
		<edge from-layer="196" from-port="2" to-layer="198" to-port="0"/>
		<edge from-layer="197" from-port="0" to-layer="198" to-port="1"/>
		<edge from-layer="198" from-port="2" to-layer="199" to-port="0"/>
		<edge from-layer="199" from-port="1" to-layer="200" to-port="0"/>
		<edge from-layer="186" from-port="0" to-layer="200" to-port="1"/>
		<edge from-layer="187" from-port="0" to-layer="200" to-port="2"/>
		<edge from-layer="188" from-port="0" to-layer="200" to-port="3"/>
		<edge from-layer="189" from-port="0" to-layer="200" to-port="4"/>
		<edge from-layer="200" from-port="5" to-layer="204" to-port="0"/>
		<edge from-layer="201" from-port="0" to-layer="204" to-port="1"/>
		<edge from-layer="202" from-port="0" to-layer="204" to-port="2"/>
		<edge from-layer="203" from-port="0" to-layer="204" to-port="3"/>
		<edge from-layer="205" from-port="0" to-layer="206" to-port="0"/>
		<edge from-layer="206" from-port="1" to-layer="208" to-port="0"/>
		<edge from-layer="207" from-port="0" to-layer="208" to-port="1"/>
		<edge from-layer="208" from-port="2" to-layer="210" to-port="0"/>
		<edge from-layer="209" from-port="0" to-layer="210" to-port="1"/>
		<edge from-layer="204" from-port="4" to-layer="211" to-port="0"/>
		<edge from-layer="210" from-port="2" to-layer="211" to-port="1"/>
		<edge from-layer="211" from-port="2" to-layer="213" to-port="0"/>
		<edge from-layer="212" from-port="0" to-layer="213" to-port="1"/>
		<edge from-layer="213" from-port="2" to-layer="214" to-port="0"/>
		<edge from-layer="214" from-port="1" to-layer="215" to-port="0"/>
		<edge from-layer="182" from-port="0" to-layer="215" to-port="1"/>
		<edge from-layer="183" from-port="0" to-layer="215" to-port="2"/>
		<edge from-layer="184" from-port="0" to-layer="215" to-port="3"/>
		<edge from-layer="185" from-port="0" to-layer="215" to-port="4"/>
		<edge from-layer="215" from-port="5" to-layer="219" to-port="0"/>
		<edge from-layer="216" from-port="0" to-layer="219" to-port="1"/>
		<edge from-layer="217" from-port="0" to-layer="219" to-port="2"/>
		<edge from-layer="218" from-port="0" to-layer="219" to-port="3"/>
		<edge from-layer="219" from-port="4" to-layer="220" to-port="0"/>
		<edge from-layer="181" from-port="5" to-layer="220" to-port="1"/>
		<edge from-layer="220" from-port="2" to-layer="221" to-port="0"/>
		<edge from-layer="221" from-port="1" to-layer="222" to-port="0"/>
		<edge from-layer="21" from-port="0" to-layer="222" to-port="1"/>
		<edge from-layer="22" from-port="0" to-layer="222" to-port="2"/>
		<edge from-layer="23" from-port="0" to-layer="222" to-port="3"/>
		<edge from-layer="24" from-port="0" to-layer="222" to-port="4"/>
		<edge from-layer="231" from-port="0" to-layer="232" to-port="0"/>
		<edge from-layer="232" from-port="1" to-layer="234" to-port="0"/>
		<edge from-layer="233" from-port="0" to-layer="234" to-port="1"/>
		<edge from-layer="234" from-port="2" to-layer="236" to-port="0"/>
		<edge from-layer="235" from-port="0" to-layer="236" to-port="1"/>
		<edge from-layer="222" from-port="5" to-layer="237" to-port="0"/>
		<edge from-layer="236" from-port="2" to-layer="237" to-port="1"/>
		<edge from-layer="237" from-port="2" to-layer="239" to-port="0"/>
		<edge from-layer="238" from-port="0" to-layer="239" to-port="1"/>
		<edge from-layer="239" from-port="2" to-layer="240" to-port="0"/>
		<edge from-layer="240" from-port="1" to-layer="241" to-port="0"/>
		<edge from-layer="227" from-port="0" to-layer="241" to-port="1"/>
		<edge from-layer="228" from-port="0" to-layer="241" to-port="2"/>
		<edge from-layer="229" from-port="0" to-layer="241" to-port="3"/>
		<edge from-layer="230" from-port="0" to-layer="241" to-port="4"/>
		<edge from-layer="241" from-port="5" to-layer="245" to-port="0"/>
		<edge from-layer="242" from-port="0" to-layer="245" to-port="1"/>
		<edge from-layer="243" from-port="0" to-layer="245" to-port="2"/>
		<edge from-layer="244" from-port="0" to-layer="245" to-port="3"/>
		<edge from-layer="246" from-port="0" to-layer="247" to-port="0"/>
		<edge from-layer="247" from-port="1" to-layer="249" to-port="0"/>
		<edge from-layer="248" from-port="0" to-layer="249" to-port="1"/>
		<edge from-layer="249" from-port="2" to-layer="251" to-port="0"/>
		<edge from-layer="250" from-port="0" to-layer="251" to-port="1"/>
		<edge from-layer="245" from-port="4" to-layer="252" to-port="0"/>
		<edge from-layer="251" from-port="2" to-layer="252" to-port="1"/>
		<edge from-layer="252" from-port="2" to-layer="254" to-port="0"/>
		<edge from-layer="253" from-port="0" to-layer="254" to-port="1"/>
		<edge from-layer="254" from-port="2" to-layer="255" to-port="0"/>
		<edge from-layer="255" from-port="1" to-layer="256" to-port="0"/>
		<edge from-layer="223" from-port="0" to-layer="256" to-port="1"/>
		<edge from-layer="224" from-port="0" to-layer="256" to-port="2"/>
		<edge from-layer="225" from-port="0" to-layer="256" to-port="3"/>
		<edge from-layer="226" from-port="0" to-layer="256" to-port="4"/>
		<edge from-layer="256" from-port="5" to-layer="260" to-port="0"/>
		<edge from-layer="257" from-port="0" to-layer="260" to-port="1"/>
		<edge from-layer="258" from-port="0" to-layer="260" to-port="2"/>
		<edge from-layer="259" from-port="0" to-layer="260" to-port="3"/>
		<edge from-layer="260" from-port="4" to-layer="261" to-port="0"/>
		<edge from-layer="222" from-port="5" to-layer="261" to-port="1"/>
		<edge from-layer="261" from-port="2" to-layer="262" to-port="0"/>
		<edge from-layer="262" from-port="1" to-layer="263" to-port="0"/>
		<edge from-layer="17" from-port="0" to-layer="263" to-port="1"/>
		<edge from-layer="18" from-port="0" to-layer="263" to-port="2"/>
		<edge from-layer="19" from-port="0" to-layer="263" to-port="3"/>
		<edge from-layer="20" from-port="0" to-layer="263" to-port="4"/>
		<edge from-layer="272" from-port="0" to-layer="273" to-port="0"/>
		<edge from-layer="273" from-port="1" to-layer="275" to-port="0"/>
		<edge from-layer="274" from-port="0" to-layer="275" to-port="1"/>
		<edge from-layer="275" from-port="2" to-layer="277" to-port="0"/>
		<edge from-layer="276" from-port="0" to-layer="277" to-port="1"/>
		<edge from-layer="263" from-port="5" to-layer="278" to-port="0"/>
		<edge from-layer="277" from-port="2" to-layer="278" to-port="1"/>
		<edge from-layer="278" from-port="2" to-layer="280" to-port="0"/>
		<edge from-layer="279" from-port="0" to-layer="280" to-port="1"/>
		<edge from-layer="280" from-port="2" to-layer="281" to-port="0"/>
		<edge from-layer="281" from-port="1" to-layer="282" to-port="0"/>
		<edge from-layer="268" from-port="0" to-layer="282" to-port="1"/>
		<edge from-layer="269" from-port="0" to-layer="282" to-port="2"/>
		<edge from-layer="270" from-port="0" to-layer="282" to-port="3"/>
		<edge from-layer="271" from-port="0" to-layer="282" to-port="4"/>
		<edge from-layer="282" from-port="5" to-layer="286" to-port="0"/>
		<edge from-layer="283" from-port="0" to-layer="286" to-port="1"/>
		<edge from-layer="284" from-port="0" to-layer="286" to-port="2"/>
		<edge from-layer="285" from-port="0" to-layer="286" to-port="3"/>
		<edge from-layer="287" from-port="0" to-layer="288" to-port="0"/>
		<edge from-layer="288" from-port="1" to-layer="290" to-port="0"/>
		<edge from-layer="289" from-port="0" to-layer="290" to-port="1"/>
		<edge from-layer="290" from-port="2" to-layer="292" to-port="0"/>
		<edge from-layer="291" from-port="0" to-layer="292" to-port="1"/>
		<edge from-layer="286" from-port="4" to-layer="293" to-port="0"/>
		<edge from-layer="292" from-port="2" to-layer="293" to-port="1"/>
		<edge from-layer="293" from-port="2" to-layer="295" to-port="0"/>
		<edge from-layer="294" from-port="0" to-layer="295" to-port="1"/>
		<edge from-layer="295" from-port="2" to-layer="296" to-port="0"/>
		<edge from-layer="296" from-port="1" to-layer="297" to-port="0"/>
		<edge from-layer="264" from-port="0" to-layer="297" to-port="1"/>
		<edge from-layer="265" from-port="0" to-layer="297" to-port="2"/>
		<edge from-layer="266" from-port="0" to-layer="297" to-port="3"/>
		<edge from-layer="267" from-port="0" to-layer="297" to-port="4"/>
		<edge from-layer="297" from-port="5" to-layer="301" to-port="0"/>
		<edge from-layer="298" from-port="0" to-layer="301" to-port="1"/>
		<edge from-layer="299" from-port="0" to-layer="301" to-port="2"/>
		<edge from-layer="300" from-port="0" to-layer="301" to-port="3"/>
		<edge from-layer="301" from-port="4" to-layer="302" to-port="0"/>
		<edge from-layer="263" from-port="5" to-layer="302" to-port="1"/>
		<edge from-layer="302" from-port="2" to-layer="303" to-port="0"/>
		<edge from-layer="303" from-port="1" to-layer="304" to-port="0"/>
		<edge from-layer="13" from-port="0" to-layer="304" to-port="1"/>
		<edge from-layer="14" from-port="0" to-layer="304" to-port="2"/>
		<edge from-layer="15" from-port="0" to-layer="304" to-port="3"/>
		<edge from-layer="16" from-port="0" to-layer="304" to-port="4"/>
		<edge from-layer="313" from-port="0" to-layer="314" to-port="0"/>
		<edge from-layer="314" from-port="1" to-layer="316" to-port="0"/>
		<edge from-layer="315" from-port="0" to-layer="316" to-port="1"/>
		<edge from-layer="316" from-port="2" to-layer="318" to-port="0"/>
		<edge from-layer="317" from-port="0" to-layer="318" to-port="1"/>
		<edge from-layer="304" from-port="5" to-layer="319" to-port="0"/>
		<edge from-layer="318" from-port="2" to-layer="319" to-port="1"/>
		<edge from-layer="319" from-port="2" to-layer="321" to-port="0"/>
		<edge from-layer="320" from-port="0" to-layer="321" to-port="1"/>
		<edge from-layer="321" from-port="2" to-layer="322" to-port="0"/>
		<edge from-layer="322" from-port="1" to-layer="323" to-port="0"/>
		<edge from-layer="309" from-port="0" to-layer="323" to-port="1"/>
		<edge from-layer="310" from-port="0" to-layer="323" to-port="2"/>
		<edge from-layer="311" from-port="0" to-layer="323" to-port="3"/>
		<edge from-layer="312" from-port="0" to-layer="323" to-port="4"/>
		<edge from-layer="323" from-port="5" to-layer="327" to-port="0"/>
		<edge from-layer="324" from-port="0" to-layer="327" to-port="1"/>
		<edge from-layer="325" from-port="0" to-layer="327" to-port="2"/>
		<edge from-layer="326" from-port="0" to-layer="327" to-port="3"/>
		<edge from-layer="328" from-port="0" to-layer="329" to-port="0"/>
		<edge from-layer="329" from-port="1" to-layer="331" to-port="0"/>
		<edge from-layer="330" from-port="0" to-layer="331" to-port="1"/>
		<edge from-layer="331" from-port="2" to-layer="333" to-port="0"/>
		<edge from-layer="332" from-port="0" to-layer="333" to-port="1"/>
		<edge from-layer="327" from-port="4" to-layer="334" to-port="0"/>
		<edge from-layer="333" from-port="2" to-layer="334" to-port="1"/>
		<edge from-layer="334" from-port="2" to-layer="336" to-port="0"/>
		<edge from-layer="335" from-port="0" to-layer="336" to-port="1"/>
		<edge from-layer="336" from-port="2" to-layer="337" to-port="0"/>
		<edge from-layer="337" from-port="1" to-layer="338" to-port="0"/>
		<edge from-layer="305" from-port="0" to-layer="338" to-port="1"/>
		<edge from-layer="306" from-port="0" to-layer="338" to-port="2"/>
		<edge from-layer="307" from-port="0" to-layer="338" to-port="3"/>
		<edge from-layer="308" from-port="0" to-layer="338" to-port="4"/>
		<edge from-layer="338" from-port="5" to-layer="342" to-port="0"/>
		<edge from-layer="339" from-port="0" to-layer="342" to-port="1"/>
		<edge from-layer="340" from-port="0" to-layer="342" to-port="2"/>
		<edge from-layer="341" from-port="0" to-layer="342" to-port="3"/>
		<edge from-layer="342" from-port="4" to-layer="343" to-port="0"/>
		<edge from-layer="304" from-port="5" to-layer="343" to-port="1"/>
		<edge from-layer="343" from-port="2" to-layer="344" to-port="0"/>
		<edge from-layer="344" from-port="1" to-layer="345" to-port="0"/>
		<edge from-layer="9" from-port="0" to-layer="345" to-port="1"/>
		<edge from-layer="10" from-port="0" to-layer="345" to-port="2"/>
		<edge from-layer="11" from-port="0" to-layer="345" to-port="3"/>
		<edge from-layer="12" from-port="0" to-layer="345" to-port="4"/>
		<edge from-layer="346" from-port="0" to-layer="347" to-port="0"/>
		<edge from-layer="347" from-port="1" to-layer="349" to-port="0"/>
		<edge from-layer="348" from-port="0" to-layer="349" to-port="1"/>
		<edge from-layer="349" from-port="2" to-layer="351" to-port="0"/>
		<edge from-layer="350" from-port="0" to-layer="351" to-port="1"/>
		<edge from-layer="345" from-port="5" to-layer="352" to-port="0"/>
		<edge from-layer="351" from-port="2" to-layer="352" to-port="1"/>
		<edge from-layer="352" from-port="2" to-layer="354" to-port="0"/>
		<edge from-layer="353" from-port="0" to-layer="354" to-port="1"/>
		<edge from-layer="354" from-port="2" to-layer="355" to-port="0"/>
		<edge from-layer="5" from-port="0" to-layer="355" to-port="1"/>
		<edge from-layer="6" from-port="0" to-layer="355" to-port="2"/>
		<edge from-layer="7" from-port="0" to-layer="355" to-port="3"/>
		<edge from-layer="8" from-port="0" to-layer="355" to-port="4"/>
		<edge from-layer="364" from-port="0" to-layer="365" to-port="0"/>
		<edge from-layer="365" from-port="1" to-layer="367" to-port="0"/>
		<edge from-layer="366" from-port="0" to-layer="367" to-port="1"/>
		<edge from-layer="367" from-port="2" to-layer="369" to-port="0"/>
		<edge from-layer="368" from-port="0" to-layer="369" to-port="1"/>
		<edge from-layer="345" from-port="5" to-layer="370" to-port="0"/>
		<edge from-layer="369" from-port="2" to-layer="370" to-port="1"/>
		<edge from-layer="370" from-port="2" to-layer="372" to-port="0"/>
		<edge from-layer="371" from-port="0" to-layer="372" to-port="1"/>
		<edge from-layer="372" from-port="2" to-layer="373" to-port="0"/>
		<edge from-layer="373" from-port="1" to-layer="374" to-port="0"/>
		<edge from-layer="360" from-port="0" to-layer="374" to-port="1"/>
		<edge from-layer="361" from-port="0" to-layer="374" to-port="2"/>
		<edge from-layer="362" from-port="0" to-layer="374" to-port="3"/>
		<edge from-layer="363" from-port="0" to-layer="374" to-port="4"/>
		<edge from-layer="374" from-port="5" to-layer="378" to-port="0"/>
		<edge from-layer="375" from-port="0" to-layer="378" to-port="1"/>
		<edge from-layer="376" from-port="0" to-layer="378" to-port="2"/>
		<edge from-layer="377" from-port="0" to-layer="378" to-port="3"/>
		<edge from-layer="379" from-port="0" to-layer="380" to-port="0"/>
		<edge from-layer="380" from-port="1" to-layer="382" to-port="0"/>
		<edge from-layer="381" from-port="0" to-layer="382" to-port="1"/>
		<edge from-layer="382" from-port="2" to-layer="384" to-port="0"/>
		<edge from-layer="383" from-port="0" to-layer="384" to-port="1"/>
		<edge from-layer="378" from-port="4" to-layer="385" to-port="0"/>
		<edge from-layer="384" from-port="2" to-layer="385" to-port="1"/>
		<edge from-layer="385" from-port="2" to-layer="387" to-port="0"/>
		<edge from-layer="386" from-port="0" to-layer="387" to-port="1"/>
		<edge from-layer="387" from-port="2" to-layer="388" to-port="0"/>
		<edge from-layer="388" from-port="1" to-layer="389" to-port="0"/>
		<edge from-layer="356" from-port="0" to-layer="389" to-port="1"/>
		<edge from-layer="357" from-port="0" to-layer="389" to-port="2"/>
		<edge from-layer="358" from-port="0" to-layer="389" to-port="3"/>
		<edge from-layer="359" from-port="0" to-layer="389" to-port="4"/>
		<edge from-layer="389" from-port="5" to-layer="393" to-port="0"/>
		<edge from-layer="390" from-port="0" to-layer="393" to-port="1"/>
		<edge from-layer="391" from-port="0" to-layer="393" to-port="2"/>
		<edge from-layer="392" from-port="0" to-layer="393" to-port="3"/>
		<edge from-layer="393" from-port="4" to-layer="394" to-port="0"/>
		<edge from-layer="355" from-port="5" to-layer="394" to-port="1"/>
		<edge from-layer="394" from-port="2" to-layer="395" to-port="0"/>
		<edge from-layer="395" from-port="1" to-layer="396" to-port="0"/>
		<edge from-layer="1" from-port="0" to-layer="396" to-port="1"/>
		<edge from-layer="2" from-port="0" to-layer="396" to-port="2"/>
		<edge from-layer="3" from-port="0" to-layer="396" to-port="3"/>
		<edge from-layer="4" from-port="0" to-layer="396" to-port="4"/>
		<edge from-layer="397" from-port="0" to-layer="398" to-port="0"/>
		<edge from-layer="398" from-port="1" to-layer="400" to-port="0"/>
		<edge from-layer="399" from-port="0" to-layer="400" to-port="1"/>
		<edge from-layer="400" from-port="2" to-layer="402" to-port="0"/>
		<edge from-layer="401" from-port="0" to-layer="402" to-port="1"/>
		<edge from-layer="396" from-port="5" to-layer="403" to-port="0"/>
		<edge from-layer="402" from-port="2" to-layer="403" to-port="1"/>
		<edge from-layer="0" from-port="0" to-layer="404" to-port="0"/>
		<edge from-layer="403" from-port="2" to-layer="404" to-port="1"/>
		<edge from-layer="404" from-port="2" to-layer="406" to-port="0"/>
		<edge from-layer="405" from-port="0" to-layer="406" to-port="1"/>
		<edge from-layer="406" from-port="2" to-layer="407" to-port="0"/>
	</edges>
	<meta_data>
		<MO_version value="2021.4.0-3839-cd81789d294-releases/2021/4"/>
		<cli_parameters>
			<batch value="1"/>
			<data_type value="float"/>
			<disable_resnet_optimization value="False"/>
			<disable_weights_compression value="False"/>
			<enable_concat_optimization value="False"/>
			<extensions value="DIR"/>
			<framework value="onnx"/>
			<freeze_placeholder_with_value value="{}"/>
			<generate_deprecated_IR_V7 value="False"/>
			<input_model value="DIR/tcn_320.onnx"/>
			<keep_shape_ops value="True"/>
			<legacy_ir_generation value="False"/>
			<log_level value="ERROR"/>
			<mean_scale_values value="{}"/>
			<mean_values value="()"/>
			<model_name value="tcn"/>
			<output_dir value="DIR"/>
			<placeholder_data_types value="{}"/>
			<progress value="False"/>
			<reverse_input_channels value="False"/>
			<scale_values value="()"/>
			<silent value="False"/>
			<static_shape value="False"/>
			<stream_output value="False"/>
			<transform value=""/>
			<unset unset_cli_parameters="disable_fusing, disable_gfusing, finegrain_fusing, input, input_shape, move_to_preprocess, output, placeholder_shapes, scale, transformations_config"/>
		</cli_parameters>
	</meta_data>
	<quantization_parameters>
		<config/>
		<version value="{}"/>
		<cli_params value="{}"/>
	</quantization_parameters>
</net>
