<?xml version="1.0" ?>
<net name="tcn" version="10">
	<layers>
		<layer id="0" name="input" type="Parameter" version="opset1">
			<data element_type="f32" shape="1, 320, 2"/>
			<output>
				<port id="0" names="input" precision="FP32">
					<dim>1</dim>
					<dim>320</dim>
					<dim>2</dim>
				</port>
			</output>
		</layer>
		<layer id="1" name="linear.bias" type="Const" version="opset1">
			<data element_type="f32" offset="0" shape="1, 1, 40" size="160"/>
			<output>
				<port id="0" names="linear.bias" precision="FP32">
					<dim>1</dim>
					<dim>1</dim>
					<dim>40</dim>
				</port>
			</output>
		</layer>
		<layer id="2" name="176" type="Const" version="opset1">
			<data element_type="i64" offset="160" shape="3" size="24"/>
			<output>
				<port id="0" precision="I64">
					<dim>3</dim>
				</port>
			</output>
		</layer>
		<layer id="3" name="Transpose_0" type="Transpose" version="opset1">
			<input>
				<port id="0" precision="FP32">
					<dim>1</dim>
					<dim>320</dim>
					<dim>2</dim>
				</port>
				<port id="1" precision="I64">
					<dim>3</dim>
				</port>
			</input>
			<output>
				<port id="2" names="input.1" precision="FP32">
					<dim>1</dim>
					<dim>2</dim>
					<dim>320</dim>
				</port>
			</output>
		</layer>
		<layer id="4" name="onnx::Conv_271" type="Const" version="opset1">
			<data element_type="f32" offset="184" shape="32, 2, 3" size="768"/>
			<output>
				<port id="0" names="onnx::Conv_271" precision="FP32">
					<dim>32</dim>
					<dim>2</dim>
					<dim>3</dim>
				</port>
			</output>
		</layer>
		<layer id="5" name="Conv_1/WithoutBiases" type="Convolution" version="opset1">
			<data auto_pad="explicit" dilations="1" pads_begin="2" pads_end="2" strides="1"/>
			<input>
				<port id="0" precision="FP32">
					<dim>1</dim>
					<dim>2</dim>
					<dim>320</dim>
				</port>
				<port id="1" precision="FP32">
					<dim>32</dim>
					<dim>2</dim>
					<dim>3</dim>
				</port>
			</input>
			<output>
				<port id="2" precision="FP32">
					<dim>1</dim>
					<dim>32</dim>
					<dim>322</dim>
				</port>
			</output>
		</layer>
		<layer id="6" name="Conv_1/Dims1899" type="Const" version="opset1">
			<data element_type="f32" offset="952" shape="1, 32, 1" size="128"/>
			<output>
				<port id="0" precision="FP32">
					<dim>1</dim>
					<dim>32</dim>
					<dim>1</dim>
				</port>
			</output>
		</layer>
		<layer id="7" name="Conv_1" type="Add" version="opset1">
			<data auto_broadcast="numpy"/>
			<input>
				<port id="0" precision="FP32">
					<dim>1</dim>
					<dim>32</dim>
					<dim>322</dim>
				</port>
				<port id="1" precision="FP32">
					<dim>1</dim>
					<dim>32</dim>
					<dim>1</dim>
				</port>
			</input>
			<output>
				<port id="2" names="input.7" precision="FP32">
					<dim>1</dim>
					<dim>32</dim>
					<dim>322</dim>
				</port>
			</output>
		</layer>
		<layer id="8" name="Relu_2" type="ReLU" version="opset1">
			<input>
				<port id="0" precision="FP32">
					<dim>1</dim>
					<dim>32</dim>
					<dim>322</dim>
				</port>
			</input>
			<output>
				<port id="1" names="input.11" precision="FP32">
					<dim>1</dim>
					<dim>32</dim>
					<dim>322</dim>
				</port>
			</output>
		</layer>
		<layer id="9" name="Slice_7/Concat20627475" type="Const" version="opset1">
			<data element_type="i64" offset="1080" shape="3" size="24"/>
			<output>
				<port id="0" precision="I64">
					<dim>3</dim>
				</port>
			</output>
		</layer>
		<layer id="10" name="Slice_7/Concat204820637487" type="Const" version="opset1">
			<data element_type="i64" offset="1104" shape="3" size="24"/>
			<output>
				<port id="0" precision="I64">
					<dim>3</dim>
				</port>
			</output>
		</layer>
		<layer id="11" name="Slice_7/Strides20647547" type="Const" version="opset1">
			<data element_type="i64" offset="1128" shape="3" size="24"/>
			<output>
				<port id="0" precision="I64">
					<dim>3</dim>
				</port>
			</output>
		</layer>
		<layer id="12" name="Slice_7" type="StridedSlice" version="opset1">
			<data begin_mask="1, 1, 0" ellipsis_mask="0, 0, 0" end_mask="1, 1, 0" new_axis_mask="0, 0, 0" shrink_axis_mask="0, 0, 0"/>
			<input>
				<port id="0" precision="FP32">
					<dim>1</dim>
					<dim>32</dim>
					<dim>322</dim>
				</port>
				<port id="1" precision="I64">
					<dim>3</dim>
				</port>
				<port id="2" precision="I64">
					<dim>3</dim>
				</port>
				<port id="3" precision="I64">
					<dim>3</dim>
				</port>
			</input>
			<output>
				<port id="4" names="onnx::Conv_127" precision="FP32">
					<dim>1</dim>
					<dim>32</dim>
					<dim>320</dim>
				</port>
			</output>
		</layer>
		<layer id="13" name="onnx::Conv_274" type="Const" version="opset1">
			<data element_type="f32" offset="1152" shape="32, 32, 3" size="12288"/>
			<output>
				<port id="0" names="onnx::Conv_274" precision="FP32">
					<dim>32</dim>
					<dim>32</dim>
					<dim>3</dim>
				</port>
			</output>
		</layer>
		<layer id="14" name="Conv_8/WithoutBiases" type="Convolution" version="opset1">
			<data auto_pad="explicit" dilations="1" pads_begin="2" pads_end="2" strides="1"/>
			<input>
				<port id="0" precision="FP32">
					<dim>1</dim>
					<dim>32</dim>
					<dim>320</dim>
				</port>
				<port id="1" precision="FP32">
					<dim>32</dim>
					<dim>32</dim>
					<dim>3</dim>
				</port>
			</input>
			<output>
				<port id="2" precision="FP32">
					<dim>1</dim>
					<dim>32</dim>
					<dim>322</dim>
				</port>
			</output>
		</layer>
		<layer id="15" name="Conv_8/Dims1869" type="Const" version="opset1">
			<data element_type="f32" offset="13440" shape="1, 32, 1" size="128"/>
			<output>
				<port id="0" precision="FP32">
					<dim>1</dim>
					<dim>32</dim>
					<dim>1</dim>
				</port>
			</output>
		</layer>
		<layer id="16" name="Conv_8" type="Add" version="opset1">
			<data auto_broadcast="numpy"/>
			<input>
				<port id="0" precision="FP32">
					<dim>1</dim>
					<dim>32</dim>
					<dim>322</dim>
				</port>
				<port id="1" precision="FP32">
					<dim>1</dim>
					<dim>32</dim>
					<dim>1</dim>
				</port>
			</input>
			<output>
				<port id="2" names="input.19" precision="FP32">
					<dim>1</dim>
					<dim>32</dim>
					<dim>322</dim>
				</port>
			</output>
		</layer>
		<layer id="17" name="Relu_9" type="ReLU" version="opset1">
			<input>
				<port id="0" precision="FP32">
					<dim>1</dim>
					<dim>32</dim>
					<dim>322</dim>
				</port>
			</input>
			<output>
				<port id="1" names="input.23" precision="FP32">
					<dim>1</dim>
					<dim>32</dim>
					<dim>322</dim>
				</port>
			</output>
		</layer>
		<layer id="18" name="Slice_14/Concat21067535" type="Const" version="opset1">
			<data element_type="i64" offset="1080" shape="3" size="24"/>
			<output>
				<port id="0" precision="I64">
					<dim>3</dim>
				</port>
			</output>
		</layer>
		<layer id="19" name="Slice_14/Concat209221077433" type="Const" version="opset1">
			<data element_type="i64" offset="1104" shape="3" size="24"/>
			<output>
				<port id="0" precision="I64">
					<dim>3</dim>
				</port>
			</output>
		</layer>
		<layer id="20" name="Slice_14/Strides21087640" type="Const" version="opset1">
			<data element_type="i64" offset="1128" shape="3" size="24"/>
			<output>
				<port id="0" precision="I64">
					<dim>3</dim>
				</port>
			</output>
		</layer>
		<layer id="21" name="Slice_14" type="StridedSlice" version="opset1">
			<data begin_mask="1, 1, 0" ellipsis_mask="0, 0, 0" end_mask="1, 1, 0" new_axis_mask="0, 0, 0" shrink_axis_mask="0, 0, 0"/>
			<input>
				<port id="0" precision="FP32">
					<dim>1</dim>
					<dim>32</dim>
					<dim>322</dim>
				</port>
				<port id="1" precision="I64">
					<dim>3</dim>
				</port>
				<port id="2" precision="I64">
					<dim>3</dim>
				</port>
				<port id="3" precision="I64">
					<dim>3</dim>
				</port>
			</input>
			<output>
				<port id="4" names="onnx::Add_135" precision="FP32">
					<dim>1</dim>
					<dim>32</dim>
					<dim>320</dim>
				</port>
			</output>
		</layer>
		<layer id="22" name="tcn.0.downsample.weight" type="Const" version="opset1">
			<data element_type="f32" offset="13568" shape="32, 2, 1" size="256"/>
			<output>
				<port id="0" names="tcn.0.downsample.weight" precision="FP32">
					<dim>32</dim>
					<dim>2</dim>
					<dim>1</dim>
				</port>
			</output>
		</layer>
		<layer id="23" name="Conv_15/WithoutBiases" type="Convolution" version="opset1">
			<data auto_pad="explicit" dilations="1" pads_begin="0" pads_end="0" strides="1"/>
			<input>
				<port id="0" precision="FP32">
					<dim>1</dim>
					<dim>2</dim>
					<dim>320</dim>
				</port>
				<port id="1" precision="FP32">
					<dim>32</dim>
					<dim>2</dim>
					<dim>1</dim>
				</port>
			</input>
			<output>
				<port id="2" precision="FP32">
					<dim>1</dim>
					<dim>32</dim>
					<dim>320</dim>
				</port>
			</output>
		</layer>
		<layer id="24" name="Conv_15/Dims1815" type="Const" version="opset1">
			<data element_type="f32" offset="13824" shape="1, 32, 1" size="128"/>
			<output>
				<port id="0" precision="FP32">
					<dim>1</dim>
					<dim>32</dim>
					<dim>1</dim>
				</port>
			</output>
		</layer>
		<layer id="25" name="Conv_15" type="Add" version="opset1">
			<data auto_broadcast="numpy"/>
			<input>
				<port id="0" precision="FP32">
					<dim>1</dim>
					<dim>32</dim>
					<dim>320</dim>
				</port>
				<port id="1" precision="FP32">
					<dim>1</dim>
					<dim>32</dim>
					<dim>1</dim>
				</port>
			</input>
			<output>
				<port id="2" names="onnx::Add_136" precision="FP32">
					<dim>1</dim>
					<dim>32</dim>
					<dim>320</dim>
				</port>
			</output>
		</layer>
		<layer id="26" name="Add_16" type="Add" version="opset1">
			<data auto_broadcast="numpy"/>
			<input>
				<port id="0" precision="FP32">
					<dim>1</dim>
					<dim>32</dim>
					<dim>320</dim>
				</port>
				<port id="1" precision="FP32">
					<dim>1</dim>
					<dim>32</dim>
					<dim>320</dim>
				</port>
			</input>
			<output>
				<port id="2" names="input.27" precision="FP32">
					<dim>1</dim>
					<dim>32</dim>
					<dim>320</dim>
				</port>
			</output>
		</layer>
		<layer id="27" name="Relu_17" type="ReLU" version="opset1">
			<input>
				<port id="0" precision="FP32">
					<dim>1</dim>
					<dim>32</dim>
					<dim>320</dim>
				</port>
			</input>
			<output>
				<port id="1" names="input.31" precision="FP32">
					<dim>1</dim>
					<dim>32</dim>
					<dim>320</dim>
				</port>
			</output>
		</layer>
		<layer id="28" name="onnx::Conv_277" type="Const" version="opset1">
			<data element_type="f32" offset="13952" shape="32, 32, 3" size="12288"/>
			<output>
				<port id="0" names="onnx::Conv_277" precision="FP32">
					<dim>32</dim>
					<dim>32</dim>
					<dim>3</dim>
				</port>
			</output>
		</layer>
		<layer id="29" name="Conv_18/WithoutBiases" type="Convolution" version="opset1">
			<data auto_pad="explicit" dilations="2" pads_begin="4" pads_end="4" strides="1"/>
			<input>
				<port id="0" precision="FP32">
					<dim>1</dim>
					<dim>32</dim>
					<dim>320</dim>
				</port>
				<port id="1" precision="FP32">
					<dim>32</dim>
					<dim>32</dim>
					<dim>3</dim>
				</port>
			</input>
			<output>
				<port id="2" precision="FP32">
					<dim>1</dim>
					<dim>32</dim>
					<dim>324</dim>
				</port>
			</output>
		</layer>
		<layer id="30" name="Conv_18/Dims1851" type="Const" version="opset1">
			<data element_type="f32" offset="26240" shape="1, 32, 1" size="128"/>
			<output>
				<port id="0" precision="FP32">
					<dim>1</dim>
					<dim>32</dim>
					<dim>1</dim>
				</port>
			</output>
		</layer>
		<layer id="31" name="Conv_18" type="Add" version="opset1">
			<data auto_broadcast="numpy"/>
			<input>
				<port id="0" precision="FP32">
					<dim>1</dim>
					<dim>32</dim>
					<dim>324</dim>
				</port>
				<port id="1" precision="FP32">
					<dim>1</dim>
					<dim>32</dim>
					<dim>1</dim>
				</port>
			</input>
			<output>
				<port id="2" names="input.39" precision="FP32">
					<dim>1</dim>
					<dim>32</dim>
					<dim>324</dim>
				</port>
			</output>
		</layer>
		<layer id="32" name="Relu_19" type="ReLU" version="opset1">
			<input>
				<port id="0" precision="FP32">
					<dim>1</dim>
					<dim>32</dim>
					<dim>324</dim>
				</port>
			</input>
			<output>
				<port id="1" names="input.43" precision="FP32">
					<dim>1</dim>
					<dim>32</dim>
					<dim>324</dim>
				</port>
			</output>
		</layer>
		<layer id="33" name="Slice_24/Concat21507463" type="Const" version="opset1">
			<data element_type="i64" offset="1080" shape="3" size="24"/>
			<output>
				<port id="0" precision="I64">
					<dim>3</dim>
				</port>
			</output>
		</layer>
		<layer id="34" name="Slice_24/Concat213621517583" type="Const" version="opset1">
			<data element_type="i64" offset="26368" shape="3" size="24"/>
			<output>
				<port id="0" precision="I64">
					<dim>3</dim>
				</port>
			</output>
		</layer>
		<layer id="35" name="Slice_24/Strides21527544" type="Const" version="opset1">
			<data element_type="i64" offset="1128" shape="3" size="24"/>
			<output>
				<port id="0" precision="I64">
					<dim>3</dim>
				</port>
			</output>
		</layer>
		<layer id="36" name="Slice_24" type="StridedSlice" version="opset1">
			<data begin_mask="1, 1, 0" ellipsis_mask="0, 0, 0" end_mask="1, 1, 0" new_axis_mask="0, 0, 0" shrink_axis_mask="0, 0, 0"/>
			<input>
				<port id="0" precision="FP32">
					<dim>1</dim>
					<dim>32</dim>
					<dim>324</dim>
				</port>
				<port id="1" precision="I64">
					<dim>3</dim>
				</port>
				<port id="2" precision="I64">
					<dim>3</dim>
				</port>
				<port id="3" precision="I64">
					<dim>3</dim>
				</port>
			</input>
			<output>
				<port id="4" names="onnx::Conv_146" precision="FP32">
					<dim>1</dim>
					<dim>32</dim>
					<dim>320</dim>
				</port>
			</output>
		</layer>
		<layer id="37" name="onnx::Conv_280" type="Const" version="opset1">
			<data element_type="f32" offset="26392" shape="32, 32, 3" size="12288"/>
			<output>
				<port id="0" names="onnx::Conv_280" precision="FP32">
					<dim>32</dim>
					<dim>32</dim>
					<dim>3</dim>
				</port>
			</output>
		</layer>
		<layer id="38" name="Conv_25/WithoutBiases" type="Convolution" version="opset1">
			<data auto_pad="explicit" dilations="2" pads_begin="4" pads_end="4" strides="1"/>
			<input>
				<port id="0" precision="FP32">
					<dim>1</dim>
					<dim>32</dim>
					<dim>320</dim>
				</port>
				<port id="1" precision="FP32">
					<dim>32</dim>
					<dim>32</dim>
					<dim>3</dim>
				</port>
			</input>
			<output>
				<port id="2" precision="FP32">
					<dim>1</dim>
					<dim>32</dim>
					<dim>324</dim>
				</port>
			</output>
		</layer>
		<layer id="39" name="Conv_25/Dims1905" type="Const" version="opset1">
			<data element_type="f32" offset="38680" shape="1, 32, 1" size="128"/>
			<output>
				<port id="0" precision="FP32">
					<dim>1</dim>
					<dim>32</dim>
					<dim>1</dim>
				</port>
			</output>
		</layer>
		<layer id="40" name="Conv_25" type="Add" version="opset1">
			<data auto_broadcast="numpy"/>
			<input>
				<port id="0" precision="FP32">
					<dim>1</dim>
					<dim>32</dim>
					<dim>324</dim>
				</port>
				<port id="1" precision="FP32">
					<dim>1</dim>
					<dim>32</dim>
					<dim>1</dim>
				</port>
			</input>
			<output>
				<port id="2" names="input.51" precision="FP32">
					<dim>1</dim>
					<dim>32</dim>
					<dim>324</dim>
				</port>
			</output>
		</layer>
		<layer id="41" name="Relu_26" type="ReLU" version="opset1">
			<input>
				<port id="0" precision="FP32">
					<dim>1</dim>
					<dim>32</dim>
					<dim>324</dim>
				</port>
			</input>
			<output>
				<port id="1" names="input.55" precision="FP32">
					<dim>1</dim>
					<dim>32</dim>
					<dim>324</dim>
				</port>
			</output>
		</layer>
		<layer id="42" name="Slice_31/Concat21947577" type="Const" version="opset1">
			<data element_type="i64" offset="1080" shape="3" size="24"/>
			<output>
				<port id="0" precision="I64">
					<dim>3</dim>
				</port>
			</output>
		</layer>
		<layer id="43" name="Slice_31/Concat218021957427" type="Const" version="opset1">
			<data element_type="i64" offset="26368" shape="3" size="24"/>
			<output>
				<port id="0" precision="I64">
					<dim>3</dim>
				</port>
			</output>
		</layer>
		<layer id="44" name="Slice_31/Strides21967460" type="Const" version="opset1">
			<data element_type="i64" offset="1128" shape="3" size="24"/>
			<output>
				<port id="0" precision="I64">
					<dim>3</dim>
				</port>
			</output>
		</layer>
		<layer id="45" name="Slice_31" type="StridedSlice" version="opset1">
			<data begin_mask="1, 1, 0" ellipsis_mask="0, 0, 0" end_mask="1, 1, 0" new_axis_mask="0, 0, 0" shrink_axis_mask="0, 0, 0"/>
			<input>
				<port id="0" precision="FP32">
					<dim>1</dim>
					<dim>32</dim>
					<dim>324</dim>
				</port>
				<port id="1" precision="I64">
					<dim>3</dim>
				</port>
				<port id="2" precision="I64">
					<dim>3</dim>
				</port>
				<port id="3" precision="I64">
					<dim>3</dim>
				</port>
			</input>
			<output>
				<port id="4" names="onnx::Add_154" precision="FP32">
					<dim>1</dim>
					<dim>32</dim>
					<dim>320</dim>
				</port>
			</output>
		</layer>
		<layer id="46" name="Add_32" type="Add" version="opset1">
			<data auto_broadcast="numpy"/>
			<input>
				<port id="0" precision="FP32">
					<dim>1</dim>
					<dim>32</dim>
					<dim>320</dim>
				</port>
				<port id="1" precision="FP32">
					<dim>1</dim>
					<dim>32</dim>
					<dim>320</dim>
				</port>
			</input>
			<output>
				<port id="2" names="input.59" precision="FP32">
					<dim>1</dim>
					<dim>32</dim>
					<dim>320</dim>
				</port>
			</output>
		</layer>
		<layer id="47" name="Relu_33" type="ReLU" version="opset1">
			<input>
				<port id="0" precision="FP32">
					<dim>1</dim>
					<dim>32</dim>
					<dim>320</dim>
				</port>
			</input>
			<output>
				<port id="1" names="input.63" precision="FP32">
					<dim>1</dim>
					<dim>32</dim>
					<dim>320</dim>
				</port>
			</output>
		</layer>
		<layer id="48" name="onnx::Conv_283" type="Const" version="opset1">
			<data element_type="f32" offset="38808" shape="32, 32, 3" size="12288"/>
			<output>
				<port id="0" names="onnx::Conv_283" precision="FP32">
					<dim>32</dim>
					<dim>32</dim>
					<dim>3</dim>
				</port>
			</output>
		</layer>
		<layer id="49" name="Conv_34/WithoutBiases" type="Convolution" version="opset1">
			<data auto_pad="explicit" dilations="4" pads_begin="8" pads_end="8" strides="1"/>
			<input>
				<port id="0" precision="FP32">
					<dim>1</dim>
					<dim>32</dim>
					<dim>320</dim>
				</port>
				<port id="1" precision="FP32">
					<dim>32</dim>
					<dim>32</dim>
					<dim>3</dim>
				</port>
			</input>
			<output>
				<port id="2" precision="FP32">
					<dim>1</dim>
					<dim>32</dim>
					<dim>328</dim>
				</port>
			</output>
		</layer>
		<layer id="50" name="Conv_34/Dims1839" type="Const" version="opset1">
			<data element_type="f32" offset="51096" shape="1, 32, 1" size="128"/>
			<output>
				<port id="0" precision="FP32">
					<dim>1</dim>
					<dim>32</dim>
					<dim>1</dim>
				</port>
			</output>
		</layer>
		<layer id="51" name="Conv_34" type="Add" version="opset1">
			<data auto_broadcast="numpy"/>
			<input>
				<port id="0" precision="FP32">
					<dim>1</dim>
					<dim>32</dim>
					<dim>328</dim>
				</port>
				<port id="1" precision="FP32">
					<dim>1</dim>
					<dim>32</dim>
					<dim>1</dim>
				</port>
			</input>
			<output>
				<port id="2" names="input.71" precision="FP32">
					<dim>1</dim>
					<dim>32</dim>
					<dim>328</dim>
				</port>
			</output>
		</layer>
		<layer id="52" name="Relu_35" type="ReLU" version="opset1">
			<input>
				<port id="0" precision="FP32">
					<dim>1</dim>
					<dim>32</dim>
					<dim>328</dim>
				</port>
			</input>
			<output>
				<port id="1" names="input.75" precision="FP32">
					<dim>1</dim>
					<dim>32</dim>
					<dim>328</dim>
				</port>
			</output>
		</layer>
		<layer id="53" name="Slice_40/Concat22387472" type="Const" version="opset1">
			<data element_type="i64" offset="1080" shape="3" size="24"/>
			<output>
				<port id="0" precision="I64">
					<dim>3</dim>
				</port>
			</output>
		</layer>
		<layer id="54" name="Slice_40/Concat222422397478" type="Const" version="opset1">
			<data element_type="i64" offset="51224" shape="3" size="24"/>
			<output>
				<port id="0" precision="I64">
					<dim>3</dim>
				</port>
			</output>
		</layer>
		<layer id="55" name="Slice_40/Strides22407529" type="Const" version="opset1">
			<data element_type="i64" offset="1128" shape="3" size="24"/>
			<output>
				<port id="0" precision="I64">
					<dim>3</dim>
				</port>
			</output>
		</layer>
		<layer id="56" name="Slice_40" type="StridedSlice" version="opset1">
			<data begin_mask="1, 1, 0" ellipsis_mask="0, 0, 0" end_mask="1, 1, 0" new_axis_mask="0, 0, 0" shrink_axis_mask="0, 0, 0"/>
			<input>
				<port id="0" precision="FP32">
					<dim>1</dim>
					<dim>32</dim>
					<dim>328</dim>
				</port>
				<port id="1" precision="I64">
					<dim>3</dim>
				</port>
				<port id="2" precision="I64">
					<dim>3</dim>
				</port>
				<port id="3" precision="I64">
					<dim>3</dim>
				</port>
			</input>
			<output>
				<port id="4" names="onnx::Conv_164" precision="FP32">
					<dim>1</dim>
					<dim>32</dim>
					<dim>320</dim>
				</port>
			</output>
		</layer>
		<layer id="57" name="onnx::Conv_286" type="Const" version="opset1">
			<data element_type="f32" offset="51248" shape="32, 32, 3" size="12288"/>
			<output>
				<port id="0" names="onnx::Conv_286" precision="FP32">
					<dim>32</dim>
					<dim>32</dim>
					<dim>3</dim>
				</port>
			</output>
		</layer>
		<layer id="58" name="Conv_41/WithoutBiases" type="Convolution" version="opset1">
			<data auto_pad="explicit" dilations="4" pads_begin="8" pads_end="8" strides="1"/>
			<input>
				<port id="0" precision="FP32">
					<dim>1</dim>
					<dim>32</dim>
					<dim>320</dim>
				</port>
				<port id="1" precision="FP32">
					<dim>32</dim>
					<dim>32</dim>
					<dim>3</dim>
				</port>
			</input>
			<output>
				<port id="2" precision="FP32">
					<dim>1</dim>
					<dim>32</dim>
					<dim>328</dim>
				</port>
			</output>
		</layer>
		<layer id="59" name="Conv_41/Dims1875" type="Const" version="opset1">
			<data element_type="f32" offset="63536" shape="1, 32, 1" size="128"/>
			<output>
				<port id="0" precision="FP32">
					<dim>1</dim>
					<dim>32</dim>
					<dim>1</dim>
				</port>
			</output>
		</layer>
		<layer id="60" name="Conv_41" type="Add" version="opset1">
			<data auto_broadcast="numpy"/>
			<input>
				<port id="0" precision="FP32">
					<dim>1</dim>
					<dim>32</dim>
					<dim>328</dim>
				</port>
				<port id="1" precision="FP32">
					<dim>1</dim>
					<dim>32</dim>
					<dim>1</dim>
				</port>
			</input>
			<output>
				<port id="2" names="input.83" precision="FP32">
					<dim>1</dim>
					<dim>32</dim>
					<dim>328</dim>
				</port>
			</output>
		</layer>
		<layer id="61" name="Relu_42" type="ReLU" version="opset1">
			<input>
				<port id="0" precision="FP32">
					<dim>1</dim>
					<dim>32</dim>
					<dim>328</dim>
				</port>
			</input>
			<output>
				<port id="1" names="input.87" precision="FP32">
					<dim>1</dim>
					<dim>32</dim>
					<dim>328</dim>
				</port>
			</output>
		</layer>
		<layer id="62" name="Slice_47/Concat22827403" type="Const" version="opset1">
			<data element_type="i64" offset="1080" shape="3" size="24"/>
			<output>
				<port id="0" precision="I64">
					<dim>3</dim>
				</port>
			</output>
		</layer>
		<layer id="63" name="Slice_47/Concat226822837466" type="Const" version="opset1">
			<data element_type="i64" offset="51224" shape="3" size="24"/>
			<output>
				<port id="0" precision="I64">
					<dim>3</dim>
				</port>
			</output>
		</layer>
		<layer id="64" name="Slice_47/Strides22847619" type="Const" version="opset1">
			<data element_type="i64" offset="1128" shape="3" size="24"/>
			<output>
				<port id="0" precision="I64">
					<dim>3</dim>
				</port>
			</output>
		</layer>
		<layer id="65" name="Slice_47" type="StridedSlice" version="opset1">
			<data begin_mask="1, 1, 0" ellipsis_mask="0, 0, 0" end_mask="1, 1, 0" new_axis_mask="0, 0, 0" shrink_axis_mask="0, 0, 0"/>
			<input>
				<port id="0" precision="FP32">
					<dim>1</dim>
					<dim>32</dim>
					<dim>328</dim>
				</port>
				<port id="1" precision="I64">
					<dim>3</dim>
				</port>
				<port id="2" precision="I64">
					<dim>3</dim>
				</port>
				<port id="3" precision="I64">
					<dim>3</dim>
				</port>
			</input>
			<output>
				<port id="4" names="onnx::Add_172" precision="FP32">
					<dim>1</dim>
					<dim>32</dim>
					<dim>320</dim>
				</port>
			</output>
		</layer>
		<layer id="66" name="Add_48" type="Add" version="opset1">
			<data auto_broadcast="numpy"/>
			<input>
				<port id="0" precision="FP32">
					<dim>1</dim>
					<dim>32</dim>
					<dim>320</dim>
				</port>
				<port id="1" precision="FP32">
					<dim>1</dim>
					<dim>32</dim>
					<dim>320</dim>
				</port>
			</input>
			<output>
				<port id="2" names="input.91" precision="FP32">
					<dim>1</dim>
					<dim>32</dim>
					<dim>320</dim>
				</port>
			</output>
		</layer>
		<layer id="67" name="Relu_49" type="ReLU" version="opset1">
			<input>
				<port id="0" precision="FP32">
					<dim>1</dim>
					<dim>32</dim>
					<dim>320</dim>
				</port>
			</input>
			<output>
				<port id="1" names="input.95" precision="FP32">
					<dim>1</dim>
					<dim>32</dim>
					<dim>320</dim>
				</port>
			</output>
		</layer>
		<layer id="68" name="onnx::Conv_289" type="Const" version="opset1">
			<data element_type="f32" offset="63664" shape="32, 32, 3" size="12288"/>
			<output>
				<port id="0" names="onnx::Conv_289" precision="FP32">
					<dim>32</dim>
					<dim>32</dim>
					<dim>3</dim>
				</port>
			</output>
		</layer>
		<layer id="69" name="Conv_50/WithoutBiases" type="Convolution" version="opset1">
			<data auto_pad="explicit" dilations="8" pads_begin="16" pads_end="16" strides="1"/>
			<input>
				<port id="0" precision="FP32">
					<dim>1</dim>
					<dim>32</dim>
					<dim>320</dim>
				</port>
				<port id="1" precision="FP32">
					<dim>32</dim>
					<dim>32</dim>
					<dim>3</dim>
				</port>
			</input>
			<output>
				<port id="2" precision="FP32">
					<dim>1</dim>
					<dim>32</dim>
					<dim>336</dim>
				</port>
			</output>
		</layer>
		<layer id="70" name="Conv_50/Dims1893" type="Const" version="opset1">
			<data element_type="f32" offset="75952" shape="1, 32, 1" size="128"/>
			<output>
				<port id="0" precision="FP32">
					<dim>1</dim>
					<dim>32</dim>
					<dim>1</dim>
				</port>
			</output>
		</layer>
		<layer id="71" name="Conv_50" type="Add" version="opset1">
			<data auto_broadcast="numpy"/>
			<input>
				<port id="0" precision="FP32">
					<dim>1</dim>
					<dim>32</dim>
					<dim>336</dim>
				</port>
				<port id="1" precision="FP32">
					<dim>1</dim>
					<dim>32</dim>
					<dim>1</dim>
				</port>
			</input>
			<output>
				<port id="2" names="input.103" precision="FP32">
					<dim>1</dim>
					<dim>32</dim>
					<dim>336</dim>
				</port>
			</output>
		</layer>
		<layer id="72" name="Relu_51" type="ReLU" version="opset1">
			<input>
				<port id="0" precision="FP32">
					<dim>1</dim>
					<dim>32</dim>
					<dim>336</dim>
				</port>
			</input>
			<output>
				<port id="1" names="input.107" precision="FP32">
					<dim>1</dim>
					<dim>32</dim>
					<dim>336</dim>
				</port>
			</output>
		</layer>
		<layer id="73" name="Slice_56/Concat23267490" type="Const" version="opset1">
			<data element_type="i64" offset="1080" shape="3" size="24"/>
			<output>
				<port id="0" precision="I64">
					<dim>3</dim>
				</port>
			</output>
		</layer>
		<layer id="74" name="Slice_56/Concat231223277514" type="Const" version="opset1">
			<data element_type="i64" offset="76080" shape="3" size="24"/>
			<output>
				<port id="0" precision="I64">
					<dim>3</dim>
				</port>
			</output>
		</layer>
		<layer id="75" name="Slice_56/Strides23287424" type="Const" version="opset1">
			<data element_type="i64" offset="1128" shape="3" size="24"/>
			<output>
				<port id="0" precision="I64">
					<dim>3</dim>
				</port>
			</output>
		</layer>
		<layer id="76" name="Slice_56" type="StridedSlice" version="opset1">
			<data begin_mask="1, 1, 0" ellipsis_mask="0, 0, 0" end_mask="1, 1, 0" new_axis_mask="0, 0, 0" shrink_axis_mask="0, 0, 0"/>
			<input>
				<port id="0" precision="FP32">
					<dim>1</dim>
					<dim>32</dim>
					<dim>336</dim>
				</port>
				<port id="1" precision="I64">
					<dim>3</dim>
				</port>
				<port id="2" precision="I64">
					<dim>3</dim>
				</port>
				<port id="3" precision="I64">
					<dim>3</dim>
				</port>
			</input>
			<output>
				<port id="4" names="onnx::Conv_182" precision="FP32">
					<dim>1</dim>
					<dim>32</dim>
					<dim>320</dim>
				</port>
			</output>
		</layer>
		<layer id="77" name="onnx::Conv_292" type="Const" version="opset1">
			<data element_type="f32" offset="76104" shape="32, 32, 3" size="12288"/>
			<output>
				<port id="0" names="onnx::Conv_292" precision="FP32">
					<dim>32</dim>
					<dim>32</dim>
					<dim>3</dim>
				</port>
			</output>
		</layer>
		<layer id="78" name="Conv_57/WithoutBiases" type="Convolution" version="opset1">
			<data auto_pad="explicit" dilations="8" pads_begin="16" pads_end="16" strides="1"/>
			<input>
				<port id="0" precision="FP32">
					<dim>1</dim>
					<dim>32</dim>
					<dim>320</dim>
				</port>
				<port id="1" precision="FP32">
					<dim>32</dim>
					<dim>32</dim>
					<dim>3</dim>
				</port>
			</input>
			<output>
				<port id="2" precision="FP32">
					<dim>1</dim>
					<dim>32</dim>
					<dim>336</dim>
				</port>
			</output>
		</layer>
		<layer id="79" name="Conv_57/Dims1911" type="Const" version="opset1">
			<data element_type="f32" offset="88392" shape="1, 32, 1" size="128"/>
			<output>
				<port id="0" precision="FP32">
					<dim>1</dim>
					<dim>32</dim>
					<dim>1</dim>
				</port>
			</output>
		</layer>
		<layer id="80" name="Conv_57" type="Add" version="opset1">
			<data auto_broadcast="numpy"/>
			<input>
				<port id="0" precision="FP32">
					<dim>1</dim>
					<dim>32</dim>
					<dim>336</dim>
				</port>
				<port id="1" precision="FP32">
					<dim>1</dim>
					<dim>32</dim>
					<dim>1</dim>
				</port>
			</input>
			<output>
				<port id="2" names="input.115" precision="FP32">
					<dim>1</dim>
					<dim>32</dim>
					<dim>336</dim>
				</port>
			</output>
		</layer>
		<layer id="81" name="Relu_58" type="ReLU" version="opset1">
			<input>
				<port id="0" precision="FP32">
					<dim>1</dim>
					<dim>32</dim>
					<dim>336</dim>
				</port>
			</input>
			<output>
				<port id="1" names="input.119" precision="FP32">
					<dim>1</dim>
					<dim>32</dim>
					<dim>336</dim>
				</port>
			</output>
		</layer>
		<layer id="82" name="Slice_63/Concat23707409" type="Const" version="opset1">
			<data element_type="i64" offset="1080" shape="3" size="24"/>
			<output>
				<port id="0" precision="I64">
					<dim>3</dim>
				</port>
			</output>
		</layer>
		<layer id="83" name="Slice_63/Concat235623717622" type="Const" version="opset1">
			<data element_type="i64" offset="76080" shape="3" size="24"/>
			<output>
				<port id="0" precision="I64">
					<dim>3</dim>
				</port>
			</output>
		</layer>
		<layer id="84" name="Slice_63/Strides23727436" type="Const" version="opset1">
			<data element_type="i64" offset="1128" shape="3" size="24"/>
			<output>
				<port id="0" precision="I64">
					<dim>3</dim>
				</port>
			</output>
		</layer>
		<layer id="85" name="Slice_63" type="StridedSlice" version="opset1">
			<data begin_mask="1, 1, 0" ellipsis_mask="0, 0, 0" end_mask="1, 1, 0" new_axis_mask="0, 0, 0" shrink_axis_mask="0, 0, 0"/>
			<input>
				<port id="0" precision="FP32">
					<dim>1</dim>
					<dim>32</dim>
					<dim>336</dim>
				</port>
				<port id="1" precision="I64">
					<dim>3</dim>
				</port>
				<port id="2" precision="I64">
					<dim>3</dim>
				</port>
				<port id="3" precision="I64">
					<dim>3</dim>
				</port>
			</input>
			<output>
				<port id="4" names="onnx::Add_190" precision="FP32">
					<dim>1</dim>
					<dim>32</dim>
					<dim>320</dim>
				</port>
			</output>
		</layer>
		<layer id="86" name="Add_64" type="Add" version="opset1">
			<data auto_broadcast="numpy"/>
			<input>
				<port id="0" precision="FP32">
					<dim>1</dim>
					<dim>32</dim>
					<dim>320</dim>
				</port>
				<port id="1" precision="FP32">
					<dim>1</dim>
					<dim>32</dim>
					<dim>320</dim>
				</port>
			</input>
			<output>
				<port id="2" names="input.123" precision="FP32">
					<dim>1</dim>
					<dim>32</dim>
					<dim>320</dim>
				</port>
			</output>
		</layer>
		<layer id="87" name="Relu_65" type="ReLU" version="opset1">
			<input>
				<port id="0" precision="FP32">
					<dim>1</dim>
					<dim>32</dim>
					<dim>320</dim>
				</port>
			</input>
			<output>
				<port id="1" names="input.127" precision="FP32">
					<dim>1</dim>
					<dim>32</dim>
					<dim>320</dim>
				</port>
			</output>
		</layer>
		<layer id="88" name="onnx::Conv_295" type="Const" version="opset1">
			<data element_type="f32" offset="88520" shape="32, 32, 3" size="12288"/>
			<output>
				<port id="0" names="onnx::Conv_295" precision="FP32">
					<dim>32</dim>
					<dim>32</dim>
					<dim>3</dim>
				</port>
			</output>
		</layer>
		<layer id="89" name="Conv_66/WithoutBiases" type="Convolution" version="opset1">
			<data auto_pad="explicit" dilations="16" pads_begin="32" pads_end="32" strides="1"/>
			<input>
				<port id="0" precision="FP32">
					<dim>1</dim>
					<dim>32</dim>
					<dim>320</dim>
				</port>
				<port id="1" precision="FP32">
					<dim>32</dim>
					<dim>32</dim>
					<dim>3</dim>
				</port>
			</input>
			<output>
				<port id="2" precision="FP32">
					<dim>1</dim>
					<dim>32</dim>
					<dim>352</dim>
				</port>
			</output>
		</layer>
		<layer id="90" name="Conv_66/Dims1881" type="Const" version="opset1">
			<data element_type="f32" offset="100808" shape="1, 32, 1" size="128"/>
			<output>
				<port id="0" precision="FP32">
					<dim>1</dim>
					<dim>32</dim>
					<dim>1</dim>
				</port>
			</output>
		</layer>
		<layer id="91" name="Conv_66" type="Add" version="opset1">
			<data auto_broadcast="numpy"/>
			<input>
				<port id="0" precision="FP32">
					<dim>1</dim>
					<dim>32</dim>
					<dim>352</dim>
				</port>
				<port id="1" precision="FP32">
					<dim>1</dim>
					<dim>32</dim>
					<dim>1</dim>
				</port>
			</input>
			<output>
				<port id="2" names="input.135" precision="FP32">
					<dim>1</dim>
					<dim>32</dim>
					<dim>352</dim>
				</port>
			</output>
		</layer>
		<layer id="92" name="Relu_67" type="ReLU" version="opset1">
			<input>
				<port id="0" precision="FP32">
					<dim>1</dim>
					<dim>32</dim>
					<dim>352</dim>
				</port>
			</input>
			<output>
				<port id="1" names="input.139" precision="FP32">
					<dim>1</dim>
					<dim>32</dim>
					<dim>352</dim>
				</port>
			</output>
		</layer>
		<layer id="93" name="Slice_72/Concat24147430" type="Const" version="opset1">
			<data element_type="i64" offset="1080" shape="3" size="24"/>
			<output>
				<port id="0" precision="I64">
					<dim>3</dim>
				</port>
			</output>
		</layer>
		<layer id="94" name="Slice_72/Concat240024157484" type="Const" version="opset1">
			<data element_type="i64" offset="100936" shape="3" size="24"/>
			<output>
				<port id="0" precision="I64">
					<dim>3</dim>
				</port>
			</output>
		</layer>
		<layer id="95" name="Slice_72/Strides24167553" type="Const" version="opset1">
			<data element_type="i64" offset="1128" shape="3" size="24"/>
			<output>
				<port id="0" precision="I64">
					<dim>3</dim>
				</port>
			</output>
		</layer>
		<layer id="96" name="Slice_72" type="StridedSlice" version="opset1">
			<data begin_mask="1, 1, 0" ellipsis_mask="0, 0, 0" end_mask="1, 1, 0" new_axis_mask="0, 0, 0" shrink_axis_mask="0, 0, 0"/>
			<input>
				<port id="0" precision="FP32">
					<dim>1</dim>
					<dim>32</dim>
					<dim>352</dim>
				</port>
				<port id="1" precision="I64">
					<dim>3</dim>
				</port>
				<port id="2" precision="I64">
					<dim>3</dim>
				</port>
				<port id="3" precision="I64">
					<dim>3</dim>
				</port>
			</input>
			<output>
				<port id="4" names="onnx::Conv_200" precision="FP32">
					<dim>1</dim>
					<dim>32</dim>
					<dim>320</dim>
				</port>
			</output>
		</layer>
		<layer id="97" name="onnx::Conv_298" type="Const" version="opset1">
			<data element_type="f32" offset="100960" shape="32, 32, 3" size="12288"/>
			<output>
				<port id="0" names="onnx::Conv_298" precision="FP32">
					<dim>32</dim>
					<dim>32</dim>
					<dim>3</dim>
				</port>
			</output>
		</layer>
		<layer id="98" name="Conv_73/WithoutBiases" type="Convolution" version="opset1">
			<data auto_pad="explicit" dilations="16" pads_begin="32" pads_end="32" strides="1"/>
			<input>
				<port id="0" precision="FP32">
					<dim>1</dim>
					<dim>32</dim>
					<dim>320</dim>
				</port>
				<port id="1" precision="FP32">
					<dim>32</dim>
					<dim>32</dim>
					<dim>3</dim>
				</port>
			</input>
			<output>
				<port id="2" precision="FP32">
					<dim>1</dim>
					<dim>32</dim>
					<dim>352</dim>
				</port>
			</output>
		</layer>
		<layer id="99" name="Conv_73/Dims1863" type="Const" version="opset1">
			<data element_type="f32" offset="113248" shape="1, 32, 1" size="128"/>
			<output>
				<port id="0" precision="FP32">
					<dim>1</dim>
					<dim>32</dim>
					<dim>1</dim>
				</port>
			</output>
		</layer>
		<layer id="100" name="Conv_73" type="Add" version="opset1">
			<data auto_broadcast="numpy"/>
			<input>
				<port id="0" precision="FP32">
					<dim>1</dim>
					<dim>32</dim>
					<dim>352</dim>
				</port>
				<port id="1" precision="FP32">
					<dim>1</dim>
					<dim>32</dim>
					<dim>1</dim>
				</port>
			</input>
			<output>
				<port id="2" names="input.147" precision="FP32">
					<dim>1</dim>
					<dim>32</dim>
					<dim>352</dim>
				</port>
			</output>
		</layer>
		<layer id="101" name="Relu_74" type="ReLU" version="opset1">
			<input>
				<port id="0" precision="FP32">
					<dim>1</dim>
					<dim>32</dim>
					<dim>352</dim>
				</port>
			</input>
			<output>
				<port id="1" names="input.151" precision="FP32">
					<dim>1</dim>
					<dim>32</dim>
					<dim>352</dim>
				</port>
			</output>
		</layer>
		<layer id="102" name="Slice_79/Concat24587616" type="Const" version="opset1">
			<data element_type="i64" offset="1080" shape="3" size="24"/>
			<output>
				<port id="0" precision="I64">
					<dim>3</dim>
				</port>
			</output>
		</layer>
		<layer id="103" name="Slice_79/Concat244424597613" type="Const" version="opset1">
			<data element_type="i64" offset="100936" shape="3" size="24"/>
			<output>
				<port id="0" precision="I64">
					<dim>3</dim>
				</port>
			</output>
		</layer>
		<layer id="104" name="Slice_79/Strides24607445" type="Const" version="opset1">
			<data element_type="i64" offset="1128" shape="3" size="24"/>
			<output>
				<port id="0" precision="I64">
					<dim>3</dim>
				</port>
			</output>
		</layer>
		<layer id="105" name="Slice_79" type="StridedSlice" version="opset1">
			<data begin_mask="1, 1, 0" ellipsis_mask="0, 0, 0" end_mask="1, 1, 0" new_axis_mask="0, 0, 0" shrink_axis_mask="0, 0, 0"/>
			<input>
				<port id="0" precision="FP32">
					<dim>1</dim>
					<dim>32</dim>
					<dim>352</dim>
				</port>
				<port id="1" precision="I64">
					<dim>3</dim>
				</port>
				<port id="2" precision="I64">
					<dim>3</dim>
				</port>
				<port id="3" precision="I64">
					<dim>3</dim>
				</port>
			</input>
			<output>
				<port id="4" names="onnx::Add_208" precision="FP32">
					<dim>1</dim>
					<dim>32</dim>
					<dim>320</dim>
				</port>
			</output>
		</layer>
		<layer id="106" name="Add_80" type="Add" version="opset1">
			<data auto_broadcast="numpy"/>
			<input>
				<port id="0" precision="FP32">
					<dim>1</dim>
					<dim>32</dim>
					<dim>320</dim>
				</port>
				<port id="1" precision="FP32">
					<dim>1</dim>
					<dim>32</dim>
					<dim>320</dim>
				</port>
			</input>
			<output>
				<port id="2" names="input.155" precision="FP32">
					<dim>1</dim>
					<dim>32</dim>
					<dim>320</dim>
				</port>
			</output>
		</layer>
		<layer id="107" name="Relu_81" type="ReLU" version="opset1">
			<input>
				<port id="0" precision="FP32">
					<dim>1</dim>
					<dim>32</dim>
					<dim>320</dim>
				</port>
			</input>
			<output>
				<port id="1" names="input.159" precision="FP32">
					<dim>1</dim>
					<dim>32</dim>
					<dim>320</dim>
				</port>
			</output>
		</layer>
		<layer id="108" name="onnx::Conv_301" type="Const" version="opset1">
			<data element_type="f32" offset="113376" shape="32, 32, 3" size="12288"/>
			<output>
				<port id="0" names="onnx::Conv_301" precision="FP32">
					<dim>32</dim>
					<dim>32</dim>
					<dim>3</dim>
				</port>
			</output>
		</layer>
		<layer id="109" name="Conv_82/WithoutBiases" type="Convolution" version="opset1">
			<data auto_pad="explicit" dilations="32" pads_begin="64" pads_end="64" strides="1"/>
			<input>
				<port id="0" precision="FP32">
					<dim>1</dim>
					<dim>32</dim>
					<dim>320</dim>
				</port>
				<port id="1" precision="FP32">
					<dim>32</dim>
					<dim>32</dim>
					<dim>3</dim>
				</port>
			</input>
			<output>
				<port id="2" precision="FP32">
					<dim>1</dim>
					<dim>32</dim>
					<dim>384</dim>
				</port>
			</output>
		</layer>
		<layer id="110" name="Conv_82/Dims1821" type="Const" version="opset1">
			<data element_type="f32" offset="125664" shape="1, 32, 1" size="128"/>
			<output>
				<port id="0" precision="FP32">
					<dim>1</dim>
					<dim>32</dim>
					<dim>1</dim>
				</port>
			</output>
		</layer>
		<layer id="111" name="Conv_82" type="Add" version="opset1">
			<data auto_broadcast="numpy"/>
			<input>
				<port id="0" precision="FP32">
					<dim>1</dim>
					<dim>32</dim>
					<dim>384</dim>
				</port>
				<port id="1" precision="FP32">
					<dim>1</dim>
					<dim>32</dim>
					<dim>1</dim>
				</port>
			</input>
			<output>
				<port id="2" names="input.167" precision="FP32">
					<dim>1</dim>
					<dim>32</dim>
					<dim>384</dim>
				</port>
			</output>
		</layer>
		<layer id="112" name="Relu_83" type="ReLU" version="opset1">
			<input>
				<port id="0" precision="FP32">
					<dim>1</dim>
					<dim>32</dim>
					<dim>384</dim>
				</port>
			</input>
			<output>
				<port id="1" names="input.171" precision="FP32">
					<dim>1</dim>
					<dim>32</dim>
					<dim>384</dim>
				</port>
			</output>
		</layer>
		<layer id="113" name="Slice_88/Concat25027511" type="Const" version="opset1">
			<data element_type="i64" offset="1080" shape="3" size="24"/>
			<output>
				<port id="0" precision="I64">
					<dim>3</dim>
				</port>
			</output>
		</layer>
		<layer id="114" name="Slice_88/Concat248825037496" type="Const" version="opset1">
			<data element_type="i64" offset="125792" shape="3" size="24"/>
			<output>
				<port id="0" precision="I64">
					<dim>3</dim>
				</port>
			</output>
		</layer>
		<layer id="115" name="Slice_88/Strides25047493" type="Const" version="opset1">
			<data element_type="i64" offset="1128" shape="3" size="24"/>
			<output>
				<port id="0" precision="I64">
					<dim>3</dim>
				</port>
			</output>
		</layer>
		<layer id="116" name="Slice_88" type="StridedSlice" version="opset1">
			<data begin_mask="1, 1, 0" ellipsis_mask="0, 0, 0" end_mask="1, 1, 0" new_axis_mask="0, 0, 0" shrink_axis_mask="0, 0, 0"/>
			<input>
				<port id="0" precision="FP32">
					<dim>1</dim>
					<dim>32</dim>
					<dim>384</dim>
				</port>
				<port id="1" precision="I64">
					<dim>3</dim>
				</port>
				<port id="2" precision="I64">
					<dim>3</dim>
				</port>
				<port id="3" precision="I64">
					<dim>3</dim>
				</port>
			</input>
			<output>
				<port id="4" names="onnx::Conv_218" precision="FP32">
					<dim>1</dim>
					<dim>32</dim>
					<dim>320</dim>
				</port>
			</output>
		</layer>
		<layer id="117" name="onnx::Conv_304" type="Const" version="opset1">
			<data element_type="f32" offset="125816" shape="32, 32, 3" size="12288"/>
			<output>
				<port id="0" names="onnx::Conv_304" precision="FP32">
					<dim>32</dim>
					<dim>32</dim>
					<dim>3</dim>
				</port>
			</output>
		</layer>
		<layer id="118" name="Conv_89/WithoutBiases" type="Convolution" version="opset1">
			<data auto_pad="explicit" dilations="32" pads_begin="64" pads_end="64" strides="1"/>
			<input>
				<port id="0" precision="FP32">
					<dim>1</dim>
					<dim>32</dim>
					<dim>320</dim>
				</port>
				<port id="1" precision="FP32">
					<dim>32</dim>
					<dim>32</dim>
					<dim>3</dim>
				</port>
			</input>
			<output>
				<port id="2" precision="FP32">
					<dim>1</dim>
					<dim>32</dim>
					<dim>384</dim>
				</port>
			</output>
		</layer>
		<layer id="119" name="Conv_89/Dims1887" type="Const" version="opset1">
			<data element_type="f32" offset="138104" shape="1, 32, 1" size="128"/>
			<output>
				<port id="0" precision="FP32">
					<dim>1</dim>
					<dim>32</dim>
					<dim>1</dim>
				</port>
			</output>
		</layer>
		<layer id="120" name="Conv_89" type="Add" version="opset1">
			<data auto_broadcast="numpy"/>
			<input>
				<port id="0" precision="FP32">
					<dim>1</dim>
					<dim>32</dim>
					<dim>384</dim>
				</port>
				<port id="1" precision="FP32">
					<dim>1</dim>
					<dim>32</dim>
					<dim>1</dim>
				</port>
			</input>
			<output>
				<port id="2" names="input.179" precision="FP32">
					<dim>1</dim>
					<dim>32</dim>
					<dim>384</dim>
				</port>
			</output>
		</layer>
		<layer id="121" name="Relu_90" type="ReLU" version="opset1">
			<input>
				<port id="0" precision="FP32">
					<dim>1</dim>
					<dim>32</dim>
					<dim>384</dim>
				</port>
			</input>
			<output>
				<port id="1" names="input.183" precision="FP32">
					<dim>1</dim>
					<dim>32</dim>
					<dim>384</dim>
				</port>
			</output>
		</layer>
		<layer id="122" name="Slice_95/Concat25467631" type="Const" version="opset1">
			<data element_type="i64" offset="1080" shape="3" size="24"/>
			<output>
				<port id="0" precision="I64">
					<dim>3</dim>
				</port>
			</output>
		</layer>
		<layer id="123" name="Slice_95/Concat253225477607" type="Const" version="opset1">
			<data element_type="i64" offset="125792" shape="3" size="24"/>
			<output>
				<port id="0" precision="I64">
					<dim>3</dim>
				</port>
			</output>
		</layer>
		<layer id="124" name="Slice_95/Strides25487571" type="Const" version="opset1">
			<data element_type="i64" offset="1128" shape="3" size="24"/>
			<output>
				<port id="0" precision="I64">
					<dim>3</dim>
				</port>
			</output>
		</layer>
		<layer id="125" name="Slice_95" type="StridedSlice" version="opset1">
			<data begin_mask="1, 1, 0" ellipsis_mask="0, 0, 0" end_mask="1, 1, 0" new_axis_mask="0, 0, 0" shrink_axis_mask="0, 0, 0"/>
			<input>
				<port id="0" precision="FP32">
					<dim>1</dim>
					<dim>32</dim>
					<dim>384</dim>
				</port>
				<port id="1" precision="I64">
					<dim>3</dim>
				</port>
				<port id="2" precision="I64">
					<dim>3</dim>
				</port>
				<port id="3" precision="I64">
					<dim>3</dim>
				</port>
			</input>
			<output>
				<port id="4" names="onnx::Add_226" precision="FP32">
					<dim>1</dim>
					<dim>32</dim>
					<dim>320</dim>
				</port>
			</output>
		</layer>
		<layer id="126" name="Add_96" type="Add" version="opset1">
			<data auto_broadcast="numpy"/>
			<input>
				<port id="0" precision="FP32">
					<dim>1</dim>
					<dim>32</dim>
					<dim>320</dim>
				</port>
				<port id="1" precision="FP32">
					<dim>1</dim>
					<dim>32</dim>
					<dim>320</dim>
				</port>
			</input>
			<output>
				<port id="2" names="input.187" precision="FP32">
					<dim>1</dim>
					<dim>32</dim>
					<dim>320</dim>
				</port>
			</output>
		</layer>
		<layer id="127" name="Relu_97" type="ReLU" version="opset1">
			<input>
				<port id="0" precision="FP32">
					<dim>1</dim>
					<dim>32</dim>
					<dim>320</dim>
				</port>
			</input>
			<output>
				<port id="1" names="input.191" precision="FP32">
					<dim>1</dim>
					<dim>32</dim>
					<dim>320</dim>
				</port>
			</output>
		</layer>
		<layer id="128" name="onnx::Conv_307" type="Const" version="opset1">
			<data element_type="f32" offset="138232" shape="32, 32, 3" size="12288"/>
			<output>
				<port id="0" names="onnx::Conv_307" precision="FP32">
					<dim>32</dim>
					<dim>32</dim>
					<dim>3</dim>
				</port>
			</output>
		</layer>
		<layer id="129" name="Conv_98/WithoutBiases" type="Convolution" version="opset1">
			<data auto_pad="explicit" dilations="64" pads_begin="128" pads_end="128" strides="1"/>
			<input>
				<port id="0" precision="FP32">
					<dim>1</dim>
					<dim>32</dim>
					<dim>320</dim>
				</port>
				<port id="1" precision="FP32">
					<dim>32</dim>
					<dim>32</dim>
					<dim>3</dim>
				</port>
			</input>
			<output>
				<port id="2" precision="FP32">
					<dim>1</dim>
					<dim>32</dim>
					<dim>448</dim>
				</port>
			</output>
		</layer>
		<layer id="130" name="Conv_98/Dims1827" type="Const" version="opset1">
			<data element_type="f32" offset="150520" shape="1, 32, 1" size="128"/>
			<output>
				<port id="0" precision="FP32">
					<dim>1</dim>
					<dim>32</dim>
					<dim>1</dim>
				</port>
			</output>
		</layer>
		<layer id="131" name="Conv_98" type="Add" version="opset1">
			<data auto_broadcast="numpy"/>
			<input>
				<port id="0" precision="FP32">
					<dim>1</dim>
					<dim>32</dim>
					<dim>448</dim>
				</port>
				<port id="1" precision="FP32">
					<dim>1</dim>
					<dim>32</dim>
					<dim>1</dim>
				</port>
			</input>
			<output>
				<port id="2" names="input.199" precision="FP32">
					<dim>1</dim>
					<dim>32</dim>
					<dim>448</dim>
				</port>
			</output>
		</layer>
		<layer id="132" name="Relu_99" type="ReLU" version="opset1">
			<input>
				<port id="0" precision="FP32">
					<dim>1</dim>
					<dim>32</dim>
					<dim>448</dim>
				</port>
			</input>
			<output>
				<port id="1" names="input.203" precision="FP32">
					<dim>1</dim>
					<dim>32</dim>
					<dim>448</dim>
				</port>
			</output>
		</layer>
		<layer id="133" name="Slice_104/Concat25907580" type="Const" version="opset1">
			<data element_type="i64" offset="1080" shape="3" size="24"/>
			<output>
				<port id="0" precision="I64">
					<dim>3</dim>
				</port>
			</output>
		</layer>
		<layer id="134" name="Slice_104/Concat257625917592" type="Const" version="opset1">
			<data element_type="i64" offset="150648" shape="3" size="24"/>
			<output>
				<port id="0" precision="I64">
					<dim>3</dim>
				</port>
			</output>
		</layer>
		<layer id="135" name="Slice_104/Strides25927646" type="Const" version="opset1">
			<data element_type="i64" offset="1128" shape="3" size="24"/>
			<output>
				<port id="0" precision="I64">
					<dim>3</dim>
				</port>
			</output>
		</layer>
		<layer id="136" name="Slice_104" type="StridedSlice" version="opset1">
			<data begin_mask="1, 1, 0" ellipsis_mask="0, 0, 0" end_mask="1, 1, 0" new_axis_mask="0, 0, 0" shrink_axis_mask="0, 0, 0"/>
			<input>
				<port id="0" precision="FP32">
					<dim>1</dim>
					<dim>32</dim>
					<dim>448</dim>
				</port>
				<port id="1" precision="I64">
					<dim>3</dim>
				</port>
				<port id="2" precision="I64">
					<dim>3</dim>
				</port>
				<port id="3" precision="I64">
					<dim>3</dim>
				</port>
			</input>
			<output>
				<port id="4" names="onnx::Conv_236" precision="FP32">
					<dim>1</dim>
					<dim>32</dim>
					<dim>320</dim>
				</port>
			</output>
		</layer>
		<layer id="137" name="onnx::Conv_310" type="Const" version="opset1">
			<data element_type="f32" offset="150672" shape="32, 32, 3" size="12288"/>
			<output>
				<port id="0" names="onnx::Conv_310" precision="FP32">
					<dim>32</dim>
					<dim>32</dim>
					<dim>3</dim>
				</port>
			</output>
		</layer>
		<layer id="138" name="Conv_105/WithoutBiases" type="Convolution" version="opset1">
			<data auto_pad="explicit" dilations="64" pads_begin="128" pads_end="128" strides="1"/>
			<input>
				<port id="0" precision="FP32">
					<dim>1</dim>
					<dim>32</dim>
					<dim>320</dim>
				</port>
				<port id="1" precision="FP32">
					<dim>32</dim>
					<dim>32</dim>
					<dim>3</dim>
				</port>
			</input>
			<output>
				<port id="2" precision="FP32">
					<dim>1</dim>
					<dim>32</dim>
					<dim>448</dim>
				</port>
			</output>
		</layer>
		<layer id="139" name="Conv_105/Dims1917" type="Const" version="opset1">
			<data element_type="f32" offset="162960" shape="1, 32, 1" size="128"/>
			<output>
				<port id="0" precision="FP32">
					<dim>1</dim>
					<dim>32</dim>
					<dim>1</dim>
				</port>
			</output>
		</layer>
		<layer id="140" name="Conv_105" type="Add" version="opset1">
			<data auto_broadcast="numpy"/>
			<input>
				<port id="0" precision="FP32">
					<dim>1</dim>
					<dim>32</dim>
					<dim>448</dim>
				</port>
				<port id="1" precision="FP32">
					<dim>1</dim>
					<dim>32</dim>
					<dim>1</dim>
				</port>
			</input>
			<output>
				<port id="2" names="input.211" precision="FP32">
					<dim>1</dim>
					<dim>32</dim>
					<dim>448</dim>
				</port>
			</output>
		</layer>
		<layer id="141" name="Relu_106" type="ReLU" version="opset1">
			<input>
				<port id="0" precision="FP32">
					<dim>1</dim>
					<dim>32</dim>
					<dim>448</dim>
				</port>
			</input>
			<output>
				<port id="1" names="input.215" precision="FP32">
					<dim>1</dim>
					<dim>32</dim>
					<dim>448</dim>
				</port>
			</output>
		</layer>
		<layer id="142" name="Slice_111/Concat26347604" type="Const" version="opset1">
			<data element_type="i64" offset="1080" shape="3" size="24"/>
			<output>
				<port id="0" precision="I64">
					<dim>3</dim>
				</port>
			</output>
		</layer>
		<layer id="143" name="Slice_111/Concat262026357523" type="Const" version="opset1">
			<data element_type="i64" offset="150648" shape="3" size="24"/>
			<output>
				<port id="0" precision="I64">
					<dim>3</dim>
				</port>
			</output>
		</layer>
		<layer id="144" name="Slice_111/Strides26367574" type="Const" version="opset1">
			<data element_type="i64" offset="1128" shape="3" size="24"/>
			<output>
				<port id="0" precision="I64">
					<dim>3</dim>
				</port>
			</output>
		</layer>
		<layer id="145" name="Slice_111" type="StridedSlice" version="opset1">
			<data begin_mask="1, 1, 0" ellipsis_mask="0, 0, 0" end_mask="1, 1, 0" new_axis_mask="0, 0, 0" shrink_axis_mask="0, 0, 0"/>
			<input>
				<port id="0" precision="FP32">
					<dim>1</dim>
					<dim>32</dim>
					<dim>448</dim>
				</port>
				<port id="1" precision="I64">
					<dim>3</dim>
				</port>
				<port id="2" precision="I64">
					<dim>3</dim>
				</port>
				<port id="3" precision="I64">
					<dim>3</dim>
				</port>
			</input>
			<output>
				<port id="4" names="onnx::Add_244" precision="FP32">
					<dim>1</dim>
					<dim>32</dim>
					<dim>320</dim>
				</port>
			</output>
		</layer>
		<layer id="146" name="Add_112" type="Add" version="opset1">
			<data auto_broadcast="numpy"/>
			<input>
				<port id="0" precision="FP32">
					<dim>1</dim>
					<dim>32</dim>
					<dim>320</dim>
				</port>
				<port id="1" precision="FP32">
					<dim>1</dim>
					<dim>32</dim>
					<dim>320</dim>
				</port>
			</input>
			<output>
				<port id="2" names="input.219" precision="FP32">
					<dim>1</dim>
					<dim>32</dim>
					<dim>320</dim>
				</port>
			</output>
		</layer>
		<layer id="147" name="Relu_113" type="ReLU" version="opset1">
			<input>
				<port id="0" precision="FP32">
					<dim>1</dim>
					<dim>32</dim>
					<dim>320</dim>
				</port>
			</input>
			<output>
				<port id="1" names="input.223" precision="FP32">
					<dim>1</dim>
					<dim>32</dim>
					<dim>320</dim>
				</port>
			</output>
		</layer>
		<layer id="148" name="onnx::Conv_313" type="Const" version="opset1">
			<data element_type="f32" offset="163088" shape="2, 32, 3" size="768"/>
			<output>
				<port id="0" names="onnx::Conv_313" precision="FP32">
					<dim>2</dim>
					<dim>32</dim>
					<dim>3</dim>
				</port>
			</output>
		</layer>
		<layer id="149" name="Conv_114/WithoutBiases" type="Convolution" version="opset1">
			<data auto_pad="explicit" dilations="128" pads_begin="256" pads_end="256" strides="1"/>
			<input>
				<port id="0" precision="FP32">
					<dim>1</dim>
					<dim>32</dim>
					<dim>320</dim>
				</port>
				<port id="1" precision="FP32">
					<dim>2</dim>
					<dim>32</dim>
					<dim>3</dim>
				</port>
			</input>
			<output>
				<port id="2" precision="FP32">
					<dim>1</dim>
					<dim>2</dim>
					<dim>576</dim>
				</port>
			</output>
		</layer>
		<layer id="150" name="Conv_114/Dims1833" type="Const" version="opset1">
			<data element_type="f32" offset="163856" shape="1, 2, 1" size="8"/>
			<output>
				<port id="0" precision="FP32">
					<dim>1</dim>
					<dim>2</dim>
					<dim>1</dim>
				</port>
			</output>
		</layer>
		<layer id="151" name="Conv_114" type="Add" version="opset1">
			<data auto_broadcast="numpy"/>
			<input>
				<port id="0" precision="FP32">
					<dim>1</dim>
					<dim>2</dim>
					<dim>576</dim>
				</port>
				<port id="1" precision="FP32">
					<dim>1</dim>
					<dim>2</dim>
					<dim>1</dim>
				</port>
			</input>
			<output>
				<port id="2" names="input.231" precision="FP32">
					<dim>1</dim>
					<dim>2</dim>
					<dim>576</dim>
				</port>
			</output>
		</layer>
		<layer id="152" name="Relu_115" type="ReLU" version="opset1">
			<input>
				<port id="0" precision="FP32">
					<dim>1</dim>
					<dim>2</dim>
					<dim>576</dim>
				</port>
			</input>
			<output>
				<port id="1" names="input.235" precision="FP32">
					<dim>1</dim>
					<dim>2</dim>
					<dim>576</dim>
				</port>
			</output>
		</layer>
		<layer id="153" name="Slice_120/Concat26787415" type="Const" version="opset1">
			<data element_type="i64" offset="1080" shape="3" size="24"/>
			<output>
				<port id="0" precision="I64">
					<dim>3</dim>
				</port>
			</output>
		</layer>
		<layer id="154" name="Slice_120/Concat266426797625" type="Const" version="opset1">
			<data element_type="i64" offset="163864" shape="3" size="24"/>
			<output>
				<port id="0" precision="I64">
					<dim>3</dim>
				</port>
			</output>
		</layer>
		<layer id="155" name="Slice_120/Strides26807598" type="Const" version="opset1">
			<data element_type="i64" offset="1128" shape="3" size="24"/>
			<output>
				<port id="0" precision="I64">
					<dim>3</dim>
				</port>
			</output>
		</layer>
		<layer id="156" name="Slice_120" type="StridedSlice" version="opset1">
			<data begin_mask="1, 1, 0" ellipsis_mask="0, 0, 0" end_mask="1, 1, 0" new_axis_mask="0, 0, 0" shrink_axis_mask="0, 0, 0"/>
			<input>
				<port id="0" precision="FP32">
					<dim>1</dim>
					<dim>2</dim>
					<dim>576</dim>
				</port>
				<port id="1" precision="I64">
					<dim>3</dim>
				</port>
				<port id="2" precision="I64">
					<dim>3</dim>
				</port>
				<port id="3" precision="I64">
					<dim>3</dim>
				</port>
			</input>
			<output>
				<port id="4" names="onnx::Conv_254" precision="FP32">
					<dim>1</dim>
					<dim>2</dim>
					<dim>320</dim>
				</port>
			</output>
		</layer>
		<layer id="157" name="onnx::Conv_316" type="Const" version="opset1">
			<data element_type="f32" offset="163888" shape="2, 2, 3" size="48"/>
			<output>
				<port id="0" names="onnx::Conv_316" precision="FP32">
					<dim>2</dim>
					<dim>2</dim>
					<dim>3</dim>
				</port>
			</output>
		</layer>
		<layer id="158" name="Conv_121/WithoutBiases" type="Convolution" version="opset1">
			<data auto_pad="explicit" dilations="128" pads_begin="256" pads_end="256" strides="1"/>
			<input>
				<port id="0" precision="FP32">
					<dim>1</dim>
					<dim>2</dim>
					<dim>320</dim>
				</port>
				<port id="1" precision="FP32">
					<dim>2</dim>
					<dim>2</dim>
					<dim>3</dim>
				</port>
			</input>
			<output>
				<port id="2" precision="FP32">
					<dim>1</dim>
					<dim>2</dim>
					<dim>576</dim>
				</port>
			</output>
		</layer>
		<layer id="159" name="Conv_121/Dims1845" type="Const" version="opset1">
			<data element_type="f32" offset="163936" shape="1, 2, 1" size="8"/>
			<output>
				<port id="0" precision="FP32">
					<dim>1</dim>
					<dim>2</dim>
					<dim>1</dim>
				</port>
			</output>
		</layer>
		<layer id="160" name="Conv_121" type="Add" version="opset1">
			<data auto_broadcast="numpy"/>
			<input>
				<port id="0" precision="FP32">
					<dim>1</dim>
					<dim>2</dim>
					<dim>576</dim>
				</port>
				<port id="1" precision="FP32">
					<dim>1</dim>
					<dim>2</dim>
					<dim>1</dim>
				</port>
			</input>
			<output>
				<port id="2" names="input.243" precision="FP32">
					<dim>1</dim>
					<dim>2</dim>
					<dim>576</dim>
				</port>
			</output>
		</layer>
		<layer id="161" name="Relu_122" type="ReLU" version="opset1">
			<input>
				<port id="0" precision="FP32">
					<dim>1</dim>
					<dim>2</dim>
					<dim>576</dim>
				</port>
			</input>
			<output>
				<port id="1" names="input.247" precision="FP32">
					<dim>1</dim>
					<dim>2</dim>
					<dim>576</dim>
				</port>
			</output>
		</layer>
		<layer id="162" name="Slice_127/Concat27227508" type="Const" version="opset1">
			<data element_type="i64" offset="1080" shape="3" size="24"/>
			<output>
				<port id="0" precision="I64">
					<dim>3</dim>
				</port>
			</output>
		</layer>
		<layer id="163" name="Slice_127/Concat270827237454" type="Const" version="opset1">
			<data element_type="i64" offset="163864" shape="3" size="24"/>
			<output>
				<port id="0" precision="I64">
					<dim>3</dim>
				</port>
			</output>
		</layer>
		<layer id="164" name="Slice_127/Strides27247397" type="Const" version="opset1">
			<data element_type="i64" offset="1128" shape="3" size="24"/>
			<output>
				<port id="0" precision="I64">
					<dim>3</dim>
				</port>
			</output>
		</layer>
		<layer id="165" name="Slice_127" type="StridedSlice" version="opset1">
			<data begin_mask="1, 1, 0" ellipsis_mask="0, 0, 0" end_mask="1, 1, 0" new_axis_mask="0, 0, 0" shrink_axis_mask="0, 0, 0"/>
			<input>
				<port id="0" precision="FP32">
					<dim>1</dim>
					<dim>2</dim>
					<dim>576</dim>
				</port>
				<port id="1" precision="I64">
					<dim>3</dim>
				</port>
				<port id="2" precision="I64">
					<dim>3</dim>
				</port>
				<port id="3" precision="I64">
					<dim>3</dim>
				</port>
			</input>
			<output>
				<port id="4" names="onnx::Add_262" precision="FP32">
					<dim>1</dim>
					<dim>2</dim>
					<dim>320</dim>
				</port>
			</output>
		</layer>
		<layer id="166" name="tcn.7.downsample.weight" type="Const" version="opset1">
			<data element_type="f32" offset="163944" shape="2, 32, 1" size="256"/>
			<output>
				<port id="0" names="tcn.7.downsample.weight" precision="FP32">
					<dim>2</dim>
					<dim>32</dim>
					<dim>1</dim>
				</port>
			</output>
		</layer>
		<layer id="167" name="Conv_128/WithoutBiases" type="Convolution" version="opset1">
			<data auto_pad="explicit" dilations="1" pads_begin="0" pads_end="0" strides="1"/>
			<input>
				<port id="0" precision="FP32">
					<dim>1</dim>
					<dim>32</dim>
					<dim>320</dim>
				</port>
				<port id="1" precision="FP32">
					<dim>2</dim>
					<dim>32</dim>
					<dim>1</dim>
				</port>
			</input>
			<output>
				<port id="2" precision="FP32">
					<dim>1</dim>
					<dim>2</dim>
					<dim>320</dim>
				</port>
			</output>
		</layer>
		<layer id="168" name="Conv_128/Dims1857" type="Const" version="opset1">
			<data element_type="f32" offset="164200" shape="1, 2, 1" size="8"/>
			<output>
				<port id="0" precision="FP32">
					<dim>1</dim>
					<dim>2</dim>
					<dim>1</dim>
				</port>
			</output>
		</layer>
		<layer id="169" name="Conv_128" type="Add" version="opset1">
			<data auto_broadcast="numpy"/>
			<input>
				<port id="0" precision="FP32">
					<dim>1</dim>
					<dim>2</dim>
					<dim>320</dim>
				</port>
				<port id="1" precision="FP32">
					<dim>1</dim>
					<dim>2</dim>
					<dim>1</dim>
				</port>
			</input>
			<output>
				<port id="2" names="onnx::Add_263" precision="FP32">
					<dim>1</dim>
					<dim>2</dim>
					<dim>320</dim>
				</port>
			</output>
		</layer>
		<layer id="170" name="Add_129" type="Add" version="opset1">
			<data auto_broadcast="numpy"/>
			<input>
				<port id="0" precision="FP32">
					<dim>1</dim>
					<dim>2</dim>
					<dim>320</dim>
				</port>
				<port id="1" precision="FP32">
					<dim>1</dim>
					<dim>2</dim>
					<dim>320</dim>
				</port>
			</input>
			<output>
				<port id="2" names="input.251" precision="FP32">
					<dim>1</dim>
					<dim>2</dim>
					<dim>320</dim>
				</port>
			</output>
		</layer>
		<layer id="171" name="Relu_130" type="ReLU" version="opset1">
			<input>
				<port id="0" precision="FP32">
					<dim>1</dim>
					<dim>2</dim>
					<dim>320</dim>
				</port>
			</input>
			<output>
				<port id="1" names="onnx::MatMul_265" precision="FP32">
					<dim>1</dim>
					<dim>2</dim>
					<dim>320</dim>
				</port>
			</output>
		</layer>
		<layer id="172" name="onnx::MatMul_318" type="Const" version="opset1">
			<data element_type="f32" offset="164208" shape="40, 320" size="51200"/>
			<output>
				<port id="0" names="onnx::MatMul_318" precision="FP32">
					<dim>40</dim>
					<dim>320</dim>
				</port>
			</output>
		</layer>
		<layer id="173" name="MatMul_131" type="MatMul" version="opset1">
			<data transpose_a="false" transpose_b="true"/>
			<input>
				<port id="0" precision="FP32">
					<dim>1</dim>
					<dim>2</dim>
					<dim>320</dim>
				</port>
				<port id="1" precision="FP32">
					<dim>40</dim>
					<dim>320</dim>
				</port>
			</input>
			<output>
				<port id="2" names="onnx::Add_267" precision="FP32">
					<dim>1</dim>
					<dim>2</dim>
					<dim>40</dim>
				</port>
			</output>
		</layer>
		<layer id="174" name="Add_132" type="Add" version="opset1">
			<data auto_broadcast="numpy"/>
			<input>
				<port id="0" precision="FP32">
					<dim>1</dim>
					<dim>1</dim>
					<dim>40</dim>
				</port>
				<port id="1" precision="FP32">
					<dim>1</dim>
					<dim>2</dim>
					<dim>40</dim>
				</port>
			</input>
			<output>
				<port id="2" names="onnx::Transpose_268" precision="FP32">
					<dim>1</dim>
					<dim>2</dim>
					<dim>40</dim>
				</port>
			</output>
		</layer>
		<layer id="175" name="177" type="Const" version="opset1">
			<data element_type="i64" offset="160" shape="3" size="24"/>
			<output>
				<port id="0" precision="I64">
					<dim>3</dim>
				</port>
			</output>
		</layer>
		<layer id="176" name="output" type="Transpose" version="opset1">
			<input>
				<port id="0" precision="FP32">
					<dim>1</dim>
					<dim>2</dim>
					<dim>40</dim>
				</port>
				<port id="1" precision="I64">
					<dim>3</dim>
				</port>
			</input>
			<output>
				<port id="2" names="output" precision="FP32">
					<dim>1</dim>
					<dim>40</dim>
					<dim>2</dim>
				</port>
			</output>
		</layer>
		<layer id="177" name="output/sink_port_0" type="Result" version="opset1">
			<input>
				<port id="0" precision="FP32">
					<dim>1</dim>
					<dim>40</dim>
					<dim>2</dim>
				</port>
			</input>
		</layer>
	</layers>
	<edges>
		<edge from-layer="0" from-port="0" to-layer="3" to-port="0"/>
		<edge from-layer="1" from-port="0" to-layer="174" to-port="0"/>
		<edge from-layer="2" from-port="0" to-layer="3" to-port="1"/>
		<edge from-layer="3" from-port="2" to-layer="5" to-port="0"/>
		<edge from-layer="3" from-port="2" to-layer="23" to-port="0"/>
		<edge from-layer="4" from-port="0" to-layer="5" to-port="1"/>
		<edge from-layer="5" from-port="2" to-layer="7" to-port="0"/>
		<edge from-layer="6" from-port="0" to-layer="7" to-port="1"/>
		<edge from-layer="7" from-port="2" to-layer="8" to-port="0"/>
		<edge from-layer="8" from-port="1" to-layer="12" to-port="0"/>
		<edge from-layer="9" from-port="0" to-layer="12" to-port="1"/>
		<edge from-layer="10" from-port="0" to-layer="12" to-port="2"/>
		<edge from-layer="11" from-port="0" to-layer="12" to-port="3"/>
		<edge from-layer="12" from-port="4" to-layer="14" to-port="0"/>
		<edge from-layer="13" from-port="0" to-layer="14" to-port="1"/>
		<edge from-layer="14" from-port="2" to-layer="16" to-port="0"/>
		<edge from-layer="15" from-port="0" to-layer="16" to-port="1"/>
		<edge from-layer="16" from-port="2" to-layer="17" to-port="0"/>
		<edge from-layer="17" from-port="1" to-layer="21" to-port="0"/>
		<edge from-layer="18" from-port="0" to-layer="21" to-port="1"/>
		<edge from-layer="19" from-port="0" to-layer="21" to-port="2"/>
		<edge from-layer="20" from-port="0" to-layer="21" to-port="3"/>
		<edge from-layer="21" from-port="4" to-layer="26" to-port="0"/>
		<edge from-layer="22" from-port="0" to-layer="23" to-port="1"/>
		<edge from-layer="23" from-port="2" to-layer="25" to-port="0"/>
		<edge from-layer="24" from-port="0" to-layer="25" to-port="1"/>
		<edge from-layer="25" from-port="2" to-layer="26" to-port="1"/>
		<edge from-layer="26" from-port="2" to-layer="27" to-port="0"/>
		<edge from-layer="27" from-port="1" to-layer="29" to-port="0"/>
		<edge from-layer="27" from-port="1" to-layer="46" to-port="1"/>
		<edge from-layer="28" from-port="0" to-layer="29" to-port="1"/>
		<edge from-layer="29" from-port="2" to-layer="31" to-port="0"/>
		<edge from-layer="30" from-port="0" to-layer="31" to-port="1"/>
		<edge from-layer="31" from-port="2" to-layer="32" to-port="0"/>
		<edge from-layer="32" from-port="1" to-layer="36" to-port="0"/>
		<edge from-layer="33" from-port="0" to-layer="36" to-port="1"/>
		<edge from-layer="34" from-port="0" to-layer="36" to-port="2"/>
		<edge from-layer="35" from-port="0" to-layer="36" to-port="3"/>
		<edge from-layer="36" from-port="4" to-layer="38" to-port="0"/>
		<edge from-layer="37" from-port="0" to-layer="38" to-port="1"/>
		<edge from-layer="38" from-port="2" to-layer="40" to-port="0"/>
		<edge from-layer="39" from-port="0" to-layer="40" to-port="1"/>
		<edge from-layer="40" from-port="2" to-layer="41" to-port="0"/>
		<edge from-layer="41" from-port="1" to-layer="45" to-port="0"/>
		<edge from-layer="42" from-port="0" to-layer="45" to-port="1"/>
		<edge from-layer="43" from-port="0" to-layer="45" to-port="2"/>
		<edge from-layer="44" from-port="0" to-layer="45" to-port="3"/>
		<edge from-layer="45" from-port="4" to-layer="46" to-port="0"/>
		<edge from-layer="46" from-port="2" to-layer="47" to-port="0"/>
		<edge from-layer="47" from-port="1" to-layer="49" to-port="0"/>
		<edge from-layer="47" from-port="1" to-layer="66" to-port="1"/>
		<edge from-layer="48" from-port="0" to-layer="49" to-port="1"/>
		<edge from-layer="49" from-port="2" to-layer="51" to-port="0"/>
		<edge from-layer="50" from-port="0" to-layer="51" to-port="1"/>
		<edge from-layer="51" from-port="2" to-layer="52" to-port="0"/>
		<edge from-layer="52" from-port="1" to-layer="56" to-port="0"/>
		<edge from-layer="53" from-port="0" to-layer="56" to-port="1"/>
		<edge from-layer="54" from-port="0" to-layer="56" to-port="2"/>
		<edge from-layer="55" from-port="0" to-layer="56" to-port="3"/>
		<edge from-layer="56" from-port="4" to-layer="58" to-port="0"/>
		<edge from-layer="57" from-port="0" to-layer="58" to-port="1"/>
		<edge from-layer="58" from-port="2" to-layer="60" to-port="0"/>
		<edge from-layer="59" from-port="0" to-layer="60" to-port="1"/>
		<edge from-layer="60" from-port="2" to-layer="61" to-port="0"/>
		<edge from-layer="61" from-port="1" to-layer="65" to-port="0"/>
		<edge from-layer="62" from-port="0" to-layer="65" to-port="1"/>
		<edge from-layer="63" from-port="0" to-layer="65" to-port="2"/>
		<edge from-layer="64" from-port="0" to-layer="65" to-port="3"/>
		<edge from-layer="65" from-port="4" to-layer="66" to-port="0"/>
		<edge from-layer="66" from-port="2" to-layer="67" to-port="0"/>
		<edge from-layer="67" from-port="1" to-layer="69" to-port="0"/>
		<edge from-layer="67" from-port="1" to-layer="86" to-port="1"/>
		<edge from-layer="68" from-port="0" to-layer="69" to-port="1"/>
		<edge from-layer="69" from-port="2" to-layer="71" to-port="0"/>
		<edge from-layer="70" from-port="0" to-layer="71" to-port="1"/>
		<edge from-layer="71" from-port="2" to-layer="72" to-port="0"/>
		<edge from-layer="72" from-port="1" to-layer="76" to-port="0"/>
		<edge from-layer="73" from-port="0" to-layer="76" to-port="1"/>
		<edge from-layer="74" from-port="0" to-layer="76" to-port="2"/>
		<edge from-layer="75" from-port="0" to-layer="76" to-port="3"/>
		<edge from-layer="76" from-port="4" to-layer="78" to-port="0"/>
		<edge from-layer="77" from-port="0" to-layer="78" to-port="1"/>
		<edge from-layer="78" from-port="2" to-layer="80" to-port="0"/>
		<edge from-layer="79" from-port="0" to-layer="80" to-port="1"/>
		<edge from-layer="80" from-port="2" to-layer="81" to-port="0"/>
		<edge from-layer="81" from-port="1" to-layer="85" to-port="0"/>
		<edge from-layer="82" from-port="0" to-layer="85" to-port="1"/>
		<edge from-layer="83" from-port="0" to-layer="85" to-port="2"/>
		<edge from-layer="84" from-port="0" to-layer="85" to-port="3"/>
		<edge from-layer="85" from-port="4" to-layer="86" to-port="0"/>
		<edge from-layer="86" from-port="2" to-layer="87" to-port="0"/>
		<edge from-layer="87" from-port="1" to-layer="89" to-port="0"/>
		<edge from-layer="87" from-port="1" to-layer="106" to-port="1"/>
		<edge from-layer="88" from-port="0" to-layer="89" to-port="1"/>
		<edge from-layer="89" from-port="2" to-layer="91" to-port="0"/>
		<edge from-layer="90" from-port="0" to-layer="91" to-port="1"/>
		<edge from-layer="91" from-port="2" to-layer="92" to-port="0"/>
		<edge from-layer="92" from-port="1" to-layer="96" to-port="0"/>
		<edge from-layer="93" from-port="0" to-layer="96" to-port="1"/>
		<edge from-layer="94" from-port="0" to-layer="96" to-port="2"/>
		<edge from-layer="95" from-port="0" to-layer="96" to-port="3"/>
		<edge from-layer="96" from-port="4" to-layer="98" to-port="0"/>
		<edge from-layer="97" from-port="0" to-layer="98" to-port="1"/>
		<edge from-layer="98" from-port="2" to-layer="100" to-port="0"/>
		<edge from-layer="99" from-port="0" to-layer="100" to-port="1"/>
		<edge from-layer="100" from-port="2" to-layer="101" to-port="0"/>
		<edge from-layer="101" from-port="1" to-layer="105" to-port="0"/>
		<edge from-layer="102" from-port="0" to-layer="105" to-port="1"/>
		<edge from-layer="103" from-port="0" to-layer="105" to-port="2"/>
		<edge from-layer="104" from-port="0" to-layer="105" to-port="3"/>
		<edge from-layer="105" from-port="4" to-layer="106" to-port="0"/>
		<edge from-layer="106" from-port="2" to-layer="107" to-port="0"/>
		<edge from-layer="107" from-port="1" to-layer="109" to-port="0"/>
		<edge from-layer="107" from-port="1" to-layer="126" to-port="1"/>
		<edge from-layer="108" from-port="0" to-layer="109" to-port="1"/>
		<edge from-layer="109" from-port="2" to-layer="111" to-port="0"/>
		<edge from-layer="110" from-port="0" to-layer="111" to-port="1"/>
		<edge from-layer="111" from-port="2" to-layer="112" to-port="0"/>
		<edge from-layer="112" from-port="1" to-layer="116" to-port="0"/>
		<edge from-layer="113" from-port="0" to-layer="116" to-port="1"/>
		<edge from-layer="114" from-port="0" to-layer="116" to-port="2"/>
		<edge from-layer="115" from-port="0" to-layer="116" to-port="3"/>
		<edge from-layer="116" from-port="4" to-layer="118" to-port="0"/>
		<edge from-layer="117" from-port="0" to-layer="118" to-port="1"/>
		<edge from-layer="118" from-port="2" to-layer="120" to-port="0"/>
		<edge from-layer="119" from-port="0" to-layer="120" to-port="1"/>
		<edge from-layer="120" from-port="2" to-layer="121" to-port="0"/>
		<edge from-layer="121" from-port="1" to-layer="125" to-port="0"/>
		<edge from-layer="122" from-port="0" to-layer="125" to-port="1"/>
		<edge from-layer="123" from-port="0" to-layer="125" to-port="2"/>
		<edge from-layer="124" from-port="0" to-layer="125" to-port="3"/>
		<edge from-layer="125" from-port="4" to-layer="126" to-port="0"/>
		<edge from-layer="126" from-port="2" to-layer="127" to-port="0"/>
		<edge from-layer="127" from-port="1" to-layer="146" to-port="1"/>
		<edge from-layer="127" from-port="1" to-layer="129" to-port="0"/>
		<edge from-layer="128" from-port="0" to-layer="129" to-port="1"/>
		<edge from-layer="129" from-port="2" to-layer="131" to-port="0"/>
		<edge from-layer="130" from-port="0" to-layer="131" to-port="1"/>
		<edge from-layer="131" from-port="2" to-layer="132" to-port="0"/>
		<edge from-layer="132" from-port="1" to-layer="136" to-port="0"/>
		<edge from-layer="133" from-port="0" to-layer="136" to-port="1"/>
		<edge from-layer="134" from-port="0" to-layer="136" to-port="2"/>
		<edge from-layer="135" from-port="0" to-layer="136" to-port="3"/>
		<edge from-layer="136" from-port="4" to-layer="138" to-port="0"/>
		<edge from-layer="137" from-port="0" to-layer="138" to-port="1"/>
		<edge from-layer="138" from-port="2" to-layer="140" to-port="0"/>
		<edge from-layer="139" from-port="0" to-layer="140" to-port="1"/>
		<edge from-layer="140" from-port="2" to-layer="141" to-port="0"/>
		<edge from-layer="141" from-port="1" to-layer="145" to-port="0"/>
		<edge from-layer="142" from-port="0" to-layer="145" to-port="1"/>
		<edge from-layer="143" from-port="0" to-layer="145" to-port="2"/>
		<edge from-layer="144" from-port="0" to-layer="145" to-port="3"/>
		<edge from-layer="145" from-port="4" to-layer="146" to-port="0"/>
		<edge from-layer="146" from-port="2" to-layer="147" to-port="0"/>
		<edge from-layer="147" from-port="1" to-layer="167" to-port="0"/>
		<edge from-layer="147" from-port="1" to-layer="149" to-port="0"/>
		<edge from-layer="148" from-port="0" to-layer="149" to-port="1"/>
		<edge from-layer="149" from-port="2" to-layer="151" to-port="0"/>
		<edge from-layer="150" from-port="0" to-layer="151" to-port="1"/>
		<edge from-layer="151" from-port="2" to-layer="152" to-port="0"/>
		<edge from-layer="152" from-port="1" to-layer="156" to-port="0"/>
		<edge from-layer="153" from-port="0" to-layer="156" to-port="1"/>
		<edge from-layer="154" from-port="0" to-layer="156" to-port="2"/>
		<edge from-layer="155" from-port="0" to-layer="156" to-port="3"/>
		<edge from-layer="156" from-port="4" to-layer="158" to-port="0"/>
		<edge from-layer="157" from-port="0" to-layer="158" to-port="1"/>
		<edge from-layer="158" from-port="2" to-layer="160" to-port="0"/>
		<edge from-layer="159" from-port="0" to-layer="160" to-port="1"/>
		<edge from-layer="160" from-port="2" to-layer="161" to-port="0"/>
		<edge from-layer="161" from-port="1" to-layer="165" to-port="0"/>
		<edge from-layer="162" from-port="0" to-layer="165" to-port="1"/>
		<edge from-layer="163" from-port="0" to-layer="165" to-port="2"/>
		<edge from-layer="164" from-port="0" to-layer="165" to-port="3"/>
		<edge from-layer="165" from-port="4" to-layer="170" to-port="0"/>
		<edge from-layer="166" from-port="0" to-layer="167" to-port="1"/>
		<edge from-layer="167" from-port="2" to-layer="169" to-port="0"/>
		<edge from-layer="168" from-port="0" to-layer="169" to-port="1"/>
		<edge from-layer="169" from-port="2" to-layer="170" to-port="1"/>
		<edge from-layer="170" from-port="2" to-layer="171" to-port="0"/>
		<edge from-layer="171" from-port="1" to-layer="173" to-port="0"/>
		<edge from-layer="172" from-port="0" to-layer="173" to-port="1"/>
		<edge from-layer="173" from-port="2" to-layer="174" to-port="1"/>
		<edge from-layer="174" from-port="2" to-layer="176" to-port="0"/>
		<edge from-layer="175" from-port="0" to-layer="176" to-port="1"/>
		<edge from-layer="176" from-port="2" to-layer="177" to-port="0"/>
	</edges>
	<meta_data>
		<MO_version value="2021.4.0-3839-cd81789d294-releases/2021/4"/>
		<cli_parameters>
			<batch value="1"/>
			<data_type value="float"/>
			<disable_resnet_optimization value="False"/>
			<disable_weights_compression value="False"/>
			<enable_concat_optimization value="False"/>
			<extensions value="DIR"/>
			<framework value="onnx"/>
			<freeze_placeholder_with_value value="{}"/>
			<generate_deprecated_IR_V7 value="False"/>
			<input_model value="DIR/tcn_320.onnx"/>
			<keep_shape_ops value="True"/>
			<legacy_ir_generation value="False"/>
			<log_level value="ERROR"/>
			<mean_scale_values value="{}"/>
			<mean_values value="()"/>
			<model_name value="tcn"/>
			<output_dir value="DIR"/>
			<placeholder_data_types value="{}"/>
			<progress value="False"/>
			<reverse_input_channels value="False"/>
			<scale_values value="()"/>
			<silent value="False"/>
			<static_shape value="False"/>
			<stream_output value="False"/>
			<transform value=""/>
			<unset unset_cli_parameters="disable_fusing, disable_gfusing, finegrain_fusing, input, input_shape, move_to_preprocess, output, placeholder_shapes, scale, transformations_config"/>
		</cli_parameters>
	</meta_data>
</net>
